Lab2/deep_elu.pth (torch_old, 611500 bytes, 28 tensors)

layer1.0.weight f4 [25, 1, 1, 5]
00000000: 840f 1e3f e40d 523e 4ec3 06bf 6436 5fbe
00000010: 9882 9b3e 2a5b 7f3d 84dc e0be 195e 413f
00000020: 1a44 aa3d c1de d6be 2236 4dbd a0d0 853c
00000030: 7950 0dbd 259c 333e 5091 bb3c d500 7d3e
00000040: 55bc 25bf 92b9 223f 6efe f73e 3ff0 1dbf
00000050: d000 a4be 52dd 28bd 12db 5abd 0fb7 cdbd
00000060: bc65 43be 9dfc db3e 7f02 75bf 74e5 653e
00000070: 4306 943f ef5c 70bf 74bf d63a 5462 df3d
00000080: 1f0e 34be 4d43 e1bd 233e 0d3d d732 3abe
00000090: 5099 493f ea8e 27bf 28da acbe b189 933e
000000a0: efeb 5cbf 41fd ca3e e907 ea3c b4ff 53be
000000b0: bbc6 643d 88fb 25bd 3bd7 1bbf 12b9 f3bd
000000c0: bc3d 953e 60c7 283b 4915 0cbe 38ce b4bd
000000d0: a1f1 103f 6036 e23e 84b5 3cbf c7a4 17bf
000000e0: be96 8d3f 3e68 81be 0558 24bf 058d dc3e
000000f0: d5cb 073e b4d6 f83e 5c35 1ebe 8aec 06bf
00000100: 2e1b 64bd 6110 6c3f 3cab 51bf 88ee ae3d
00000110: 2cb0 af3e 31b7 4cbe 9a3e b23e 0e19 983e
00000120: 0ac9 86bf 1de2 fabd a12e d73e 5f1c e93d
00000130: 4b7e b8bd 5878 083f 4bf4 09bf 7d01 213e
00000140: d276 ebbe 27ac 843f 801a 88be 47bb 2bbf
00000150: 1594 1c3e 84a2 0ebf dda6 8d3e 84c7 513f
00000160: 4f24 863e 4d69 3dbf e6be d2be 198c ef3e
00000170: f040 91bd 388e 74be ae71 a83e 7470 e33e
00000180: 420c dabe d704 ac3c ad3f 03bf 79fd d73e
00000190: f7ce 45bf bfcb afbd 943e 9ebc 580d 4f3f
000001a0: 2334 38bf be80 083f 11f8 6abf 88b8 c33e
000001b0: 17af 0a3d 9b7a 6c3e cb21 99be 23e8 9cbd
000001c0: 2ab4 aabe c60a bc3b d717 073f 9736 78bf
000001d0: abd8 7f3f e75b c4bd 8150 25be ee4b 353e
000001e0: 925f b9be de9c 7bbd 7c78 4c3f e2e4 253f
000001f0: 06ff 6ebf
0.61742425 0.20513111 -0.5264176 -0.21798092 0.30373073 0.0623428 -0.4391824 0.75534207
0.083137706 -0.41966823 -0.050100453 0.016334832 -0.034500573 0.17540033 0.022896439 0.24707349
-0.64740497 0.6356441 0.48436302 -0.6169471 -0.3203187 -0.041226692 -0.053431578 -0.10044681
-0.19081777 0.42966166 -0.95706934 0.2245081 1.1564411 -0.93891805 0.0016383962 0.109074265
-0.17583512 -0.10999165 0.034483086 -0.18183456 0.7874956 -0.65452445 -0.3376019 0.28815988
-0.86297506 0.39646342 0.028568225 -0.20703012 0.055853587 -0.040523082 -0.6087529 -0.11900534
0.29148662 0.0025753602 -0.13679995 -0.088283956 0.56618696 0.4418211 -0.7371447 -0.59235805
1.1061628 -0.25274843 -0.6419681 0.4307634 0.1326135 0.48601305 -0.15450042 -0.5270468
-0.055689983 0.9221249 -0.8190191 0.0854159 0.34314096 -0.19991757 0.34813386 0.29706615
-1.0530102 -0.12250159 0.42027763 0.113823645 -0.090084635 0.5330863 -0.53888386 0.15723224
-0.4598909 1.0365037 -0.26582718 -0.6708264 0.15290864 -0.5571673 0.2766637 0.8194506
0.26199576 -0.739888 -0.4116127 0.46786574 -0.07092464 -0.23882377 0.3289923 0.44421732
-0.42587477 0.020998402 -0.51269037 0.42185572 -0.7726893 -0.08583783 -0.019316949 0.80879736
-0.71954554 0.53321445 -0.9178477 0.38226724 0.033858385 0.23093645 -0.29908594 -0.07661464
-0.3334058 0.005738589 0.5277075 -0.969583 0.99939984 -0.095878415 -0.16143991 0.17704746
-0.36205727 -0.061428897 0.79871345 0.6480237 -0.93357885

layer1.0.bias f4 [25]
00000000: 747a ccbd fe0a 373e 0e7f 03be 44e3 9b3d
00000010: 77cc 34be 4f1e 82be 1e7e 213e 4920 c0be
00000020: 5346 3b3d 0fd4 b13e 6e2c 50bd 268b 4abe
00000030: 281b 653e 9ece 2dbd c661 4bbe e042 b7bb
00000040: e663 413e dc34 e43e f63d ffbd a937 d4be
00000050: 1174 ec3d f664 863e 410e 7fbe 86e0 873e
00000060: 64b9 b83e
-0.099842936 0.17875287 -0.12841436 0.07611707 -0.17656122 -0.2541375 0.15770766 -0.37524632
0.045721363 0.347321 -0.05082362 -0.19779643 0.2237364 -0.042433374 -0.19861516 -0.005592689
0.18885764 0.44571579 -0.1246299 -0.41448715 0.115455754 0.26248902 -0.24907781 0.26538485
0.36078942

layer1.1.weight f4 [25, 25, 2, 1]
00000000: 984a bc3d a822 c5be 61a9 31bd 63ea e23e
00000010: cf0c 2f3d 8581 f13c 8249 75bb 8875 063f
00000020: fcfc 9b3d 7be7 9d3c 1fb9 27bc f8b4 ae3f
00000030: 9a02 1abd a94f cbbd 798a 393b 2997 05bf
00000040: 66f4 25be a704 b1ba b806 643d fd44 fa3d
00000050: 9dbc 92bc 355e dd3e 9516 4fbe c963 2cbf
00000060: 873a 9e3a 835e a7be 96b1 983d 7dd0 c53d
00000070: eed1 d63d cf78 61bf 1244 cfbd 50c9 18be
00000080: adbf 83bd 8320 5bbf fd84 1cbe 724b f23e
00000090: ffdf c2bd 4b9d 18be a360 12be 6ca6 60be
000000a0: 7405 523d cc77 883e 566a debb b43f b43e
000000b0: c32f 96bd bb96 08be 8f3d 483d b66a 8fbe
000000c0: 3e89 b0bd 1ec8 4a3f 547b 063d 56d3 c43d
000000d0: ec83 2c3d b939 4ebe 9ba7 f6bc 15d4 50bd
000000e0: effe 1bbd 4358 adbe 5a38 d5bc b3f7 833b
000000f0: a6ef 1fbd f6f1 09c0 9a95 ea3d edca bdbc
00000100: abc5 a13d fa30 5e3e d93e 05be b6f4 a03e
00000110: 22af 823d ccc8 9abe 5422 0fbe 5c4e 31be
00000120: 9e0e c8bd e6e1 a83f 9c6d 8a3e 0b13 5a3e
00000130: 6638 e13d 2b4f 1fbf dc8c 003e b3a1 43bd
00000140: 395e ef3d acf3 f43e 5bc3 5a3c 3cae 803f
00000150: 0b39 19be 47dd 793e c0ea 62be ff25 e13e
00000160: 8389 3a3e b066 35bd 70d5 24be 0675 8fbe
00000170: 5820 c23d 9532 1dbe 711a fcbd 4f60 d9bc
00000180: aeb8 50be 4ba6 423f 1f29 45bc b021 cdbd
00000190: 144c 313d 9f66 9d3e 2269 32bd b921 8d3d
000001a0: eabe 16be 2166 3a3e 8980 30be ac29 2b3e
000001b0: baff 493e 5a68 e6be 50ee 6bbf ed04 a1bb
000001c0: b563 083e c55a 46be 3207 ba3e 01f5 70be
000001d0: 5672 b93e 8cfe c6be 3724 3fbe fa67 81be
000001e0: fed0 40bc 22d1 043e d058 443f 6bab bfbe
000001f0: 06da fd3e 2707 a9be 7947 fbbe 84f5 f73e
00000200: e330 ff3d d104 dfbd eb56 8c3d de15 4e3e
00000210: 06ec 513f 276c 16bf 850d 993c bfc9 3c3e
00000220: 83d0 9b3c add8 383e b64b 82bd 3860 0d3e
00000230: 0063 413e d09c 19bf 5470 d2be 8634 0a3f
00000240: 4240 9bbd 37b9 85be b02b 023f 7486 cfbe
00000250: dfe0 32be 651f c3bc f09d 87be c157 153e
00000260: c069 dc3e 26d8 babe 349c acbd 7cb6 9f3d
00000270: 3aa1 e93e f40c 01be 45c3 d43c ab2d 40be
00000280: bd64 443f e7de d2bd 1a17 bcbc 8e8b 19be
00000290: d882 1cbe 9412 e43c eba5 99bd 24ba 85bd
000002a0: 739c b03d b3eb 8f3b b534 053f 2306 bebc
000002b0: 565d 80be 2be7 78bd 695a e93c 9cf1 84be
000002c0: 0b7a 343e dc9e 46bc a6eb f6be 16cc cd3e
000002d0: 1670 eebd 0614 26be f11c 8cbd 4695 17be
000002e0: 9cb4 153f e782 8abe a6be b5bd b50c f83c
000002f0: 63da 0bbf 547d 163e 061c 083f 27a7 10be
00000300: 07b4 cfbd e297 223e 69f4 8cbe 692c 123e
00000310: 43b9 603e c254 f1bd 8b68 5f3f d3d5 c4be
00000320: ff10 45be cce7 88be a963 73b9 178e 6bbe
00000330: f091 763d 9488 133d 4373 c53c 3e22 9cbe
00000340: b27b 0f3e 3b2d 283c 9340 023e 54d6 97bf
00000350: 3503 7f3d fac3 b8bd 2d6d 5cbd d093 a53d
00000360: 924b e03d 4046 df3e 0f68 413e 2da6 4ebe
00000370: 517d 11be 2d80 783a d35e 07be fdda 223f
00000380: 9220 2ebd 0027 bebd 834f 00be 20eb 17bf
00000390: 847d cbbd 7cd6 bdbe 5854 b6bc 4351 a4bc
000003a0: b85f 7dbd 3a57 be3e 7902 bfbd b9c5 7b3e
000003b0: 9185 973c 98b1 d43e caa8 a63d 6938 29be
000003c0: 0300 54bd ca5f 35bc e078 223d df32 52be
000003d0: e4b9 d03d c232 0b3e c044 9abd 92e1 c53f
000003e0: 4905 19bd 12d5 89bd 8ca8 a0be 0a84 4d3e
000003f0: c9b4 293e ce02 3cbe a81f 18bc 4363 7a3c
0.09193915 -0.38503003 -0.043374423 0.44319448 0.042736825 0.029480705 -0.0037427847 0.5252309
0.07616612 0.019275418 -0.010237007 1.3648977 -0.037600137 -0.09927303 0.0028311296 -0.5218378
-0.16206512 -0.0013505415 0.05567047 0.1222019 -0.017912203 0.43235937 -0.20223458 -0.6733976
0.0012071886 -0.32689294 0.07455747 0.096589066 0.1048926 -0.88074964 -0.10120405 -0.14920545
-0.06433044 -0.85596484 -0.15285106 0.47323185 -0.0951538 -0.14903753 -0.14294676 -0.21938485
0.05127473 0.26653898 -0.0067875786 0.35204852 -0.073333286 -0.13338749 0.04888683 -0.280111
-0.08619927 0.79211605 0.03283246 0.09610622 0.042117998 -0.20139207 -0.030109217 -0.050983507
-0.03808492 -0.338564 -0.026027847 0.004027331 -0.039046906 -2.1553931 0.114543155 -0.023168052
0.0789903 0.2169837 -0.13012256 0.314367 0.0638106 -0.3023132 -0.13977939 -0.17315048
-0.09768413 1.3193939 0.2703675 0.21296327 0.10997085 -0.62230176 0.12553734 -0.04776163
0.116878934 0.47842157 0.01335224 1.0053172 -0.14963166 0.24400817 -0.22159863 0.439743
0.18216519 -0.044287384 -0.16097045 -0.2801897 0.09478825 -0.15351327 -0.12309731 -0.026535181
-0.2038295 0.7603499 -0.01203373 -0.10016191 0.043285444 0.30742356 -0.043557294 0.06891198
-0.14721265 0.18203022 -0.17236532 0.16715115 0.19726458 -0.4500149 -0.9216051 -0.0049139173
0.13319285 -0.19370563 0.36333615 -0.23530962 0.36220044 -0.3886608 -0.18666159 -0.2527464
-0.011768578 0.12970403 0.7669802 -0.3743547 0.495804 -0.3301327 -0.49077967 0.484295
0.12460496 -0.108895905 0.06852516 0.20125529 0.8200077 -0.5875878 0.018683204 0.18436335
0.019020325 0.18051405 -0.06362097 0.13806236 0.18885422 -0.600049 -0.41101325 0.53986394
-0.075806156 -0.2611787 0.5084791 -0.40532267 -0.17468594 -0.023818681 -0.26487684 0.14584257
0.4304943 -0.36493033 -0.08428231 0.07798478 0.4563082 -0.12602597 0.025972018 -0.18767421
0.76716214 -0.102964215 -0.022960234 -0.14994642 -0.15284288 0.02784089 -0.075023495 -0.06529644
0.0862359 0.004392111 0.5203355 -0.023196286 -0.2507121 -0.060767334 0.028485494 -0.25965583
0.1762468 -0.012122836 -0.4822666 0.40194768 -0.116424724 -0.16218576 -0.06841458 -0.14803037
0.58478713 -0.27052996 -0.08874254 0.030279497 -0.54630107 0.14696246 0.5316776 -0.14126264
-0.10141759 0.15878251 -0.2753022 0.14274754 0.21945672 -0.117837444 0.87268895 -0.38444385
-0.19244765 -0.26739347 -0.00023211412 -0.23003422 0.06019777 0.036018923 0.024102813 -0.30494875
0.1401203 0.01026469 0.12719946 -1.1862283 0.062258918 -0.090217546 -0.053815056 0.080848336
0.10951914 0.43608284 0.18887351 -0.20180579 -0.1420796 0.0009479549 -0.13219766 0.636154
-0.04251153 -0.092847824 -0.12530331 -0.5934315 -0.099360496 -0.370777 -0.022257015 -0.02005828
-0.061858863 0.37175924 -0.093266435 0.24587144 0.018496307 0.41541743 0.08137663 -0.16525425
-0.051757824 -0.011070201 0.039666057 -0.20527218 0.10191706 0.13593581 -0.07532644 1.5459464
-0.037358556 -0.06730093 -0.3137859 0.200699 0.1657287 -0.18360445 -0.009284891 0.015282455

layer1.1.bias f4 [25]
00000000: 42b7 163e caa4 d2bc 1a85 c4bd aee7 283d
00000010: 8bf5 45bd cc54 193e a1fd 513d afaa d8bd
00000020: 9dd1 a73d 4c60 aa3d 88dd 663e afa7 3cbe
00000030: e641 ddbd 26d0 edbd f0b4 95bd ed32 2c3e
00000040: 46ab 82bd 5f30 0dbd 5a54 b6bd 6ae4 c2bd
00000050: 50a3 03be 9896 6cbe 0b64 123e 1489 06be
00000060: b480 c33d
0.14718345 -0.025713343 -0.095956996 0.041236572 -0.04832987 0.14973754 0.05126727 -0.1057943
0.081942774 0.083191484 0.22545445 -0.18423341 -0.10803585 -0.11611967 -0.07309902 0.16816302
-0.06380324 -0.03446996 -0.089028075 -0.09516223 -0.12855268 -0.23104322 0.14295976 -0.13138229
0.095460325

layer1.2.weight f4 [25]
00000000: 557e 8d3f e303 9a3f 6ca5 9d3f 503b 673f
00000010: db5a 8a3f 41a7 523f c5d7 883f e674 b13f
00000020: 6e3d a53f c71d 8d3f d8f8 9f3f 0bda 603f
00000030: d928 8e3f 1eec 973f 12a1 843f 3630 a23f
00000040: a313 7b3f 199c 883f eef2 833f 0630 833f
00000050: 7bfe 543f 227e 7a3f 8a09 a73f 2ae9 b43f
00000060: ecd2 9e3f
1.1054178 1.2032436 1.2316108 0.9032488 1.0808977 0.8228646 1.0690848 1.38638
1.2909372 1.1024712 1.2497816 0.8783271 1.1106216 1.1868932 1.0361655 1.2670963
0.9807684 1.0672637 1.0308511 1.024903 0.83200806 0.97848713 1.3049786 1.4133656
1.2408118

layer1.2.bias f4 [25]
00000000: 1745 24bf 6b77 1bbf 347c 09bf 1d6c bfbe
00000010: 1d02 bebe 1be5 d0be 6f64 c3be 022c d9be
00000020: 465c 7ebe 5e89 ffbe 78bc 48bf cd3b efbe
00000030: c5a8 22bf 514c 1dbf 15a2 9ebe de79 24bf
00000040: 84b8 9dbe 4cd1 0ebf fd05 05bf 8f74 3fbf
00000050: 9e2d e9be e1a6 4abf 7726 12bf ec45 3dbf
00000060: 44e0 1bbf
-0.6416792 -0.6072909 -0.53705144 -0.3738717 -0.37110987 -0.40799794 -0.38162562 -0.42416388
-0.24839887 -0.4990949 -0.7841258 -0.46725312 -0.6353877 -0.61444575 -0.30983034 -0.64248455
-0.30804837 -0.5578811 -0.5196226 -0.7478723 -0.45542616 -0.79160887 -0.5708994 -0.7393482
-0.6088908

layer1.2.running_mean f4 [25]
00000000: 50f1 6b3f 2c79 ee3e 6f9a 7fbd 8ce5 143f
00000010: f54a 133f bc41 cf3e 9829 d3be 39c5 a5bf
00000020: 1d4e fb3e 2bcd 31bf 10d4 7b3f eb9d 89bf
00000030: 6a31 6fbf 3ee3 e53e bc0d 113d f1cb 50bd
00000040: f21b 54bf 29d3 f8be a84d 30be 0474 39bf
00000050: 3852 3a3f 0a9e 94bf cb75 de3e 81eb bfbe
00000060: 8b01 563e
0.9216509 0.46576822 -0.06240314 0.5816276 0.5753625 0.4047984 -0.4124267 -1.2950813
0.49083033 -0.69453686 0.98370457 -1.0751318 -0.93434775 0.44899935 0.03541349 -0.050975744
-0.8285514 -0.48598602 -0.17217124 -0.7244265 0.72781706 -1.161073 0.43449244 -0.37484363
0.20899026

layer1.2.running_var f4 [25]
00000000: 62ed 8143 6b49 3443 e958 fd42 dcf7 1043
00000010: 7bf6 e842 aa68 dc42 165a 1b43 c2d5 6843
00000020: 8d77 d342 7316 e742 fa86 1543 cbdd 6e43
00000030: 0157 5043 1638 6543 714d ff42 022e cb42
00000040: b363 8c43 3fb2 4c43 d187 1843 bf01 3243
00000050: 7422 d242 489d 5743 bbf7 2543 0249 c342
00000060: 2514 0e43
259.85455 180.28679 126.67365 144.9682 116.48141 110.20442 155.3519 232.83499
105.7335 115.543846 149.52725 238.86638 208.33986 229.21909 127.65125 101.58986
280.7789 204.69627 152.53053 178.00682 105.06729 215.61438 165.9677 97.64259
142.07869

layer2.0.weight f4 [50, 25, 1, 5]
00000000: 3e23 de3c f647 d5bc 7f67 25be 04d8 923c
00000010: 003b d63d 5723 433f 974f 043e a697 b4be
00000020: cad1 473f 9841 15bf f2ac 8dbf 89e6 8fbf
00000030: e8ad babf 9f07 4cbf 08e0 35bf 7df1 5bbe
00000040: abfe 8abe 7ea6 dfbe 2132 87be d9bc 05be
00000050: 54bd 513f 18ca 02bf 59ea 13be c58f ae3e
00000060: 740a 29be ff35 03bf f069 03bf e015 a2be
00000070: bcba 03bf 94d7 6cbe efd5 f43d aa79 893d
00000080: 0d86 4c3c 735d 343f 4397 e5be cef0 66bf
00000090: 00a3 22be 215c 21bf 2995 d4bd 2d37 0dbf
000000a0: dc53 76be bf98 1fbf f9a9 4ebe 96d7 28bd
000000b0: 4ead 5a3e 6bf8 aebe 4d1d 31bf 8501 d1be
000000c0: 5319 09be 416d bcbe 556d c8be 62d3 b5be
000000d0: e31e f4bd bc14 673e 2a71 78be 3807 4bbd
000000e0: 804b 1bbe af11 27be cc35 d03e 01fc f9be
000000f0: 3305 cabe 2ea8 7c3e 842b c4bd f94e 2f3e
00000100: a7a1 fdbd 655d 983e d393 b5be 82fb c43d
00000110: a359 8d3d f121 b23e 8955 b73e 8c8c 1abf
00000120: b915 4bbe d907 5dbe d695 0a3e 95c2 41bf
00000130: 99e6 02bf 3ae4 f9be 4841 d4be 424e 29be
00000140: be26 ddbe 2ec3 e73d 315c 1ebe be2a 073f
00000150: 3e5e dfbe c3c5 20bf e403 fb3d 87cd 93be
00000160: 50ff 573e 0930 c23d fb2d b1be fb18 9ebe
00000170: b607 a73c 5b3b 15be e683 f7bc 91dc 9dbe
00000180: 491d 12bd 450c 08be 6660 4e3e 99c4 9a3c
00000190: 1aa3 be3e cc41 13bf deda 223e b697 bfbe
000001a0: 0a14 7f3d 4f2e b0be 77c2 f2be 67a5 73be
000001b0: c2fa 3dbe 8f2d ddbe 18be fc3d 6929 42bf
000001c0: d120 24be 4556 d5be e79e c43e dd1b 22bf
000001d0: 6e65 ee3e f6b2 293e b052 ff3e 4e87 b33e
000001e0: fcf4 78be 7772 f4be d502 1dbf ed0f 61be
000001f0: 8856 91be 1d91 b6be 1660 0fbf 4909 9d3e
00000200: 357c 92bd a7c3 b13e d438 ffbe edc5 fa3e
00000210: 81e7 b63d be3c 8bbc e060 2bbf 9225 143e
00000220: c13a a53e 98dd fe3d b883 933e 2d43 a3be
00000230: 3257 b43e aee3 e3be 0138 2f3d efff 17be
00000240: 2de8 21bd d0f3 05be c9a1 fc3e 3e90 af3d
00000250: 958f d43e 0bf1 e7bd d855 2c3e 2a2e 08bf
00000260: 9f29 83bd 4945 f3bc cc81 91bd d1f3 66be
00000270: 18dd 323f b175 223d 7650 ce3b c87e 44bf
00000280: 7867 f0be fd91 38be e23d 013e e724 f7bc
00000290: b857 69be 95a5 debd 9a74 363e e7c7 92be
000002a0: ba27 cf3e 1462 b63e 686f ca3e 2f7c 7bbe
000002b0: 29c3 213e af66 cbbd 827d 77be f28a 963e
000002c0: 4c92 ae3e 392f 32bd 6a82 c7be 2943 cbbe
000002d0: 2adf aebc fa00 57be e455 0ebe c3b3 823e
000002e0: 7800 f1be 23bf 9dbe 34be 18be 94c4 9e3d
000002f0: 59a9 003d bff6 0abe 3e6e 75be dae9 3dbd
00000300: 90a4 0e3d 2283 043e a057 ac3e ddb7 aebe
00000310: 9fd8 593e 014d fabe bc42 513e 9c31 ba3d
00000320: 79a9 94be f334 9ebd cff5 0f3e 4513 6f3e
00000330: bbbc a83e a352 fabd 4810 993e 9c07 5f3d
00000340: e8e3 46bd 81b9 1cbf 7c17 22be 7945 d7bc
00000350: 9847 2a3e 8c7a a6be 6a9a 03bd 1227 b53e
00000360: e1f4 57be 0109 b6bc a751 42be 05da 03bf
00000370: 0670 4ebe 80d8 7abe 1370 bcbd fdf4 bb3c
00000380: 0964 9fbe 202e b63d 4ffc 5d3e d2c5 0f3e
00000390: fcb7 9ebe cde9 4bbd 17f6 dfbe de64 26be
000003a0: 5923 89be 4bd3 e43d 2699 d6be 3cd1 c7be
000003b0: daed 29be c977 ae3d 0e67 383c efba e43d
000003c0: 39e9 053d d682 90be 73b8 2fbe 046a 063c
000003d0: 741f 52bf 267d 60be 092b a23e 299b e3be
000003e0: 7dc6 cf3e e8fa 3fbe b843 dd3d e416 edbe
000003f0: 9cbe 313d 2ea9 7d3e c299 bfbe c6dc ffbd
0.027116414 -0.02603529 -0.16152762 0.01792527 0.10460472 0.762258 0.12920986 -0.3527195
0.7805449 -0.58303213 -1.1068404 -1.1242229 -1.4584322 -0.7969913 -0.7104497 -0.21478839
-0.2714742 -0.4368171 -0.26405433 -0.13060321 0.81929517 -0.5108962 -0.14444865 0.34094062
-0.16507894 -0.51254267 -0.5133352 -0.31657314 -0.5145681 -0.23129112 0.11954867 0.06712659
0.012483132 0.7045509 -0.44841966 -0.9021119 -0.15882492 -0.630312 -0.103800125 -0.55162317
-0.24055427 -0.6234245 -0.20182027 -0.041221224 0.21355173 -0.34173903 -0.69185334 -0.40821472
-0.13388567 -0.36802104 -0.39145914 -0.35512835 -0.11919954 0.22566503 -0.24261919 -0.04956743
-0.1516552 -0.1631534 0.40666044 -0.48825076 -0.39457092 0.2467353 -0.095786124 0.1711997
-0.12384348 0.29758754 -0.35464343 0.09618284 0.069018625 0.3479152 0.35807446 -0.6037071
-0.19832505 -0.21585025 0.1353372 -0.75687534 -0.51133114 -0.48806936 -0.41456056 -0.16533759
-0.4319362 0.113165244 -0.15464856 0.52799594 -0.4362659 -0.6280176 0.122566015 -0.28867742
0.21093488 0.09481818 -0.34605393 -0.30878434 0.020389419 -0.14573424 -0.030214261 -0.3083234
-0.03567246 -0.1328593 0.2015396 0.018892573 0.37233812 -0.57522273 0.15903804 -0.37420434
0.06227497 -0.3441033 -0.4741399 -0.23793565 -0.18552688 -0.4319882 0.12340945 -0.75844437
-0.16028143 -0.4166738 0.38402483 -0.63323766 0.4656176 0.16572174 0.49867773 0.35064167
-0.24312204 -0.4774358 -0.61332446 -0.21978731 -0.2838633 -0.35657588 -0.5600599 0.30671147
-0.07152597 0.34719583 -0.49848044 0.4897913 0.089308746 -0.016996738 -0.66944695 0.14467457
0.32271388 0.124446094 0.2881143 -0.3188719 0.35222775 -0.44509643 0.04277802 -0.14843725
-0.03952806 -0.13081288 0.49342182 0.08572434 0.41515794 -0.11325272 0.16829622 -0.5319544
-0.06404423 -0.029696124 -0.07104835 -0.22553946 0.6986861 0.03966302 0.006296213 -0.7675595
-0.4695394 -0.1802444 0.12621263 -0.030168964 -0.22787368 -0.10871426 0.17817917 -0.28668138
0.40459996 0.35621703 0.3953812 -0.24559091 0.15797104 -0.09931695 -0.24168971 0.29402882
0.3409599 -0.043502066 -0.38966686 -0.39699677 -0.021346647 -0.20996466 -0.13899952 0.25527772
-0.4707067 -0.30809888 -0.14916307 0.07752338 0.031411503 -0.13570689 -0.23967835 -0.046365596
0.034824908 0.12940648 0.33660603 -0.34124652 0.2127404 -0.48886874 0.20435613 0.090914935
-0.29035547 -0.07724943 0.14058612 0.23347194 0.3295649 -0.12222793 0.29895234 0.054450616
-0.048557192 -0.61220556 -0.15829271 -0.026278244 0.16628873 -0.3251537 -0.032129683 0.3538137
-0.21089508 -0.02222109 -0.1897646 -0.51504546 -0.20159921 -0.2449665 -0.09201064 0.022943968
-0.31131008 0.088955164 0.2167828 0.14040306 -0.30999744 -0.049783517 -0.4374244 -0.16249415
-0.2678478 0.111731134 -0.41913718 -0.3902682 -0.1659464 0.08518941 0.011255039 0.11168467
0.03269312 -0.2822482 -0.17160206 0.008203987 -0.82079244 -0.2192274 0.31673458 -0.44454315
0.40581122 -0.18748057 0.10803932 -0.46306527 0.04339467 0.24771568 -0.37421995 -0.12493281

layer2.0.bias f4 [50]
00000000: 53b2 9fbd d34a c0bd 71f5 b63d add8 203e
00000010: 584a 143d 2ac4 b93c ffcd 73bd 33b4 2dbe
00000020: fe77 fdbc ff04 48bc cf9d 13bd afda f8bb
00000030: 08a8 b93c 4efe 7e3d 91fd a3bd c795 6a3d
00000040: 80d6 bf3c 356c c63c 8dae 8bbc a2ce 28be
00000050: 85c0 5e3c f192 59bd 6953 76bd 3647 403e
00000060: d010 6bbc 4169 7e3d 0f84 ff3c 4c36 70bd
00000070: a4f0 423d bf04 d63c 1a72 c33d c979 c5bd
00000080: ea2b ae3c e389 f13c 4010 5d3d 095c 9b3d
00000090: bdbb 88bd bf51 48bd db00 d33d 580b 23bd
000000a0: 8bb5 713d f5c0 a83d 486b c53d 5dc0 9a3d
000000b0: 7488 aa3d c5ec 9fbd 8ccc 74bd cf99 78bd
000000c0: 9906 24bd 611a 903c
-0.077976845 -0.093892716 0.08933533 0.15707655 0.036203712 0.022676546 -0.059522625 -0.16963272
-0.030941006 -0.012208222 -0.03603917 -0.0075944285 0.022663131 0.062254243 -0.08007348 0.057271745
0.023417711 0.024221519 -0.017051006 -0.16485074 0.013595705 -0.05311865 -0.06013814 0.18777165
-0.01434727 0.062112097 0.0311909 -0.05864553 0.047592774 0.02612531 0.095432475 -0.09642369
0.021261174 0.029484695 0.053970575 0.07585914 -0.06676433 -0.048906084 0.103028975 -0.03980574
0.059011023 0.08239929 0.09639603 0.07556222 0.083268076 -0.07808832 -0.059765384 -0.06069356
-0.040045355 0.017590703

layer2.1.weight f4 [50]
00000000: 5f30 f23f 2133 a43f ccd0 6c3f d1b5 a93f
00000010: 2172 a33f 530c 443f 40f4 8d3f d570 613f
00000020: 72f0 b13f 9f08 a53f 42da 743f b87d a43f
00000030: 92fc 893f e966 b93f 3b25 ab3f 342c 903f
00000040: 438f c03f d139 823f 0bc8 b73f c7c4 b83f
00000050: c619 7d3f 93cc 893f a1b7 a33f 2c22 ac3f
00000060: 5428 c63f a58b 833f 0af1 ac3f cc05 903f
00000070: 607d 883f 2e34 943f ec5f 693f 655f 943f
00000080: 2092 b63f f7f3 693f b429 843f 2202 8f3f
00000090: 26dd b33f 488b 633f f3ea 9f3f 7f1f 8b3f
000000a0: 71b4 d43f 02e1 673f bee0 b33f c726 b63f
000000b0: 3989 853f b272 aa3f 733e 853f 36d0 a53f
000000c0: ed73 ad3f e874 843f
1.8921012 1.2828103 0.925061 1.3258611 1.2769204 0.76581305 1.1090164 0.88062793
1.3901503 1.2893256 0.95645535 1.2850866 1.0780203 1.4484531 1.3370737 1.126349
1.504372 1.0173894 1.4357923 1.4435052 0.9886745 1.0765556 1.2790414 1.3447928
1.5481057 1.0276991 1.3511059 1.1251769 1.0663261 1.1578424 0.9116199 1.1591612
1.4263344 0.91387886 1.0325227 1.1172526 1.4051864 0.888844 1.2493576 1.0868987
1.6617566 0.9057771 1.4052961 1.4230584 1.0432502 1.3316252 1.0409683 1.2954166
1.3551003 1.0348177

layer2.1.bias f4 [50]
00000000: 7517 b0bf c3ce 4dbf 6c58 2fbf 8c12 49bf
00000010: a300 13bf 6399 20bf 202b 46bf e9b9 55bf
00000020: 01d4 5bbf 6d37 68bf af57 aabf 19c2 bebf
00000030: 7a52 2cbf 3434 67bf a6cf 14bf cb6d 05c0
00000040: 9228 83bf 6ea9 5dbf ab65 9fbf 574e 57bf
00000050: 9291 bcbe 8296 05bf 1e3d 86bf f116 1fbf
00000060: 7661 16bf 26c4 3ebf e7f7 95bf ac75 64bf
00000070: 29a7 78bf 4c31 37bf e2ba e6be 27f6 6cbf
00000080: 828a abbf 2f04 07bf b954 c7be 1f0f 5bbf
00000090: ef41 68bf 308c a3be 467c 3bbf 599d 50bf
000000a0: 9c6f 5bbf 0d35 e3bf 2c88 6cbf dbcf 93bf
000000b0: 6277 adbf b723 94bf e879 33bf 716f 08bf
000000c0: f3c6 86bf 91fb 4abf
-1.3757159 -0.8039362 -0.68494296 -0.78543925 -0.57422847 -0.6273405 -0.77409554 -0.834868
-0.8587037 -0.90709573 -1.3308009 -1.4902984 -0.6731335 -0.9031403 -0.58129346 -2.0848262
-1.0246756 -0.86586654 -1.2452902 -0.8410391 -0.3682981 -0.5218278 -1.0487401 -0.6214438
-0.58742464 -0.7451805 -1.1716279 -0.89242053 -0.97130066 -0.71559596 -0.45064455 -0.925631
-1.3401644 -0.5274076 -0.38931826 -0.8556995 -0.90725607 -0.31942892 -0.732365 -0.81490093
-0.8571718 -1.7750565 -0.9239528 -1.1547807 -1.3552058 -1.1573399 -0.7010789 -0.53295046
-1.0529464 -0.7929011

layer2.1.running_mean f4 [50]
00000000: b1f4 e4bf 1d8a 8ebb b5cc 41bf 2d9f febe
00000010: ed89 2fbf 0b95 66bf fafe aabf ac67 4bbc
00000020: b5e1 693e 95f1 88bf c972 54bd b368 1f3f
00000030: d1ad 0abf 04b2 aabe 37a4 7a3f fb9b b63e
00000040: 7eab 87bf 67df a5bf 1c70 c7bf 24bc 50bf
00000050: 0f52 e0bc 0700 24bf c44d b7be 145b 0dbf
00000060: b40e d2be 59a2 12bf 186f dd3e ff52 bcbe
00000070: eac3 ef3e af47 72bf e30e 803c 47e2 bbbf
00000080: 6082 b7be df3b 2c3f 9cdf c2be a7e3 153e
00000090: 6d51 0bbf 1250 d83e c399 10bf 5c9d c6bf
000000a0: bc94 7cbf 1b02 873e 5a69 4bbf fc4b c8bf
000000b0: a685 a83e 73cf 31bf b252 04bf 8065 a03d
000000c0: 0926 b2bf 36d6 66bf
-1.7887174 -0.0043499605 -0.75702983 -0.49730816 -0.68569833 -0.9007117 -1.3359063 -0.012414854
0.22840007 -1.0698725 -0.05186728 0.62269133 -0.5417147 -0.3333894 0.9790682 0.3566588
-1.059921 -1.2958802 -1.5581088 -0.8153708 -0.027382879 -0.6406254 -0.35801518 -0.552171
-0.41026843 -0.5727897 0.4324882 -0.3678207 0.46829158 -0.9464063 0.015632099 -1.4678429
-0.35841656 0.67278856 -0.38061225 0.14637624 -0.5442112 0.4224859 -0.5648462 -1.5516772
-0.9866445 0.26368794 -0.7945763 -1.5648189 0.32914466 -0.6945717 -0.51688683 0.078318596
-1.3917857 -0.9017061

layer2.1.running_var f4 [50]
00000000: b6bd 9542 c739 b741 9909 7b41 6b3b 0142
00000010: fa5b 3642 5cf0 db41 fb76 0142 90bf c441
00000020: 0630 1042 ca98 5742 4a64 8741 e789 0b42
00000030: 5de8 c641 c644 2b42 e9d8 4242 a91d 6241
00000040: 8c2f 1042 b0c7 c941 d039 1d42 81f1 3e42
00000050: 32de 9d41 972b 1f42 2a85 d941 b859 1242
00000060: 510f 2d42 b349 dd41 66e5 0342 e488 c841
00000070: f1ef b141 ebeb de41 15bc d341 2927 2142
00000080: 89f3 d941 92c8 d041 81c9 5e41 c232 db41
00000090: 7c42 4842 7686 1c42 95c4 0642 ba68 9b41
000000a0: 01c9 8242 e0ef ce40 0d53 1b42 3b04 dd41
000000b0: 49f7 8b41 597b fe41 7b52 0842 a446 4842
000000c0: 7dcd d941 27a0 df41
74.87053 22.903212 15.689843 32.308025 45.58982 27.492363 32.36619 24.593536
36.046898 53.899208 16.92397 34.88467 24.863459 42.81716 48.711826 14.132241
36.046432 25.222504 39.306458 47.735844 19.733494 39.79257 27.190022 36.587616
43.264957 27.660986 32.974022 25.066841 22.242159 27.865194 26.466837 40.288242
27.243914 26.097935 13.924195 27.399784 50.064926 39.13131 33.691975 19.426136
65.392586 6.4667816 38.831104 27.627066 17.495745 31.810228 34.080547 50.068985
27.225336 27.9532

layer3.0.weight f4 [100, 50, 1, 5]
00000000: dd29 a8bd ed97 103c 82d4 083f c809 263f
00000010: e569 cf3e 41e8 07be 152b 733e 97f6 1f3c
00000020: 54c2 723c b9d3 8a3e ffa9 02be e8f7 ca3e
00000030: 4655 1c3d eefa a7bd 67dd 953c bc95 b2be
00000040: 7ead 63be acf2 ed3d 0812 43be 09b3 aebc
00000050: 17f6 f73d 64af 9dbe 96b4 86be 3e61 b6be
00000060: 5a38 2abe 0368 29be a5bf f4bd 7c90 d23d
00000070: 2ca5 88bd 4f5c e63d 002d 993e 715e e73d
00000080: f64a 873e e49d 853e a22f c5bb bad9 4f3e
00000090: 4fd0 213e bcf2 e7bc 37f4 ba3d 5664 eebd
000000a0: f7c4 8c3d a77a e6bd fb2a ae3e 0909 84bd
000000b0: 8c83 93be faf5 99bd 0d77 74be e087 5cbe
000000c0: 9e5c 8b3e cccf 063e 97c1 91bd 4496 4c3e
000000d0: 825b 303e 4a96 d03d eccf cc3e e522 3dbb
000000e0: 3762 c73d 468a e03d 99f7 113d 2ce3 b43e
000000f0: 61fb 103e f7e7 bb3d f5a0 4a3e 10a2 4d3e
00000100: a135 163d 3f29 b3be c09a 53be b52f 89be
00000110: c7dd 95be 2309 a4be c7b1 343e ae86 03bd
00000120: 376f dcbe 2edb 73be d21d 70be eec1 1e3e
00000130: dbef 613e 1dff 6dbd 8571 993e 2ed3 2d3e
00000140: ad02 d6bd c464 1cbe 7f8d e93e 17d3 c53e
00000150: e148 f5be ab07 433e 6c25 28bd fd64 d83d
00000160: 7f81 1bbc 1e99 863e 5397 b23d c32a 1dbd
00000170: f023 283e 4c8f f83d 10a3 da3d 729a bdbe
00000180: 8471 693e 42ce 7abe c3e3 103e 87e5 7c3d
00000190: 4256 92bd e457 073e 28ba 7dbc cc28 c33c
000001a0: 8637 2b3d 6085 38be 9c4c c6bd ba87 4cbd
000001b0: 4b4a 06bd 4ca5 03bf 844f 0e3e 7981 043f
000001c0: 9e6e 7a3a bbe2 b0bd 0dcf f2b8 b182 9fbd
000001d0: 6f5f a33d 2ecb 093c 8598 ebbd 1f66 28be
000001e0: 4f9c dc3d ab36 98bc be30 bd3e 24d9 82be
000001f0: 37b7 183c dbbe 2b3e 59fb d03d 14db 4fbc
00000200: e03c 613d f945 82bd 1ec0 18be 4faa 393e
00000210: 3203 133e a691 133e c584 2d3e e420 d7bd
00000220: 6dc3 cf3d 7364 033f b062 d63d cce6 283e
00000230: a9ca 1e3e 21a9 323e 667e ec3d 3d56 05bd
00000240: e89b d5bd f64e 27be 7533 f23d 87ef 563e
00000250: 8fbb 863c f502 8b3e 5612 833d 317e d83d
00000260: d582 1cbe 0c96 d1be 52a6 e8bd b4b0 90be
00000270: 557c b83e 581e 383d 044b 56bd 7f71 b8bc
00000280: 3378 ac3e 21b3 563d bcd8 233c a96c 4ebc
00000290: e7f1 ca3e b808 00bd 09eb 2dbe faa1 a0be
000002a0: 4375 c9be 0ed9 e7be 82e0 4abd d4d7 ad3e
000002b0: fe1e 683e 8f59 003d 8362 b1bd 300c 1a3e
000002c0: 826e e8bc b8ed 8cbe 043a 473d 44d1 d13d
000002d0: 7e9c 96be 54ea 593e d62d efbe ab3a 963c
000002e0: 7ffc 00be 2550 a33d 3d94 e03d 8a1f e6bd
000002f0: 4411 ccbe 6e0c 46be e42c f03d 363d 3cbe
00000300: db94 78bd 5d38 95be 2155 97be 5394 8f3c
00000310: a3c3 b4bd 47ad 18be 1d02 3dbc d912 31bd
00000320: ea71 d33e c898 8aba 0227 753e ee30 253e
00000330: ff26 ff3d 829d 9e3e 3c8e 553e 0daf 113e
00000340: 6df8 3fbe 0be7 b4bc faf5 be3e 5954 6cbd
00000350: 3244 9e3e 0812 903e 3715 d73e 72d6 b2bd
00000360: 197b a03e f74b 733e ccdf 17bb 8d78 be3e
00000370: 8bb7 ca3e 486f 3b3d c0c9 183e 1e6a 6d3e
00000380: 954c 3a3d e30a 08be 2c2c 8dbd beff 16be
00000390: ab48 a4bd b145 60be 94d5 c0bd 1c08 353e
000003a0: e78b cabd 4889 943d 1595 c73e bcdf 93bd
000003b0: a5c9 84bd 25ae eabd 93f7 f4bd 3c2c 19bf
000003c0: 4e01 8c3d 2cb7 00bd 409a 38bc 7718 903e
000003d0: a790 883c 3047 843d f234 91be 21c1 edbc
000003e0: d3c7 9c3d 247d 9bbb 0d8a 7d3e a87f 2cbc
000003f0: 8364 fa3d 20cb 453f 4516 d53d 09a2 cc3e
-0.0821111 0.008825284 0.5344926 0.64858675 0.4051048 -0.13272192 0.23746903 0.009763381
0.014816839 0.27114657 -0.12760161 0.39642262 0.03816726 -0.08202158 0.01829405 -0.34879863
-0.22234151 0.116185516 -0.19049847 -0.021325605 0.12107485 -0.30797875 -0.2630965 -0.35621065
-0.16623059 -0.16543584 -0.11950616 0.102814645 -0.06672129 0.11248075 0.29917145 0.1129731
0.26424378 0.26097023 -0.006017641 0.202979 0.1580212 -0.028313987 0.091286115 -0.11640231
0.068735056 -0.11253863 0.34017166 -0.06447036 -0.288113 -0.075176194 -0.2387354 -0.21536207
0.272191 0.13165206 -0.071170025 0.19979197 0.17222407 0.10184915 0.40002382 -0.002885991
0.0973553 0.109638736 0.03563652 0.35329568 0.14158393 0.09175103 0.19787963 0.20081353
0.03667224 -0.34992406 -0.20664501 -0.2679421 -0.29270765 -0.3203822 0.17645942 -0.032110862
-0.430536 -0.23814079 -0.23448876 0.15503666 0.22064154 -0.058104623 0.2996942 0.1697509
-0.10449729 -0.15272814 0.45615765 0.3863761 -0.47907165 0.19045894 -0.041051313 0.10566137
-0.0094913235 0.26288694 0.08720269 -0.03837086 0.16419959 0.12136707 0.10675633 -0.37031895
0.22797209 -0.24492744 0.14149384 0.06174233 -0.071453586 0.13217121 -0.015486278 0.023823164
0.041801 -0.18019629 -0.09682581 -0.049934126 -0.032785695 -0.514241 0.1389752 0.5176006
0.00095532264 -0.086369954 -0.000115780254 -0.07788599 0.07977187 0.008410258 -0.115037 -0.16445206
0.10772001 -0.018580755 0.3695125 -0.2555629 0.009321026 0.16772024 0.10204191 -0.01268651
0.054989696 -0.063610025 -0.14917037 0.18131374 0.14356688 0.14411029 0.16945179 -0.1050432
0.101446964 0.5132515 0.10468042 0.16494292 0.15506996 0.1744733 0.11547546 -0.032552946
-0.104301274 -0.16338715 0.11826221 0.2098981 0.016446857 0.27150694 0.06399982 0.10570944
-0.15284283 -0.4093479 -0.11359848 -0.28259814 0.36032358 0.044950813 -0.052317634 -0.022515057
0.33685455 0.052416924 0.010000404 -0.012599149 0.39637682 -0.031258315 -0.1698419 -0.31373578
-0.39347276 -0.45282787 -0.049530514 0.33953726 0.22668073 0.03133541 -0.08661368 0.15043712
-0.028373007 -0.27525115 0.048639312 0.102449924 -0.2941627 0.21280795 -0.46714658 0.018338522
-0.1259632 0.07974271 0.10965774 -0.11236484 -0.39856923 -0.19340679 0.11727312 -0.18382725
-0.060688835 -0.29144564 -0.29557136 0.017526781 -0.08826377 -0.1490985 -0.011536148 -0.043230865
0.41297847 -0.0010574097 0.23940662 0.16131946 0.1245861 0.30979544 0.2085504 0.14226933
-0.1874711 -0.022082826 0.3729704 -0.057697628 0.30911404 0.28138757 0.42008373 -0.087323084
0.31343916 0.23759447 -0.0023174165 0.37201348 0.39593157 0.045760423 0.14920712 0.23185012
0.04548319 -0.13285403 -0.06893191 -0.14745995 -0.08021673 -0.21901585 -0.09415737 0.17678875
-0.098899655 0.07252747 0.38980928 -0.07220408 -0.06483773 -0.11458997 -0.119612835 -0.5983312
0.06836186 -0.031424686 -0.011267245 0.28143665 0.016670538 0.064588904 -0.28360707 -0.029022755
0.07655301 -0.0047451425 0.24759693 -0.0105284825 0.12226202 0.7726307 0.10404638 0.39967373

layer3.0.bias f4 [100]
00000000: 93d9 513d 2b4c d3bb 7403 0a3d 2afa a4bd
00000010: 7f0c 74bb 2e76 3bbb 8dea c5bd bbcd 8ebd
00000020: 53a7 443d 6740 50bd 5f65 d8bc 750b bfbd
00000030: 3e3d e6bc ea5f 4bbc 47fb ec3b e14f 6c3d
00000040: 8266 4d3c ed29 753c 6c72 fd3c 52bd 653d
00000050: fd9d 943c 1942 a73d dac5 5f3c 16df 87bd
00000060: 9941 a6bd f956 1d3d 8340 9cbc e931 793d
00000070: a3b1 c4bc d8b0 2e3d 96e7 39bd ad7c e53c
00000080: 86e9 0f3d b769 7dbd eae4 20bd e8f2 6fbd
00000090: 6ea4 56bd c49e be3c 2d24 413a 0a66 cf3d
000000a0: ac48 9b3c 3eb4 71bd 73aa 233c fbac 153c
000000b0: 1ec8 40bd dc3e 84bd 947d 1cbc 1135 de3c
000000c0: 3d9e 2b3d ef39 a1bd 1b6c 923d fbf8 2dbd
000000d0: acb1 233d 068a 323d f864 873d 5dfe 6a3d
000000e0: f6ee 78bc de44 64bd 7ef0 dcba d13c a73d
000000f0: bf9c a73d af1d 96bd 0d5c 913d a00f 98bd
00000100: b3d1 87bc 092f cb3c 3f54 d93d 6f6b 793d
00000110: 4483 4cbd db12 c2bd c232 f8b8 73ea 423b
00000120: 8907 753c 4ca9 503d 2219 5cbc 8661 d93c
00000130: 1626 613c 254a 713c 93b0 723d e515 10bd
00000140: 4acf 81bd 476a 453b f7a6 c73d c95d f63c
00000150: b560 a43d edef 8abd 7dc3 d0bb 9dd3 cebc
00000160: e5da c8bc 7bbf 6ebd 7f1c 9bbd 4ab7 8b3d
00000170: 3a57 36bd 392c c9bc e3c5 28bc feff 053d
00000180: ad5a ea3d 1c23 4bbd 36f2 d53a 121b 253d
0.051232886 -0.006448289 0.0336947 -0.080555275 -0.0037238894 -0.0028604376 -0.09663878 -0.06972834
0.048011135 -0.05084267 -0.026415525 -0.09328357 -0.028105374 -0.012413004 0.007232103 0.057693366
0.012536647 0.014963609 0.03093835 0.056088753 0.018141741 0.08166904 0.013658011 -0.06634347
-0.081179805 0.03841302 -0.01907373 0.060838614 -0.024010485 0.04264912 -0.045386873 0.028013552
0.035134815 -0.061868396 -0.03928081 -0.058581263 -0.052402906 0.023269065 0.00073677563 0.10126884
0.018955551 -0.059009783 0.009989369 0.00913548 -0.047065847 -0.06457302 -0.0095514245 0.027124913
0.041898955 -0.07872378 0.07149526 -0.042473774 0.039964363 0.04358866 0.06611055 0.057371486
-0.0151936915 -0.05572974 -0.001685634 0.08165897 0.08184194 -0.073298804 0.070976354 -0.07424855
-0.016579485 0.024802702 0.10611772 0.060893472 -0.049929872 -0.09476253 -0.00011835016 0.0029741793
0.01495541 0.050942704 -0.0134337265 0.02653576 0.013741991 0.01472715 0.059250426 -0.03517713
-0.063383654 0.003012316 0.09748643 0.030074017 0.08026258 -0.067840435 -0.0063709603 -0.02524739
-0.02451844 -0.05828808 -0.075737946 0.06822069 -0.04451678 -0.02455722 -0.010301086 0.032714836
0.11443076 -0.04959403 0.0016322795 0.04030902

layer3.1.weight f4 [100]
00000000: 474a 593f a883 a73f 861f 8e3f 7601 923f
00000010: f185 563f 7fea a83f 07d2 403f 1b00 8c3f
00000020: 47db 693f d9b5 6c3f 6c3e 733f e93b a33f
00000030: 5a98 a83f 2c0f 8f3f 2299 723f 944f af3f
00000040: 8a03 3d3f b75e 4c3f 5ea9 653f 7270 ab3f
00000050: c19c 873f 5518 743f 7f1e 533f 682c 683f
00000060: 17d8 893f cecf 8c3f ef35 813f 2e28 823f
00000070: 25ec 993f b5cc a63f d2ff 7a3f 299b 6a3f
00000080: 593b 6e3f f7e1 8a3f 5f3f 803f 3c12 2f3f
00000090: 6731 8f3f 6394 853f 6b9e 843f 4b30 683f
000000a0: 1df0 463f ea6f 613f b109 983f 5ba5 723f
000000b0: 55f8 9b3f 020d 7a3f 8f3b 863f cb59 603f
000000c0: 6c8c 903f 8d8b 853f cdce 573f 8e4b 303f
000000d0: 9a74 6b3f 1223 813f 70fc 533f 84a0 403f
000000e0: 7a46 7e3f 69a9 863f fa05 963f e64f 5b3f
000000f0: cc82 6e3f 9a6e 4d3f 7541 6a3f 1f7a 8b3f
00000100: 1ddf a63f 1e7c a63f 3a0c 6e3f c752 823f
00000110: b3b0 783f 3c32 843f eab0 713f eb5a 893f
00000120: 1292 523f d9af 813f bd83 963f 5949 443f
00000130: f497 903f 8ce8 593f d13c 953f cc2f 943f
00000140: 45be 993f 145a af3f a384 6a3f 43b0 3d3f
00000150: 963f a63f a475 793f 8183 843f c5bb 853f
00000160: fa1b 453f 9202 8e3f fe7d 8f3f cf29 6f3f
00000170: b340 a13f d556 a13f f0ed 493f c04e 683f
00000180: 2b31 983f e980 6f3f ed10 3d3f 4788 6b3f
0.84878963 1.3087053 1.110337 1.1406696 0.8379813 1.3196563 0.75320476 1.0937532
0.91350216 0.9246498 0.95017123 1.2752658 1.3171494 1.1176505 0.9476491 1.369616
0.73833525 0.79832023 0.8971156 1.339369 1.0594712 0.9534963 0.8246841 0.9069276
1.076907 1.1000917 1.0094584 1.0168512 1.202519 1.3031222 0.980466 0.91643006
0.9305931 1.0850209 1.0019339 0.683872 1.1186951 1.0435909 1.0360845 0.9069869
0.77710134 0.8806139 1.1877958 0.9478356 1.218516 0.976761 1.0486926 0.87637013
1.1292853 1.0433213 0.8429993 0.6886529 0.91974795 1.0088828 0.82807064 0.7524493
0.9932629 1.052045 1.1720574 0.8566879 0.9316833 0.8024689 0.9150613 1.0896643
1.3036839 1.3006628 0.92987406 1.0181512 0.9714462 1.032783 0.94410574 1.0730871
0.82254136 1.013179 1.1758953 0.7667442 1.1296372 0.85120463 1.1659185 1.1577086
1.2011191 1.3699365 0.9160864 0.7409708 1.2988155 0.9744513 1.0352632 1.0447928
0.76995814 1.1094534 1.1210325 0.9342317 1.259787 1.2604624 0.7887869 0.9074516
1.1890005 0.93556076 0.7385395 0.9200482

layer3.1.bias f4 [100]
00000000: 73b8 9fbe 09d4 debe 9176 debe dafb 2bbf
00000010: 2f2d 96be 0d6e 40bf 2d1e f0be 0377 edbe
00000020: 6d31 08bf 2ea0 e3be 8a58 0ebf e3bf 11bf
00000030: ffc2 14bf f811 39bf a30f d6be 287f 85be
00000040: 085b 6fbe 2d59 c2be 320d 90be 10ad 2bbf
00000050: a249 cabe c385 e6be 8c8c 13bf b38f 7fbe
00000060: dc9a eebe 2011 42bf 9117 e0be 1e6c 0dbf
00000070: 5ae9 9cbe d051 12bf 6802 14bf 79f6 e0be
00000080: fa42 1bbf 059f b2be ed92 b0be b495 20be
00000090: 8280 17bf b8a3 0ebf 80c8 72be f9ec d8be
000000a0: ab8a debe 1143 a4be 5289 e8be 84d3 8fbe
000000b0: 02db 3ebf d03d f7be 8386 a1be 4b41 27be
000000c0: 0f33 08bf dfdb 26bf 9a55 87be 44b3 bebe
000000d0: 5027 9ebe 4da4 c2be 519e bdbe 37ca cabe
000000e0: 0627 a2be bbf7 e3be 7a3a 50bf cf38 22bf
000000f0: a527 d6be c2db cdbd dc73 3dbf b1ef 33bf
00000100: 5fa3 07bf 5236 26bf 7ae1 abbe f126 1abf
00000110: 65c5 e8be fde1 97be 05a3 abbe 4266 d5be
00000120: fa26 92be 00ec efbe 972e dbbe 434f cebe
00000130: 2e7d d8be 4aaf 24bf c345 13bf fe77 d7be
00000140: 7c14 dabe d144 25bf fe09 f4be c25b 9cbe
00000150: 26b2 31bf 7e98 18bf b430 cdbe baf6 83bd
00000160: 5c60 bfbe c81f 04bf b34d d6be 502f cdbe
00000170: ea0c 33bf e85d c6be 531c 75be 4c77 aebe
00000180: a836 acbe eee6 9ebe 4279 2ebe 2059 fcbe
-0.3119541 -0.43521145 -0.43449834 -0.6718117 -0.29331347 -0.75167924 -0.46898022 -0.4637986
-0.5320042 -0.44458145 -0.5560385 -0.5693342 -0.5811004 -0.72293043 -0.41808805 -0.26073575
-0.2337457 -0.3795866 -0.28135067 -0.6706095 -0.39509302 -0.45023927 -0.5763633 -0.2495716
-0.46602523 -0.7580738 -0.4376798 -0.552431 -0.30646783 -0.57156086 -0.5781617 -0.43938044
-0.60649073 -0.34886947 -0.34487095 -0.15682107 -0.5918046 -0.55718565 -0.23709297 -0.42368296
-0.4346517 -0.32082418 -0.45417267 -0.2809106 -0.7455293 -0.48289347 -0.31547937 -0.16333501
-0.5320291 -0.65179247 -0.26432496 -0.37246144 -0.30889368 -0.38015977 -0.37034848 -0.39607403
-0.31670398 -0.4452494 -0.8133923 -0.63367933 -0.4182712 -0.10051681 -0.7400491 -0.70287615
-0.5298366 -0.64926636 -0.33570462 -0.6021567 -0.454631 -0.29664603 -0.33522812 -0.4167958
-0.28545362 -0.4685974 -0.42808983 -0.40294847 -0.42283005 -0.6432997 -0.5752832 -0.42083734
-0.42593753 -0.6455813 -0.47663873 -0.30538756 -0.6941246 -0.59607685 -0.4007622 -0.06443544
-0.37378204 -0.51610994 -0.41856155 -0.4007516 -0.6994158 -0.3874352 -0.23936586 -0.3407539
-0.3363545 -0.3103556 -0.17038444 -0.49286747

layer3.1.running_mean f4 [100]
00000000: 5a61 5dc0 8461 78c0 71f2 69c0 15c1 cfc0
00000010: 1129 c0bf deba 5fc0 df26 36c0 173b 09c0
00000020: 6c9e 2440 e448 b9bf a92d ab3f 490b ecbf
00000030: 01ca 2040 2510 423f 1c40 a5bf 3290 3fc0
00000040: 1d10 da3e c2ff 83bf dcd7 2e40 1814 34c0
00000050: 0126 2ebd 965e 14bf 7f73 bb3d ce52 1840
00000060: 39c4 63c0 5036 27c0 bef7 b13f 9be3 d8bf
00000070: 040e 11bf 97db b4c0 a5dc 77c0 543b b03f
00000080: 0a37 50c0 c896 d7bf 326b 22c0 a78f ae3f
00000090: d444 efbf 0f9f 43c0 53ec 773f bf48 2040
000000a0: 2de2 4c3f 25c7 a43f 2296 dfbf 8124 1a40
000000b0: f787 4f3e 4d0f 0c40 2049 1340 e187 413e
000000c0: c4a5 0d3f c7e4 913f e26a 47c0 c01e 993e
000000d0: d667 82bf 755f 9b3c ee4f f73e 54ab 74c0
000000e0: 3afd 0cc0 3b91 b0bf c196 dabf 9cf7 1740
000000f0: 9a2c 67c0 3496 32c0 7ae8 24c0 da8b 00c0
00000100: 9ae6 2140 f9a3 81bf 3f57 e23f 4e9e e0bd
00000110: 3f6b 763f 1d06 1f40 ab3f 1cbf fbc6 83c0
00000120: ccdf 1b40 ee1b a73e 0f5e 32bf 1f23 1040
00000130: c0d4 4ebe 77ee 3abf c69d e6bf 55fe 95bf
00000140: 7fb9 fcbf ce41 16c0 0356 2a40 f522 bcbe
00000150: 8e1a 0dc0 9b90 b83f 46e3 85bf e19e 62be
00000160: 9b9b 0ac0 24c7 acc0 367c 91c0 cb7b b23f
00000170: 7c40 e1bf 5343 6a3f 1d4d ee3f 41f5 a73f
00000180: c893 83c0 2a7e 8fbf 9cd2 c43e 1279 0d40
-3.4590669 -3.880952 -3.6554224 -6.4923196 -1.5012532 -3.4957805 -2.8461225 -2.1442316
2.5721693 -1.447537 1.3373309 -1.8440944 2.5123293 0.75805885 -1.291019 -2.993176
0.42590418 -1.0312426 2.731925 -2.8137264 -0.042516712 -0.57956827 0.091528885 2.380054
-3.5588515 -2.61269 1.390373 -1.694446 -0.5666201 -5.6518054 -3.872842 1.3768106
-3.2533593 -1.684289 -2.5377927 1.3637589 -1.869288 -3.0565832 0.9684498 2.50444
0.80032617 1.2873274 -1.7467692 2.408478 0.2026671 2.188434 2.3013382 0.1889949
0.55331063 1.1397942 -3.1158986 0.29906273 -1.0187938 0.018966416 0.4830317 -3.822957
-2.2029557 -1.3794321 -1.7077256 2.3744879 -3.6120973 -2.7904177 -2.5766892 -2.0085359
2.5296998 -1.0128165 1.7682875 -0.10967694 0.96257395 2.4847481 -0.6103465 -4.1180396
2.4355345 0.32638496 -0.6967477 2.2521436 -0.20198345 -0.7302012 -1.8016899 -1.1718241
-1.9744109 -2.3477664 2.6614997 -0.3674542 -2.2047458 1.441913 -1.0459983 -0.2213092
-2.1657474 -5.399309 -4.5464125 1.3944029 -1.7597804 0.9150898 1.8617283 1.312172
-4.1117897 -1.1210377 0.38441932 2.2105145

layer3.1.running_var f4 [100]
00000000: 9211 9f41 0a77 e741 0c9e a741 7783 df41
00000010: 9b1d 8a41 2a1a da41 e310 8c41 3543 e541
00000020: f1be ba41 63fb c341 f731 ed41 63c3 fb41
00000030: 213e be41 c6f7 f541 780a ab41 8f45 e841
00000040: 95c9 d141 7d69 9e41 a2ee d841 a137 d741
00000050: 501d 9c41 c2ec 6a41 6201 ce41 720a 9a41
00000060: 1471 be41 2a0d d741 7b06 b941 6b89 5041
00000070: adbf c841 e9ec c641 4007 c241 7f63 b741
00000080: 2fe5 b641 da9c de41 e5ed f141 5550 5341
00000090: fa5e e641 ff7d bf41 3ce3 cc41 7e67 bc41
000000a0: 108e a041 23f2 6b41 d48d d541 2823 dd41
000000b0: b1d1 be41 bc08 0e42 d5c0 b641 b3c5 ca41
000000c0: 3ef4 d241 2783 d641 b045 7441 92b0 6f41
000000d0: 11a0 5a41 d9d9 8c41 fcf7 0142 1e3d f141
000000e0: 1462 d541 12a3 af41 4b01 fb41 4ee5 4a41
000000f0: e6ca ce41 c2f3 8841 bccc 8c41 f105 d941
00000100: 8342 d241 df50 0e42 e358 b141 3310 b341
00000110: 5ffb df41 b510 8a41 cba8 a141 b543 e741
00000120: 82d2 9d41 0bae a441 7337 cf41 3ba1 6d41
00000130: fd6d ef41 5810 af41 8f9f 0042 f332 a341
00000140: 1e12 b641 6370 bf41 94c7 cb41 a8b2 6841
00000150: 25ac dd41 982b ae41 d64c ec41 648d 5f41
00000160: 969e 7b41 dd39 0d42 c400 8741 62e6 cd41
00000170: e9f0 d541 83c0 d841 4d3a 8d41 82ab 8641
00000180: 2766 b641 7b8f c041 7ca6 dd41 4e43 c941
19.88358 28.933125 20.952171 27.939192 17.264456 27.262775 17.508245 28.657816
23.343233 24.497747 29.649397 31.470404 23.780336 30.745983 21.380112 29.033964
26.223429 19.801508 27.11652 26.902163 19.514313 14.682802 25.750675 19.2551
23.805214 26.881428 23.128164 13.033549 25.093592 24.865679 24.25354 22.923582
22.861906 27.826588 30.24116 13.207112 28.796375 23.936522 25.610954 23.550533
20.069366 14.746615 26.694252 27.642166 23.852388 35.50853 22.844156 25.346533
26.369259 26.81404 15.267014 14.980608 13.664079 17.60637 32.492172 30.154842
26.67289 21.954624 31.375631 12.680983 25.849072 17.119022 17.599968 27.127901
26.282476 35.578976 22.168402 22.38291 27.99774 17.258158 20.207418 28.90806
19.727787 20.584982 25.902075 14.851863 29.928705 21.88298 32.15582 20.399878
22.758846 23.929876 25.47245 14.543617 27.709055 21.771286 29.537518 13.972019
15.726217 35.306507 16.875374 25.737492 26.742632 27.094 17.653467 16.833744
22.79988 24.070059 27.706291 25.157864

layer4.0.weight f4 [200, 100, 1, 5]
00000000: 085c c3bb 7c9a 25be e12b 6ebd f4df e93d
00000010: dfc8 513e 622d 0d3e 3163 e3bd 1964 de3c
00000020: 667f a43b 83d8 a3bb 4475 55bd c8ca 0c3e
00000030: 45c3 dcbd 89a2 5c3e 3c22 b23d f7db 333d
00000040: 05bc cabd 1f42 14be 0b11 3fbe a2c6 6cbe
00000050: 29df 5bbe c6ed bebd 339c 923e ac6f 843d
00000060: 2aba 82be 3ded 033e 3161 82bc 2aa5 083e
00000070: f484 813e 3793 363d 4401 123e 3496 963d
00000080: 5d59 fabc f65a f03c 339a c4bc 353b 263e
00000090: 1620 c23e 54e1 373d d3ad 8a3d e067 803d
000000a0: a855 a9be 494d 0abe de85 49be e503 013c
000000b0: 6c25 bcbe 23b0 7d3d 4563 843d aa5b bb3d
000000c0: 9fbc 90bc 0136 ecbc 9bdf 8d3d 48e1 63bc
000000d0: 77ae 853d a339 bebd 029f 2c3e 2704 373e
000000e0: 9ead b73d d57e febc 746e 66be 6601 03bc
000000f0: aba1 98bd 065f 493d 9ab2 423d c5a1 67be
00000100: cb72 bcbc c093 eabb 320b 493e 9622 11be
00000110: e7e8 f63c b5ce 0abe aad0 2dbe 1743 e73c
00000120: 8934 623e 280a 93bd 389f 2b3d 2899 6e3e
00000130: 5d72 6dbd e814 973d 10fe a7bd 5afe 9ebd
00000140: ae06 42be dec0 b53d ef81 d5bd 8923 8bbd
00000150: 7578 bb3d 3830 323e b11e a13d 20fa cc3a
00000160: 09d9 813e 0dcc 06be 59c5 673c 0a04 87bc
00000170: 0a77 863c 9fa7 043e 4b7a 6a3e e3f1 60bc
00000180: 41fd 65bd f05c b53e 41a3 43be e191 a93d
00000190: 126e e43d 0190 1bbe 0ddc 933a b54e 54be
000001a0: 5cb0 3bbe 723a 3fbd a695 613d a77b ab3d
000001b0: 5dad 5dbe a9ec 81bd 82ac 5abe 809a a63c
000001c0: ae98 813c 8f5f c53c 9a23 3dbc 9dc5 04be
000001d0: 358d 973d 1218 af3d b18d 22be 918f 273e
000001e0: 766d cd3d 3ec8 2cbe 2423 e2bc b823 3e3e
000001f0: 75b0 a0bd 8f86 8f3d 6d5b b83c 3cce 70bc
00000200: 3e5d 933d 57dc 58be 6050 58bd d843 353e
00000210: 719c 94bd 70b4 f8be e343 1bbe 90a6 c6bd
00000220: 9cd8 ac3a b057 c53d 1422 0ebe 56d8 95bd
00000230: 04f0 8ebe fc19 e9bd 20aa 8fbc 6522 183d
00000240: 0e19 79be 0b5d f03c f331 443e 1e6f 0b3e
00000250: 474f 8e3e e57a 82bd fec3 d83b 9219 913b
00000260: 1374 773c e8c4 5cbc 36fb 3f3e 5b10 053d
00000270: b9bd 20be a2b9 bdbd cb24 3fbe 8ee9 9ebe
00000280: 3b3c ae3d 1094 3a3e 44cd 2fbd f9e0 69be
00000290: 7ee9 053c 2383 ddbd 2169 1abd ac18 1e3e
000002a0: f97d 60bc c9ed 19be 0366 c13d 4de2 ad3d
000002b0: 6f8c 2bbe 319b 95be 2cc8 adbe 9c68 31bd
000002c0: 2dc8 693d 45d6 79bd b8ef 27be f1ce 37bc
000002d0: 4818 f53c 3444 6c3d f0a1 c4be 8452 a5bd
000002e0: c28a 28bd 28b4 703e 7c13 5e3d c9a3 2c3e
000002f0: 2b42 423e 7273 76be 0b93 c53d 4254 183e
00000300: 1cf1 cd3d 90ea 11be c88b 54be cd2e 12bc
00000310: ff9e 363d 3e1a 963d 4715 843d c7e4 ce3d
00000320: 3c06 82bd efcc a23d 2933 2ebe 656b 6cbb
00000330: e068 83bc 3402 48be 2e76 a7be 4041 b3bd
00000340: cb59 783b 9b9c ddbd b49b 243d ebb9 3c3e
00000350: a8df 923d 1be8 86bd 69ff 59be a56f 9bbd
00000360: 05bb 273e 33d0 42be 9966 15be 1d6b cabc
00000370: bce1 9d3e e11f 4bbd 015e 173c 90e8 d33d
00000380: 254b 563e f09b 0bbf 1721 4d3c 55bf c83d
00000390: 588d ed3d 22f0 30bd 02cd 75be c766 6bbd
000003a0: e354 3cbd bade 793e a099 b9be d7b5 1cbc
000003b0: e691 013d df2a 76bd eb90 a1bd 91b5 6e3d
000003c0: b3d0 ddbe d6e6 76bc f46f 9f3e b83f d63c
000003d0: cdd6 bcbd 3be4 d43d 5b72 c23e 59f5 c0bc
000003e0: f7b9 1f3d 9b88 903d b13e b33c 05d1 b1bc
000003f0: cead d4bc 66e3 57bd 2980 b53c 797f 793e
-0.0059618987 -0.16172212 -0.058147315 0.11419669 0.20486782 0.13786843 -0.11102904 0.02714734
0.00502007 -0.0050001754 -0.052113786 0.1374923 -0.10779432 0.21546377 0.08697936 0.043910947
-0.09899143 -0.14478348 -0.18658845 -0.23122647 -0.21471848 -0.093226954 0.28634796 0.06466612
-0.25532657 0.12883468 -0.015915485 0.13344255 0.25296748 0.04457399 0.14258295 0.07352868
-0.03056019 0.029340249 -0.02399931 0.16233523 0.37915105 0.044892624 0.067714356 0.062698126
-0.33073163 -0.13506044 -0.19679973 0.007874464 -0.367473 0.061935555 0.06464247 0.09148343
-0.017668067 -0.028834345 0.06927415 -0.013908692 0.06527417 -0.09288337 0.16857532 0.17872678
0.08968662 -0.031066338 -0.22503072 -0.007995939 -0.07452711 0.049162887 0.04753361 -0.22620304
-0.023003956 -0.0071587265 0.19633177 -0.1417335 0.030140353 -0.13555415 -0.1697413 0.028230233
0.22090353 -0.071796715 0.04189989 0.23300612 -0.057970393 0.073770344 -0.082027555 -0.077633575
-0.1894786 0.08874677 -0.104251735 -0.06793887 0.09153835 0.17401206 0.07867182 0.0015638508
0.25360897 -0.13163777 0.014146172 -0.016481418 0.016414184 0.12954567 0.22898214 -0.013729545
-0.056149725 0.35422468 -0.19105245 0.08279777 0.11153807 -0.15191652 0.001128079 -0.2073315
-0.18328995 -0.046686597 0.055074356 0.08373194 -0.21648164 -0.063439675 -0.21354869 0.020337343
0.015819874 0.024093417 -0.011544133 -0.12966008 0.0739998 0.08549513 -0.15874363 0.1636336
0.10030644 -0.16873261 -0.027604647 0.18568313 -0.078461565 0.07008087 0.022504533 -0.014697608
0.07195519 -0.21177803 -0.052811027 0.17701662 -0.07256401 -0.48575163 -0.15162615 -0.09699738
0.0013187113 0.09635866 -0.13880187 -0.073166534 -0.27917492 -0.11381909 -0.017537177 0.037142176
-0.24325964 0.029341241 0.19159679 0.13616607 0.2779486 -0.063710965 0.006615161 0.004428097
0.015103358 -0.0134746805 0.18748173 0.0324863 -0.15697373 -0.09263922 -0.18666379 -0.31037563
0.08507582 0.18220544 -0.042920366 -0.22839727 0.008173345 -0.10816028 -0.037697915 0.15439099
-0.013701909 -0.15032114 0.09443285 0.08490429 -0.1675279 -0.29219964 -0.33941782 -0.043312654
0.057075668 -0.06099536 -0.16400039 -0.011218772 0.029918805 0.05768223 -0.38404799 -0.08072379
-0.041147955 0.23506224 0.0542178 0.16859354 0.18970554 -0.24067476 0.09647187 0.14875892
0.100557536 -0.14249635 -0.20756447 -0.008922291 0.044585224 0.07329224 0.06449371 0.101022296
-0.06348845 0.07949244 -0.17011704 -0.0036074754 -0.01604122 -0.1953209 -0.3270735 -0.0875268
0.0037895318 -0.10820886 0.040187553 0.18430297 0.07171565 -0.06587239 -0.21288837 -0.07589654
0.16379936 -0.19024734 -0.14589919 -0.024709279 0.30836284 -0.04959095 0.009238721 0.10347092
0.20927103 -0.54534817 0.012520096 0.09802119 0.11599225 -0.04319776 -0.24003986 -0.057471063
-0.04597939 0.2440137 -0.3625002 -0.009564838 0.03163328 -0.06009948 -0.07888969 0.058278624
-0.43323287 -0.015069684 0.311401 0.02615343 -0.092206575 0.10395094 0.3797787 -0.02355449
0.03899571 0.070573054 0.02188048 -0.021706114 -0.025961783 -0.0527071 0.022155838 0.24365033
