Lab2/deep_relu.pth (torch_old, 611584 bytes, 28 tensors)

layer1.0.weight f4 [25, 1, 1, 5]
00000000: 1792 813e 7ef9 59be fca3 523f 0598 513d
00000010: 3df7 2fbf 45ec b33e 21a5 bfbe 263b 263c
00000020: 62d8 d73e 7677 98ba 5662 bc3e 391c ca3d
00000030: e877 48be 53b4 cbbe e83d a03e b3c0 a6be
00000040: b0ab fc3e 96bd 973e c66b 64bf 98cd e03e
00000050: f1a0 1d3f 390d 4ebf c45f aa3d 4107 2cbc
00000060: 9b3c 0b3e cf96 253f 6317 77bf 59a5 0ebd
00000070: e089 1b3f 857d 95be 65a9 0fbf c8c6 263f
00000080: 0bcd f13e 96ef 0abf f8af 54bd eafe 19be
00000090: 6d93 3c3e c694 19be 967f 433d 031e 723e
000000a0: 451d 03bf 9dda 833f 4539 34bf 625f 5cbe
000000b0: 7315 e73e fca5 42be e09b ef3e e522 0bbf
000000c0: a18b 053f c9e1 42be 11f4 41be 9c02 353f
000000d0: 2b0a 46be cea6 893d 2cf6 95be a8aa 27bf
000000e0: b320 87be ba2d 263f f697 d53e 8dd2 1bbf
000000f0: 7edb 3c3e 07e3 36bf 61d4 8e3e cfad 133f
00000100: d36c cdbe cb04 a1bd 4961 833e 40a8 b5bd
00000110: b143 01bf 3ee8 b23e 01ea 623f 763c 2abf
00000120: 1f58 86be 0aa7 ff3e e553 94bd c089 5e3f
00000130: 0731 77bf e6d1 2ebc 3aeb e0bd f7c0 e73e
00000140: 0d9f ce3e 0114 f6be 9bd1 71be ca10 5bbf
00000150: 5bb4 e03e 8042 68bf ff56 173e 6f35 a73e
00000160: 530d 483f 091d 6ebf 32f9 853e 3ad5 db3d
00000170: 76f8 253d 792d a6be 411f 28bd af0e b13e
00000180: 1f14 c43e 81dd 36bf 7eb1 4bbf 5c8a 473f
00000190: f343 a0bf 7d1f 193f 0b85 a83d 2303 36be
000001a0: 4e07 43bf e1c5 88be 6f70 283f 3d5c 54bf
000001b0: a0f1 903e 35b7 6f3e d8a7 263f dae3 78be
000001c0: 4d3d 94be f48b d43e 7a7d d83d a94e 3c3f
000001d0: 5f85 243e d31a 90be 5dd7 9f3e c74e 9fbe
000001e0: a924 41bf 432f 853e 8c91 f4be 5b4c 24bd
000001f0: 8ab4 febc
0.2530677 -0.2128658 0.8228147 0.051170368 -0.6873663 0.35141197 -0.3743067 0.010145938
0.42157274 -0.0011632282 0.36793774 0.09868664 -0.1957699 -0.39786014 0.3129723 -0.32568893
0.49349737 0.2963683 -0.8922695 0.43906856 0.615737 -0.80488926 0.08319047 -0.010499776
0.13597338 0.6468324 -0.9652006 -0.034825657 0.60757256 -0.29197326 -0.5611785 0.65147066
0.47226748 -0.5427183 -0.05192563 -0.15038648 0.18415613 -0.14998159 0.047729097 0.23644261
-0.51216537 1.030109 -0.70399886 -0.2152076 0.45133552 -0.1900863 0.4679861 -0.5435012
0.5216618 -0.19031443 -0.1894076 0.70707107 -0.19339816 0.067212686 -0.29289377 -0.65494776
-0.26392135 0.64913523 0.417175 -0.6086815 0.18443105 -0.71440166 0.27896407 0.57687086
-0.4012209 -0.07862242 0.2566016 -0.08869982 -0.50493914 0.34942812 0.8863831 -0.66498506
-0.26239106 0.49932128 -0.07242564 0.8692894 -0.96559185 -0.010670161 -0.10982366 0.45264408
0.4035572 -0.48062137 -0.23615114 -0.85572493 0.438876 -0.9072647 0.1477928 0.32657954
0.7814533 -0.93013054 0.26166683 0.10734029 0.040520154 -0.32456568 -0.04104543 0.34581515
0.382966 -0.7143174 -0.79567707 0.77945495 -1.2520736 0.5981367 0.08228501 -0.17774634
-0.7618302 -0.2671347 0.6579656 -0.82953244 0.28309345 0.23409732 0.6509986 -0.24305668
-0.2895302 0.41513026 0.10570808 0.73557526 0.16066502 -0.28145465 0.31218997 -0.3111479
-0.75446564 0.2601262 -0.47767293 -0.04011188 -0.031091947

layer1.0.bias f4 [25]
00000000: f836 183e 1537 7d3e bb8d 44bd b651 38bd
00000010: 9168 8dbe 797c 43be f0a5 763d 1ce2 3cbd
00000020: 3664 e73d 7200 a3be 9da4 3abe 561d 8e3e
00000030: 1e43 d73d f5c1 733e a2e1 10be 5c5d cabe
00000040: 9465 17be f020 e73c 3ed1 94be 03bd a2be
00000050: 2899 34bd 25a4 d1be 1157 97be cdd0 e03d
00000060: dfab b9bb
0.14864719 0.24728043 -0.047986727 -0.0449998 -0.2761884 -0.19090451 0.060216844 -0.046114072
0.112984106 -0.31836277 -0.18226857 0.27756757 0.105108485 0.23804457 -0.14148572 -0.39524353
-0.14784843 0.028213948 -0.2906589 -0.3178483 -0.044091374 -0.40945545 -0.29558614 0.109773256
-0.0056662406

layer1.1.weight f4 [25, 25, 2, 1]
00000000: 5404 89be 7661 b73e 6069 ccbe fa3e 5c3e
00000010: 772d 5ebe bd84 cdbc 7517 bfbe fe6a ccbc
00000020: c0f9 bf3e 3deb 0cbe e285 573f a2d8 f8bd
00000030: 6b48 a9be 44a5 d23d 4996 b0be 58b4 823d
00000040: 2546 0abf 173b 95be 32d7 67bd 2a05 65bd
00000050: 7079 33be ae50 043e a5cd dd3e 8f73 c43d
00000060: ce01 ca3e b02f 043e c5e7 993a ebca 4ebe
00000070: 63ed dabd cc79 d93d 4a16 153d cc92 f7bd
00000080: c1b7 383f 56ba b6be 9d3b f63e 487e c83d
00000090: 12b8 63bd 6f17 c03d 6da4 79bb d080 9fbe
000000a0: 5d74 413f aa6c ab3c d8b6 8dbd 226e 4ebe
000000b0: 4706 c3be 30ae 4c3e a5bd cfbe 8896 d03d
000000c0: d054 2e3f 59d6 3cbe 9b8f d2be 3408 003f
000000d0: 020a 0dbe 005d f93e 76f6 6c3e c277 05bd
000000e0: 75a0 3f3e 0bab d93c a196 003f 549b dbbe
000000f0: ec48 bd3e e0fe f9be bda3 88be 6cc4 f23e
00000100: 5562 58bd 7a65 b93e 02b8 a4be eb28 a23e
00000110: 4b95 d3be a4a3 8f3e 49b9 e1be 28b2 063f
00000120: 368e 2cbe a645 53be cef8 893d 1f5e 9bbe
00000130: 3599 7b3e bfa0 cdbd 80ff 313d feac a03e
00000140: 32d4 323f 2e0c 81be 6b60 1e3f 1d00 32bf
00000150: 0dfb 02bf efd8 69bd 6486 143e ca16 dfbd
00000160: b0ec d23e f037 04bf 6720 a13e 92e5 20bf
00000170: 2529 40be 8926 3f3e 189d 3abe 63e9 fb3e
00000180: 62ac fbbe 0178 0f3f 6d15 823e 324e 2bbf
00000190: b4e6 dabc 84f2 30be 67db 8abe 92db d53e
000001a0: 4246 77be 69e6 1bbc 921d 6a3e 20a7 c1bd
000001b0: ee0d 0e3e 9f76 0f3f b952 0dbe 1385 d23e
000001c0: b2e5 153d 1c5a c5be 4767 a2bd 8db9 843e
000001d0: 52db 74bd 1027 c8be 5e26 c1bd 0cde 84be
000001e0: 8fec 97be 213b 22bf 4357 eb3e 634e 57bd
000001f0: bcd6 bf3d 6962 573e 0c0a 6f3d 5409 e43c
00000200: bad4 ddbe 1341 fe3e 1d78 2bbe fa07 763f
00000210: 65fe 9c3e e19c d3bd 9fb4 a23e 7d9a e4be
00000220: c5eb 0abe fc22 bfbe 5d92 60be cb82 2bbd
00000230: bed2 be3e a18a 7dbf ebf7 8dbd d902 62bd
00000240: 4bb0 2ebe 2918 933e afc7 72be 6e8d d03c
00000250: 716d a73e 9122 d3be 806b 303e 0f13 2b3e
00000260: e42f f83d c10e 62be 7c9d 963e df33 c8be
00000270: e003 973e 2f84 1fbe b137 493e 8be5 9dbe
00000280: 895c 89bd bc83 57be f5a0 393e a8f3 4d3e
00000290: cd7a 0e3e 3bbe 2bbe 07b1 373c 8b0a cebd
000002a0: 3c2b c9bd 9903 7d3e 2447 163d 4bca a33d
000002b0: 3033 8bbe 075b 3f3f f053 94be 8115 d03e
000002c0: 1081 143e 9406 5bbe 99b3 b83e f7d4 12bf
000002d0: 92e3 873e 846b 46bf 85e4 33bd fcf9 6fbe
000002e0: 1bfe 15bf 13cd 873f fbeb 583e ebaf 32be
000002f0: f19d 123e 1177 03bf 8b03 e1be dbd3 1a3f
00000300: a818 27be 7d2d 94bd 1c51 a93e 2c02 fdbe
00000310: 9418 4e3e 3341 53be 0ae5 bfbe 6e57 553e
00000320: 5c1a 143f cf84 21be 6207 473e 65e8 07be
00000330: 268e 843e cd97 b53e 9815 b63d b161 963d
00000340: a191 b4bd 9c6f c13e 50a5 d53c f64f 783d
00000350: 13b5 903e f450 50be b88f b3bc 08b3 4abe
00000360: 577f d8be b8c5 1f3e ec91 10be b59a 343d
00000370: 96a8 1a3e cde4 7abd cd3b 83be e319 25bf
00000380: c5d9 183d 0ca4 83be e888 45be bcbe 7b3e
00000390: f905 a83e f0a7 453e 62ba d7bc 2599 b63e
000003a0: c381 78be 2aae ae3e 4318 7fbe a4a5 68bf
000003b0: 27b2 893e ac40 a73e b527 a3be 37e0 3a3f
000003c0: 8ad8 b3be 03ab 25be b0ba 95be 124c b93c
000003d0: 3ed4 823e f740 993d f9ef 783e e7a7 163e
000003e0: 1b70 01bf 9c98 c73d 977d 013c 177d 99bd
000003f0: 57c7 f43c 8cc3 5c3e 0298 a2be f2e9 043e
-0.26761115 0.35816544 -0.39924145 0.21508399 -0.21697031 -0.025087709 -0.37322584 -0.024953362
0.37495232 -0.13761611 0.84188664 -0.121506944 -0.33063063 0.10285428 -0.34489658 0.06382054
-0.5401328 -0.29146644 -0.05660171 -0.055913128 -0.17526793 0.12921402 0.43320957 0.095923536
0.39454502 0.12908816 0.0011742046 -0.20194595 -0.10689809 0.10618934 0.03639821 -0.12088546
0.72155386 -0.35689038 0.48092356 0.09789711 -0.055595465 0.093794696 -0.003809239 -0.31152964
0.7556818 0.020925839 -0.0691964 -0.201592 -0.38090727 0.19988322 -0.40574375 0.101849616
0.68098164 -0.18441142 -0.41125187 0.50012517 -0.13773349 0.48703766 0.23140892 -0.032584913
0.18713553 0.026570817 0.5022984 -0.42891943 0.36969697 -0.48827267 -0.26687422 0.47415483
-0.05282815 0.36210233 -0.32171637 0.31671843 -0.4132484 0.28054535 -0.44086674 0.52615595
-0.16851124 -0.20632038 0.06736909 -0.30345246 0.24570163 -0.100404255 0.043456554 0.31381983
0.69855034 -0.25204605 0.6186587 -0.6953142 -0.51164323 -0.05709165 0.14504391 -0.108930185
0.41196203 -0.51647854 0.31470034 -0.62850296 -0.18765695 0.18667044 -0.18223989 0.49201497
-0.49154955 0.56042486 0.25406972 -0.6691619 -0.026721336 -0.17280012 -0.27120516 0.4176908
-0.24147895 -0.009515383 0.22862843 -0.09455705 0.13872501 0.56040376 -0.13801087 0.41117153
0.036596008 -0.3854531 -0.07929855 0.25922814 -0.059779473 -0.39092302 -0.09431146 -0.25950658
-0.29672667 -0.63371474 0.45965013 -0.05256499 0.09367129 0.21033634 0.05835919 0.02783648
-0.4332636 0.49659023 -0.16745038 0.9610592 0.30662838 -0.10332657 0.31778428 -0.44649115
-0.13566501 -0.37331378 -0.21930833 -0.04187278 0.3727016 -0.99039656 -0.06932052 -0.055178497
-0.17059438 0.2872937 -0.23708986 0.025458064 0.32700685 -0.4123731 0.17228508 0.16706489
0.121185094 -0.2207594 0.29417026 -0.39102075 0.29495144 -0.15577768 0.19650151 -0.3083919
-0.06707103 -0.21046346 0.18127806 0.20112479 0.13914032 -0.16771786 0.01121164 -0.10060605
-0.098226994 0.24708404 0.03668894 0.07997569 -0.2718749 0.7474827 -0.2897029 0.40641406
0.14502358 -0.21389228 0.36074522 -0.5735621 0.2654081 -0.77507806 -0.043919105 -0.23435205
-0.5859086 1.0609459 0.2118377 -0.1744992 0.14318062 -0.51353556 -0.43948016 0.60479516
-0.16318 -0.07235239 0.33069694 -0.4941572 0.20126563 -0.2063034 -0.3747943 0.20834133
0.5785272 -0.15773319 0.1943641 -0.13272245 0.258897 0.35467377 0.088908374 0.07342852
-0.08816839 0.37780464 0.026079804 0.06062313 0.2826315 -0.20343381 -0.021919116 -0.19794858
-0.42284653 0.15602767 -0.14118165 0.044092853 0.15103373 -0.061253358 -0.25631562 -0.64492625
0.037317056 -0.25711095 -0.19290507 0.24584478 0.32817057 0.19302344 -0.026333991 0.35663715
-0.2426825 0.34117252 -0.24911599 -0.9087775 0.26893732 0.32666528 -0.31866232 0.72998375
-0.35126144 -0.16178517 -0.29243994 0.022619281 0.25552553 0.07483094 0.24310292 0.14712487
-0.50561684 0.09745905 0.007903478 -0.07494562 0.029880209 0.2155897 -0.31756598 0.12979868

layer1.1.bias f4 [25]
00000000: cecd 553d 9671 d1bc 0fb1 31bd c397 563d
00000010: 8da0 24bc 0b76 ffbd a881 b0bd 64a6 90bd
00000020: e92b 9d3c 9da3 253e 2da9 3c3d d224 053c
00000030: fb4f fcbd 757a eb3d 0a05 7fbd 5064 09be
00000040: d3c5 d3bd 32e5 c7bd 54d2 803d ff5a aa3d
00000050: a7db e83d c62d dabc c487 0fba b0c1 c53d
00000060: f514 483d
0.052198224 -0.025566857 -0.043381747 0.052390825 -0.010048044 -0.12473687 -0.0861848 -0.070629865
0.019185977 0.16175695 0.046059776 0.008126454 -0.123199426 0.11497966 -0.062260665 -0.13417172
-0.10340466 -0.097605124 0.06290117 0.083181374 0.1137002 -0.026633155 -0.0005475248 0.096560836
0.04884811

layer1.2.weight f4 [25]
00000000: d87b ab3f d8c0 6c3f 85fe 3b3f cff5 563f
00000010: 601e 923f dd47 663f 39de 363f 37fc 8b3f
00000020: d4df 2a3f 636e 6c3f bb33 833f c220 913f
00000030: 6a89 823f 542a 953f 0135 853f 50de 883f
00000040: 1c8d 6f3f 69e0 953f fd79 893f 1235 803f
00000050: 8c80 943f 53cf 8e3f 1cac 713f e641 913f
00000060: 9810 593f
1.3397169 0.92481756 0.7343524 0.83968824 1.141552 0.89953405 0.71432835 1.0936345
0.66747785 0.92355937 1.0250162 1.1338122 1.0198185 1.1653543 1.04068 1.0692844
0.9357469 1.170911 1.0740353 1.0016196 1.1601729 1.115702 0.94403243 1.1348236
0.84790945

layer1.2.bias f4 [25]
00000000: e239 67bf f02d 81be 7257 27bd 9853 0fbd
00000010: 2b0c 44bf e14e 29be 6841 a33d f17b 11bf
00000020: d852 8fbb e07b 31be 6f14 37bf 0af4 7abf
00000030: fd77 47bf 5713 13bf 1af4 8abe 0a38 a7be
00000040: 3189 08bf 6d53 36bf 5afa 2cbf 1062 8dbe
00000050: 0fc0 cfbf 387c a1bf be43 9bbe eefb 4bbf
00000060: e24c 08bf
-0.903227 -0.2523036 -0.04085488 -0.03499183 -0.76581067 -0.16533996 0.079714596 -0.56829745
-0.0043738894 -0.17332411 -0.71515554 -0.98028624 -0.7791746 -0.57451385 -0.2713936 -0.32659942
-0.5333434 -0.7122105 -0.67569506 -0.27613878 -1.6230487 -1.2616034 -0.3032512 -0.7968129
-0.53242314

layer1.2.running_mean f4 [25]
00000000: 26f6 093e e12d ddbe d52c 61bd 3b69 583f
00000010: 744e 5abf ac6e a3be f71e 383f 6883 913f
00000020: da8c ba3e 88e4 0b3f 5f9a c33e 8c8b f03e
00000030: 8efc d63f fada 27bf f6d8 063f fd47 e9be
00000040: 7344 e8be 1429 5fbf 226d 2d3f 7a7f b6bc
00000050: 58a6 68be 1a1f dbbe 61f4 adbe dc7f 6d3f
00000060: 3684 833e
0.13472804 -0.43199065 -0.054974396 0.8453557 -0.8527596 -0.31920373 0.7192225 1.1368227
0.36435586 0.54645586 0.38203713 0.46981466 1.6795824 -0.65568507 0.52674806 -0.45562735
-0.45364723 -0.87172055 0.6774465 -0.022277582 -0.22719705 -0.42797166 -0.3397551 0.9277322
0.25686806

layer1.2.running_var f4 [25]
00000000: 3e77 9343 d4f8 8043 6ce3 3143 d2b6 7743
00000010: 24d2 9a43 9da9 1d43 ada9 4443 41cc 6243
00000020: 4030 4743 2bb5 2343 b4f8 0d43 cc29 3543
00000030: 198f c543 5bd0 5743 5ae1 6b43 ddf7 8443
00000040: b2f9 8043 d6ee 3543 187f 1543 228d 2843
00000050: a6bd 1943 b287 0543 3239 6d43 f7a3 2943
00000060: e6b4 1a43
294.93158 257.94397 177.88837 247.71414 309.64172 157.66255 196.6628 226.79787
199.18848 163.70769 141.9715 181.16327 395.11795 215.81389 235.88028 265.93643
257.95074 181.93295 149.49646 168.5513 153.74081 133.53006 237.22342 169.64049
154.70663

layer2.0.weight f4 [50, 25, 1, 5]
00000000: 424a 303e 0f6e 9e3b 3dce a9bd f3e1 0dbe
00000010: ab6c 8ebe 3185 073f 7773 5c3f 1ea3 163e
00000020: fa15 493d 5ca1 1f3e 97d9 c5be d8ee 173e
00000030: b23d 69bd 7b74 f93e 44dc 96be 020c 203c
00000040: a6ca 59bf 702a 443e ece5 0fbf 19cd 9e3e
00000050: 2c53 aabe 50a6 2b3d 0377 343e 41d0 593e
00000060: 6498 0a3e f7b9 cf3e a474 ef3e 0dd4 53bd
00000070: 84b4 103e a0dd 11bf 10ca 1abe 55df 13bf
00000080: 6a03 58be ea72 20be e31f 0c3f 353c 9dbd
00000090: f576 e5be 1589 e4bc 37a4 9cbe abb9 91bd
000000a0: 1fc2 b7bd 2e3b 8b3d 0d96 4c3d 8a3a 7b3c
000000b0: eb6d af3e e6d1 4cba 416e dbbe aa75 febd
000000c0: aa81 59be 3de2 703e e6bb a83a 010a f13c
000000d0: 23bb 483d df4d 50be f5d5 d13e ad7e 633e
000000e0: 7b91 dd3c 8982 443d e5b0 d53e 35a8 f63d
000000f0: fe0d 49be db88 00bf 0630 fbbe 154b c7be
00000100: 0690 2bbe f1a3 403e 5f58 b13e 2d8d 383e
00000110: b2ed 6dbe cb36 8abe 0048 9e3e 1ac2 63be
00000120: a0de cd3e 2cfa b53e 3cf5 ae3e 69ff c53e
00000130: 15f8 273f 387d 5a3e 4be3 be3e 1f20 d7be
00000140: d011 813d 5615 02be 7871 bb3e d49d c5bd
00000150: 162f e53c e0e5 e9be 35ff 8abd 090d a8be
00000160: aadc 563e 894d 803e 4e20 3a3e 4aef 49be
00000170: ee51 d7bc ed8c ecba bcfc 5fbe 522e 933e
00000180: d89b 493e 271e 623e 541b 623f 3813 4b3d
00000190: 2f43 e5bd a469 3abd d513 5dbe d007 bebd
000001a0: 62d4 c1be 1ec9 553d 5890 8c3e 2f38 113e
000001b0: dd5b 10be ca88 b2bd 70ac 89be 8fe3 4dbe
000001c0: 432f c8bd 65ca 89bd eba6 56be 7c4c e33d
000001d0: ff70 333c f5e7 f03c 47ff 5bbd f1d2 303f
000001e0: 123a 5b3e 9a39 97be 1430 233e f107 93be
000001f0: a13b 3a3b 861a fabd 628c 15bf 2ab4 f83d
00000200: d1d2 b8be 1d80 e6be f3e9 88be 1dba 8dbe
00000210: 6ffb 61be 26b1 d1be 2841 afbe 6641 f33d
00000220: 6849 393e 8c6e 0abf 926e f1be 148d f23e
00000230: 746b 15bf 8888 eebe e1fa da3d 9a0e 07be
00000240: 0597 1cbf b78e 3e3f 2ad0 dfbd e0dd e7be
00000250: ab52 953e 0f26 bc3d f575 bd3e 7aed c83d
00000260: 4598 e2be f201 9bbe 4f2a 6f3e 7586 aebe
00000270: 6923 a7be 1e94 f33d b3d3 bbbc 982e 85bf
00000280: 42d9 1dbf 058e 74be 7c94 4fbe e73b 153f
00000290: 02fd 033e 042a f3be 8484 eabe 3997 923c
000002a0: ffdf f6be b8cc e3be 3a6e dd3d 4e11 50be
000002b0: dac4 823e 6dbd 12be aa2d 2fbf d372 52bf
000002c0: 9182 83bd 6abb 903e e0a0 59bf 620d 22be
000002d0: 20e6 3ebe a07f 8cbe 7000 503b 6971 9fbd
000002e0: 89d5 61be 1293 10bf 3597 8f3d 7597 053e
000002f0: a693 9f3e fac2 923e 72d2 99bd 95f6 5fbe
00000300: 3fb4 1a3e 2551 853c da88 523f e104 64be
00000310: 26ce 84bc b063 163e 3be0 2bbf 38bb 70bf
00000320: 7698 983e d14a f6bd f574 b9be 5fb6 16be
00000330: 09e6 873e 4944 edbe 1e0f bd3e 28af 4dbe
00000340: 1dbb a6bd ac61 103f e55c a33e c607 31bd
00000350: bb11 c8be fdcb a83e d894 b63e d942 c8bd
00000360: 614f 8bbe 66cd 533e 7d55 68bb 329c 75be
00000370: 33c6 e5be b30f 403d 1224 fabe 4ce4 44bf
00000380: b2af d9bd f26a fabe 5b78 e73d 4f61 14bd
00000390: 70fb ddbe 25ab e8be 0385 2abe 4fd9 af3e
000003a0: ffc5 92bd 4c19 6abe 407d 2e3d 3c05 723e
000003b0: 1005 28be b77c f13d 872c 323e 9ea1 293f
000003c0: ae11 f73d 1fa2 a1be 6e9f c8be b5a0 19be
000003d0: deaa c0be 6df2 9ebe 2f76 c2be 4713 ec3e
000003e0: 5312 afbd a5bc 75be d25a cbbd e6f0 143c
000003f0: 46fd d4bd 3db3 1abf ed75 d13e 0550 bb3d
0.17215827 0.0048348974 -0.0829129 -0.13855724 -0.27817282 0.5293761 0.86113685 0.14710662
0.049093224 0.15588897 -0.3864257 0.14837205 -0.056943603 0.4872168 -0.29464924 0.009768488
-0.8507484 0.19156814 -0.5621021 0.31015852 -0.3326658 0.041906655 0.17623524 0.21270849
0.13534695 0.40571567 0.46768677 -0.0517159 0.14131361 -0.569788 -0.15116143 -0.5776265
-0.21095052 -0.15668836 0.54736155 -0.07677499 -0.4481732 -0.027897397 -0.30594036 -0.071154915
-0.089725725 0.06798397 0.049947787 0.015333781 0.34263548 -0.000781326 -0.42857555 -0.124247864
-0.21240869 0.23523803 0.0012873381 0.029423716 0.049006592 -0.20342205 0.4098355 0.22216292
0.02704691 0.04797605 0.41736522 0.12043802 -0.19634244 -0.50208825 -0.49060076 -0.3892447
-0.1675416 0.18812539 0.34637734 0.18022604 -0.23235205 -0.2699493 0.30914307 -0.22242013
0.40208912 0.35542428 0.34171474 0.38671425 0.6561292 0.2133683 0.37282786 -0.42016694
0.063022256 -0.12703452 0.36610007 -0.09649244 0.027976554 -0.45683193 -0.06786958 -0.32822445
0.20982614 0.25059155 0.18176386 -0.19720188 -0.026284184 -0.001804737 -0.21873754 0.28746277
0.19688356 0.22081815 0.8832295 0.049578875 -0.11194455 -0.045510903 -0.21589597 -0.09278834
-0.37857348 0.052193753 0.27453876 0.14181589 -0.14097543 -0.08717497 -0.26889372 -0.20106338
-0.097746395 -0.06728057 -0.20962112 0.110985726 0.010952233 0.02940748 -0.05371025 0.6907187
0.21408871 -0.29536134 0.15936309 -0.28716996 0.002841689 -0.1221209 -0.5841733 0.121437386
-0.3609834 -0.45019618 -0.2674099 -0.27681056 -0.2206857 -0.40955466 -0.34229398 0.11877708
0.18094409 -0.5407493 -0.4715467 0.4737326 -0.58367085 -0.4658854 0.106923826 -0.13189164
-0.6116794 0.74436516 -0.10928376 -0.45286465 0.29164633 0.091869466 0.37004057 0.0981092
-0.44256797 -0.30274922 0.23355983 -0.34086958 -0.32644203 0.118934855 -0.022928094 -1.0404844
-0.61659634 -0.23882301 -0.20271486 0.5829453 0.12889484 -0.47492993 -0.45804226 0.017894374
-0.4821777 -0.44492126 0.1081204 -0.20319101 0.2554081 -0.14330073 -0.6842905 -0.8220646
-0.06421388 0.28267986 -0.850111 -0.15825418 -0.18642473 -0.2744112 0.0031738542 -0.07785303
-0.22054113 -0.5647441 0.07011262 0.13046058 0.31167334 0.2866438 -0.075108424 -0.21871407
0.15107821 0.016274044 0.8224007 -0.22267486 -0.01621158 0.14686465 -0.67139024 -0.94035673
0.29803818 -0.12025989 -0.36222044 -0.14718007 0.2654269 -0.4634116 0.36925596 -0.20086348
-0.08141158 0.56399035 0.3190681 -0.043220304 -0.39076027 0.3296813 0.35660434 -0.09778375
-0.27209 0.20683822 -0.0035451346 -0.23985365 -0.44877777 0.046889972 -0.48855644 -0.76910853
-0.10629214 -0.48909718 0.11302253 -0.036225613 -0.43355894 -0.45443073 -0.16652302 0.3434548
-0.07166671 -0.22861212 0.042599916 0.2363481 -0.16408181 0.117913656 0.17399798 0.66262233
0.12063919 -0.31569 -0.39184135 -0.15002711 -0.3763036 -0.3104433 -0.37980792 0.46108457
-0.08548417 -0.23997743 -0.09929432 0.009090638 -0.103998706 -0.60429746 0.40910283 0.09146122

layer2.0.bias f4 [50]
00000000: b231 fbbd 9428 5bbd f771 243d 42c4 bf3d
00000010: 1688 27be f577 443d 9d49 bd3c 8623 59bc
00000020: 58c5 583d 4e04 c3bd 43eb edbd 440b b63d
00000030: d3b1 2f3d ebbe d03d dbaa b03d cc77 07be
00000040: 93bc e2bc 1e40 d03c 4f30 5abd 187c 243d
00000050: 735a e2bd faee e73d cbed f03c 7568 63bc
00000060: 18d2 b23c 6eaa 58bd 8660 94bd eea8 983b
00000070: 39ef 52ba 0f3c 4c3d a730 3fbc b450 6e3d
00000080: 0e12 92bd 7161 073e 5164 9dbd d506 f33d
00000090: f9d9 f9bb 6c59 a8bd 2bb5 e03c 8a83 0bbe
000000a0: ea28 8e3d 1e01 663d 55ac ccbd 7a7d 0f3e
000000b0: ed73 fb3d f368 3abd 7a78 08be 9a19 36bc
000000c0: bc9d 8a3d f4ae b0bd
-0.12265338 -0.053505495 0.040147748 0.09363605 -0.16360506 0.047965962 0.02310639 -0.013253098
0.052922577 -0.095223054 -0.11617138 0.088888675 0.042894196 0.10192665 0.08626338 -0.13229293
-0.02767781 0.025421198 -0.053268727 0.040157408 -0.11052408 0.11324878 0.029410264 -0.013879885
0.021828696 -0.05289691 -0.07244973 0.00465881 -0.0008046511 0.049861964 -0.0116693145 0.058182433
-0.0713235 0.13220765 -0.076851495 0.118665375 -0.0076248613 -0.08220181 0.027430138 -0.13624397
0.069413975 0.05615341 -0.09993807 0.1401271 0.122779705 -0.045510244 -0.13327208 -0.011114502
0.06768367 -0.0862712

layer2.1.weight f4 [50]
00000000: 0379 313f f9cf 9d3f aa6d 8a3f ffb7 613f
00000010: 75b7 403f 1dea 3c3f 7db9 933f 3b48 703f
00000020: 28cb 483f 90bd 113f 47ef 913f abe0 a43f
00000030: cd0c 4f3f 3c18 cc3f 4116 4f3f c22d 993f
00000040: 4942 a13f 7d67 313f 30fb 393f 97db 913f
00000050: a1ed 443f 85af 773f d330 5c3f 5a08 353f
00000060: 9310 213f 8663 2f3f 7c79 3d3f 9d87 323f
00000070: 0b64 673f a7c9 c33f c342 7c3f 6a18 143f
00000080: 56cb c73f 3783 753f 5d60 9f3f f9db 5f3f
00000090: 96a9 663f 6dc3 8a3f 11d4 733f 821a 813f
000000a0: 78bd e43e 38c1 a93f 9de0 443f 539e 653f
000000b0: 9fd8 d43e b293 373f 1f02 3d3f e800 273f
000000c0: 3662 7c3f 119f 613f
0.69325274 1.2329093 1.0814717 0.8817138 0.75279933 0.7379473 1.1540982 0.93860215
0.7843499 0.56929874 1.1401147 1.2881063 0.8087891 1.5944896 0.8089333 1.1967089
1.2598354 0.69298536 0.72648907 1.1395139 0.7692509 0.96752197 0.86012 0.7071587
0.62915915 0.68511236 0.74013495 0.6973818 0.9038703 1.5295914 0.9853937 0.5784975
1.5608928 0.9590334 1.2451283 0.87445027 0.9010252 1.0840889 0.9524546 1.0086215
0.44675803 1.3262091 0.7690523 0.8969471 0.4157152 0.7170974 0.7383136 0.6523576
0.9858736 0.8813334

layer2.1.bias f4 [50]
00000000: 3e62 39bf b6a7 46bf 0c4c 01bf d79f a2bf
00000010: e651 cdbe f495 1dbf 5536 e8be d5f1 f7be
00000020: 263a 94bf 23ee 83bf f241 2bbf 1465 46bf
00000030: 8504 f7be e30a 8fbf e2ef 4fbf 3f67 16bf
00000040: f69c 4fbf 5cb8 75bf 1deb 3dbf e439 2abf
00000050: d3e5 6ebf 4fbe 5abf 9434 95bf 851a 29bf
00000060: 824a 4ebf 814c 92bf 3edc 54bf 0579 17bf
00000070: 3ee4 aebf 5b09 93bf fcab 2ebf d5e0 5bbf
00000080: 78a5 8cbf 41f5 69bf c05e 7ebf e3ae 8abf
00000090: 3634 27bf 0609 ecbe 7b49 d9be 155f ebbe
000000a0: f5ab 11bf d846 02bf 897c fabe 2cbe 05bf
000000b0: 8c06 11bf 85f5 3abf eb4d 6dbe f22f 12bf
000000c0: 3445 26bf 99f2 e5be
-0.7241553 -0.77599657 -0.50506663 -1.2705029 -0.40101546 -0.61556935 -0.45353952 -0.4842669
-1.1580245 -1.0307049 -0.668975 -0.7749798 -0.48245636 -1.1175197 -0.8122541 -0.5875129
-0.8109888 -0.95984435 -0.7418688 -0.66494584 -0.93319434 -0.8544664 -1.165667 -0.6605609
-0.8058244 -1.1429597 -0.8314856 -0.59169036 -1.3663404 -1.148723 -0.6823118 -0.8588994
-1.0987997 -0.9138985 -0.9936333 -1.0834621 -0.6531404 -0.46100634 -0.42438874 -0.4597098
-0.5690301 -0.5088935 -0.48923138 -0.52243304 -0.56650615 -0.73030883 -0.23174255 -0.5710441
-0.64949346 -0.4491165

layer2.1.running_mean f4 [50]
00000000: 08bf 2a3f e97c 97c0 a223 f8bf 7a41 a53f
00000010: 71aa ecbf 43f7 01c0 0041 02c0 9703 56be
00000020: 57cb cdbf e797 d93f 979c 32c0 666d 3dc0
00000030: ee2b 95c0 6224 cdc0 a1c4 e43f 6217 85c0
00000040: 13f9 78c0 d014 3540 589b ac3e b71e a8c0
00000050: 53bd dfbe 52b0 373f 4e39 11bf 925b 5abf
00000060: ba11 4c40 0a60 ed3b abec 443f 2206 18c0
00000070: b17d 0940 7aee a2c0 d9ff 8cc0 98fa 2940
00000080: de40 afc0 0507 acbd 0431 5fc0 fb52 8e3f
00000090: 35a2 36c0 3d55 4ac0 9ba6 74c0 2fd5 65c0
000000a0: 73b0 dcbd e160 93c0 8662 34c0 ece0 23c0
000000b0: ad6b 603f a574 b93e 3451 26c0 fee9 cb3f
000000c0: 148d 7cc0 fbdd 36c0
0.6669774 -4.733998 -1.9385874 1.2910607 -1.8489515 -2.0307167 -2.0352173 -0.20899807
-1.6077679 1.6999482 -2.7908075 -2.9598022 -4.6616125 -6.4106913 1.7872506 -4.1591043
-3.8902023 2.8293953 0.33712268 -5.2537494 -0.4369913 0.7175342 -0.56728065 -0.85295975
3.188582 0.0072441148 0.76923627 -2.3753743 2.1482966 -5.091611 -4.4062314 2.65592
-5.4766684 -0.08399776 -3.4873667 1.1119074 -2.8536503 -3.1614525 -3.8226688 -3.5911367
-0.107758425 -4.605576 -2.8185134 -2.5606031 0.876643 0.36221805 -2.5987062 1.5930784
-3.9461107 -2.8572986

layer2.1.running_var f4 [50]
00000000: d2f6 1c41 7993 ca41 1665 9641 d3f3 1a41
00000010: 4dd9 6f41 d830 fb40 7ed6 a541 f97f 4341
00000020: b19c 3d40 1407 a240 0047 8f41 83c9 9c41
00000030: ba61 9d41 070a 0d42 4a3d 1d41 d9e6 bb41
00000040: 71ce 9e41 7b6b f440 ad3c b740 bf6d ad41
00000050: 6226 be40 dc61 2341 eb6c 8a40 038c b240
00000060: d8fe d940 23d7 cd40 7809 c640 4a77 da40
00000070: 559b f840 2ed1 8341 1159 7841 7a3d f040
00000080: 977f 8341 1312 2441 4b7c b341 b6fc d540
00000090: fc95 5341 8c74 b341 4811 6041 8a64 7241
000000a0: f72e 2e40 53bc c741 1d88 be40 58f8 5641
000000b0: cabe 6640 bae9 f940 6f8d 5a41 306c b840
000000c0: a259 5d41 f48a 9d41
9.810259 25.322008 18.799358 9.684527 14.990552 7.8497124 20.729733 12.218743
2.9626887 5.063364 17.909668 19.598394 19.672718 35.259792 9.827463 23.487719
19.850801 7.63812 5.7261567 21.678587 5.9421854 10.211391 4.3257957 5.5795913
6.812359 6.432512 6.188656 6.8270617 7.7689614 16.477139 15.521745 7.5075045
16.4373 10.254413 22.43569 6.6870985 13.224117 22.431908 14.004219 15.149546
2.7216165 24.966955 5.9541154 13.435631 3.6053948 7.809781 13.65953 5.7632065
13.834383 19.692848

layer3.0.weight f4 [100, 50, 1, 5]
00000000: eb66 093e 7ca2 11be 717f 71be 9f21 7cbe
00000010: 519a 5bbe 6851 993d 1083 58bb abf9 a5bd
00000020: 6cee ecbd 7a1c e8bc 15dd 54be 8eca 993e
00000030: 1f6d 74bd 665e 7fbe 44d2 90bd ef13 663e
00000040: c352 5b3e 9a80 703e da36 f0bc 9437 323d
00000050: 49f7 153d 9b36 f03c acb8 6c3d e050 9a3d
00000060: 3ebe f83c e6a6 493d 03f6 813c 4865 be3d
00000070: 3c92 1d3e 6a51 f73d 996c 56be 1d35 8f3d
00000080: b172 03bc 4184 34be 4996 24bc da8e 833e
00000090: a24c ad3d ca00 e13d 731b e33d 1621 8b3e
000000a0: a459 8f3d 2bfa e73c 2a41 dc3c 72bf 683c
000000b0: 29a3 383e b310 5b3e 37b4 693e 7f18 903d
000000c0: 71f0 553e 63cf 0d3e e010 bd3b bed1 053e
000000d0: ad8a 2b3e b0c4 a93d 13d6 243e 88fc b3bd
000000e0: de2c 30be c249 1fbe 5491 67bd d6ad 6bbe
000000f0: a08f db3d 3645 d73d 9f5d 37bd 4890 b33d
00000100: 9bf6 1bbc 12ee 563d f82d 11be e43c 0abe
00000110: 364c 3cbd 33c8 693d d29f ae3e 7a1e d13d
00000120: 54c9 703d 3097 3d3d 4317 dabd 7a45 8e3d
00000130: 9fff 48bd fa9b c83d 49c9 8dbe e3bb ddbd
00000140: 429b 78bd 695c efbd 04e9 2abe 2417 8b3d
00000150: 15b5 55be 0cf4 793e ded5 4b3d aa64 24bd
00000160: bb63 f73d fcfa 2dbe 1c70 3bbe 9e87 94bc
00000170: f68a aebd deea c0bd 9b3d 943d 3d7e 38be
00000180: 2258 e2bc 1cec 49bd a163 c33d 7173 6abd
00000190: 96e2 e93d 01eb 8b3e b8da 893e 207b 763e
000001a0: c6d1 023e 395c c33d 794c 333e a389 8b3e
000001b0: b240 5f3e 8185 9e3d d964 02be 7cff f93d
000001c0: d6c7 673c 24dc 1c3e b547 3d3e fa24 adbd
000001d0: 7ca1 1939 7efe df3d 206f 2e3c ee5d 0abe
000001e0: e096 16bd 892e fe3d 6576 bc3c 6ac1 99bd
000001f0: 2e22 99bc e7b0 d13d 5cfa dc3d 771e 593e
00000200: af92 163e 7240 4b3e bd15 3e3e e81c 95be
00000210: 81d6 6cbe c5d4 29be 1ec0 1dbe 4d00 70bd
00000220: 860d d7bd 0c75 113e 9c93 d23d d4d5 943c
00000230: e7e7 183e 5334 8a3e 743b 573e bcf0 b93d
00000240: 477b 863c 0d60 e33d f032 bc3d 0087 8e3e
00000250: a488 5f3e aefd d13e 8b11 1f3e 46ea 093e
00000260: bae4 b53e fc37 c13b 3867 a6bd 9b41 e23d
00000270: 43bf 773e 2a83 60bd 6851 623e bca8 183e
00000280: 7161 b83d f7e7 103e 53a3 523e 1857 4d3e
00000290: 422e 703e 8812 8f3e 748f 733d 95f6 413d
000002a0: e649 b33d adb6 903d 23ae 1abb ac0e 6b3d
000002b0: 20e3 353d 089f 1d3c 5cdd a13c c960 cc3d
000002c0: 4097 733e 50f4 083e 8efe 953e 991e 293e
000002d0: ff64 b93e 63b9 6c3e be30 083d 35c0 83bc
000002e0: c735 07be b529 c1bd 4a3c 9d3d 18c3 51bd
000002f0: 1def 10bc 510b d0bd 7802 a4bc 0d6f cd39
00000300: 2ebd b5bc 4215 0d3e d46c 0a3e 07ce 82bd
00000310: 6faf bd3c 6ec6 9fbc 3ea7 6d3d 3796 a03a
00000320: 8d10 843d c50a bebd e561 9b3c 9f76 5a3d
00000330: 3cc5 4b3c aca1 553d a1fc 15bd 05db 7fbd
00000340: 3305 eabd 41eb 863c 75a7 043e 14cf 133d
00000350: ec0c 33bd 9f3b f63d df9c ed3d 43ad 273e
00000360: 899c 263e 7733 85bd 7033 01bd 8512 003e
00000370: 889e b73d 94d4 a83d 9497 373c d1b8 363d
00000380: d807 3bbc 2659 8b3e 06b0 4c3e b4da cabe
00000390: 4aa8 c03d e1a5 cabd e73f ff3c db16 3bbc
000003a0: 5cbd 9abd 7f69 79bd bc9a 05bd a97f 4b3e
000003b0: 0af1 e63d 4e1d e2bc aa3c 2f3e 13ad aabd
000003c0: 036c e6bb a6a7 dbbc 6fcc 07bd 259e 133e
000003d0: 6f97 063e c6ce 89bc 549a 2dbd 319d 133c
000003e0: 5860 f93d 9f9f 20bd d7d5 7e3d cdbe 303e
000003f0: fffe a43d a100 83be 560a f33d 3708 b9be
0.13418166 -0.14222139 -0.23583771 -0.246222 -0.21445586 0.0748623 -0.0033037104 -0.08104261
-0.11568913 -0.028333891 -0.20787461 0.3003735 -0.05967438 -0.24938354 -0.07071355 0.22468542
0.2141829 0.23486558 -0.02932303 0.043510035 0.036612783 0.029322913 0.057793304 0.07534957
0.030364152 0.049231432 0.015864378 0.092966616 0.15387815 0.120760754 -0.20939864 0.069925524
-0.00802295 -0.17628576 -0.010045596 0.25694925 0.08461882 0.109864786 0.1108922 0.2717368
0.069995195 0.028317532 0.026886541 0.0142058 0.1803099 0.21393089 0.22822653 0.07035922
0.20892502 0.13848643 0.005769834 0.13068292 0.1675212 0.08289468 0.16097288 -0.08788401
-0.17204615 -0.1555548 -0.05653508 -0.23015532 0.10720754 0.10511248 -0.04476702 0.08767754
-0.009519245 0.052473135 -0.14177692 -0.1349979 -0.045971118 0.05707569 0.34106308 0.10210891
0.05878575 0.04628676 -0.10648968 0.06946845 -0.049071904 0.09795375 -0.2769263 -0.10826852
-0.06069494 -0.11687548 -0.16690451 0.06791523 -0.20869859 0.24409503 0.049764507 -0.040135063
0.12079569 -0.16990274 -0.18304485 -0.018131074 -0.085225984 -0.09419797 0.07238313 -0.18016906
-0.027629916 -0.049297437 0.09540487 -0.057239 0.11420171 0.2732773 0.26924682 0.24070406
0.12775335 0.095390745 0.17509641 0.27253446 0.21802023 0.077403076 -0.12733783 0.12206933
0.014146766 0.15318352 0.18484385 -0.08454318 0.00014651375 0.109372124 0.010646611 -0.13512394
-0.03676498 0.124112196 0.023005674 -0.07507594 -0.018693056 0.102388196 0.1078994 0.21203028
0.14704393 0.19848803 0.1856298 -0.29123616 -0.23128702 -0.16585071 -0.15405318 -0.058594037
-0.10500626 0.14204806 0.102820605 0.018168367 0.14932214 0.26993045 0.21018773 0.090791196
0.016416205 0.111023046 0.09189403 0.27837372 0.21829468 0.41013855 0.15534036 0.13468274
0.35526067 0.0058965664 -0.08125156 0.110476695 0.24194054 -0.054812588 0.22101367 0.14908117
0.090029605 0.14150988 0.20570116 0.20052755 0.23455146 0.27943826 0.05946298 0.0473543
0.087543294 0.07066093 -0.0023602329 0.05738704 0.044406056 0.009620436 0.019758873 0.09979398
0.23788166 0.13374448 0.29295772 0.16515578 0.36209866 0.23117594 0.03324961 -0.016082862
-0.13204108 -0.09431783 0.07677515 -0.051211447 -0.008846072 -0.101584084 -0.020020708 0.00039183386
-0.022184934 0.1377764 0.13518077 -0.06386953 0.023154942 -0.019503798 0.058020823 0.0012251799
0.06448469 -0.09279398 0.018967578 0.053335782 0.012437161 0.052156135 -0.03661788 -0.062464733
-0.11426773 0.0164696 0.12954505 0.036086157 -0.043713495 0.120230906 0.116021864 0.16374688
0.16270651 -0.06503957 -0.031543195 0.12507065 0.08965784 0.08243671 0.011205573 0.04460985
-0.011415444 0.27216452 0.19989023 -0.39619982 0.094070986 -0.0989492 0.0311584 -0.011419023
-0.07555649 -0.060891625 -0.03261827 0.19872917 0.11276443 -0.027601864 0.17112985 -0.083337925
-0.007031919 -0.02681334 -0.033153947 0.14415796 0.13143705 -0.01682223 -0.042383507 0.009009645
0.12176579 -0.039214727 0.062215652 0.17260285 0.08056449 -0.25586417 0.11867206 -0.3613908

layer3.0.bias f4 [100]
00000000: b153 9ebd aa6a 7abd 25b0 8a3d 4c0b 1f3d
00000010: 1237 a9bc 6434 eb3d ead2 aebc dad2 ff3b
00000020: 37d3 123d a8d7 5b3c 5714 7b3c 36f1 153c
00000030: fcef 9dbd f2a2 96bc cf39 c6bc 57be 4c3d
00000040: 0d70 1abd de14 f6bc a936 30bd 451f 28bd
00000050: ca7e d23c 5fe0 383d 4472 f73c a4b7 9d3c
00000060: 7d43 233d 3d9e c83c db17 4cbd c6f4 f63c
00000070: e04f d8bc 07e1 66bd bf00 e4bb d35a 66bd
00000080: cca6 2f3d 6e38 e3bb ee37 ca3c 6917 603c
00000090: d1d7 56bd 1652 a5bd 7bdb 303c 6f4c df3c
000000a0: 4c03 a73d 6682 a33d 995b b03d 042b 2c3b
000000b0: 4735 a2bc 2474 91bc 1d09 b43b 14d1 ae3d
000000c0: 35aa de3c 767a 14bd 879e fabb a3d5 c1bc
000000d0: 1421 243d ba9e 493d 760d 21bb c0b7 a9bc
000000e0: 78ab a2bc 21c6 63bd bb23 563d 064b a8bc
000000f0: 47c2 ac3d 86ad 34bd e5b7 443d e58c 70bd
00000100: c3c9 90bd 1688 cb3c 426e 51bc 734a fd3a
00000110: ae86 8dbd 749e 9a3c 8f9a ae3d 9f6f d1bc
00000120: 3df7 5dbd 50c8 ce3c e337 273d e3d4 993c
00000130: c0f3 cf3c 9fb7 88bc d5e0 9a3d a311 cb3d
00000140: 40df 8fbd 9634 c73c 7ab1 a43b 18a1 b8bc
00000150: c66f 663d 5a04 f0bc 0613 a63d bb19 113d
00000160: a8f5 df3d f776 d93c 48ca 6d3b e517 4ebc
00000170: ef0c 723d fab9 013c 938a 013d 4c59 9bbc
00000180: 2909 13bc d9c4 663b 1b25 09bc 4ded 903d
-0.077308066 -0.06113688 0.06771878 0.038829133 -0.020656142 0.11484602 -0.021340806 0.007807118
0.03584596 0.013418116 0.015324674 0.009151747 -0.07711789 -0.018388245 -0.024197487 0.04998621
-0.037704516 -0.030039247 -0.043020878 -0.041045446 0.025695223 0.045135852 0.030205853 0.019252606
0.039859284 0.024489516 -0.049827438 0.030146014 -0.026405275 -0.056366947 -0.0069580968 -0.05623896
0.04288368 -0.006934217 0.024684872 0.013677456 -0.052451912 -0.08072297 0.010794516 0.027258126
0.08154926 0.07983856 0.08611221 0.0026270756 -0.019800795 -0.017755575 0.0054942505 0.08535972
0.02718077 -0.0362496 -0.0076482925 -0.02366144 0.04007061 0.04922364 -0.0024574674 -0.020717502
-0.019857153 -0.055608872 0.05228017 -0.020543586 0.08435493 -0.044110797 0.048026938 -0.058728117
-0.07069733 0.024845164 -0.012782635 0.0019324556 -0.06910454 0.018874384 0.085255735 -0.02556592
-0.054190863 0.025242 0.040824782 0.01877827 0.025384784 -0.01668912 0.075624146 0.09915473
-0.070250034 0.024317067 0.0050260397 -0.022537753 0.05625894 -0.02929895 0.08109097 0.03542493
0.10935527 0.026545985 0.00362839 -0.012578939 0.059094366 0.007917875 0.031626295 -0.018963479
-0.008974352 0.0035212545 -0.008370663 0.070765115

layer3.1.weight f4 [100]
00000000: 2e1a 9a3f 3db1 793f a7eb 4f3f 0cd1 6d3f
00000010: 6ddb 8b3f 751c 7d3f b006 943f 60f2 823f
00000020: 77d5 9b3f ac45 3a3f 3245 503f 974a 9c3f
00000030: 4458 5f3f 1cdb 873f 2fdd 8f3f b956 923f
00000040: f79d 713f 9e3a 803f 1019 803f e933 653f
00000050: 51f8 853f b4a4 963f f02d 9e3f 51c6 653f
00000060: 7bda 693f 8109 a73f dc19 933f 48fb 9c3f
00000070: a5a4 973f ff17 a53f 3672 9d3f 8078 763f
00000080: 90e0 a23f da8b 883f 7221 313f 82ce 893f
00000090: 96d3 523f b3c1 7a3f 7b58 803f 309f 713f
000000a0: 7c7d a43f 4559 883f 1b6a 7f3f 4a7e 833f
000000b0: 780e 743f 1899 b83f 49cd 7a3f 24fd 593f
000000c0: bd61 603f ad32 a63f f35c 8b3f 2b21 853f
000000d0: 2ea1 8d3f 40cc b43f 6a0a 9c3f a0f2 823f
000000e0: dc27 773f 9abc a33f 47b5 953f cb96 913f
000000f0: 8cf9 7a3f c0fc 923f 977c 6f3f f5e1 953f
00000100: 646a 583f f477 ae3f 0782 983f 1bb8 893f
00000110: 2722 9f3f 5a4b a63f 905c a13f 2274 5c3f
00000120: e4ca 953f 8eeb 613f a59e a63f 8bc4 9e3f
00000130: 2e32 9c3f 2769 953f 8d8f 903f 7c46 4b3f
00000140: 1f8d a63f 7024 783f dd92 7f3f 0d3c b93f
00000150: aef4 853f b249 633f 3016 4c3f e890 693f
00000160: 4345 473f 894c 503f 5f6e 8f3f 1594 5b3f
00000170: 2644 9b3f 75ae a23f 0f71 6a3f 6f63 6b3f
00000180: 9520 8b3f 93ea 573f 68a5 853f 7e05 b33f
1.203924 0.9753607 0.8121895 0.92897105 1.0926338 0.98871547 1.1564541 1.0230217
1.2174519 0.7276256 0.81355584 1.2210263 0.8724406 1.0613742 1.1239375 1.1432716
0.9438166 1.0017889 1.0007648 0.89532334 1.0466405 1.1769013 1.2357769 0.8975573
0.91349 1.3049775 1.1492267 1.2264185 1.184712 1.2897948 1.230048 0.9627762
1.2724781 1.0667679 0.6919166 1.0766146 0.82354105 0.9795181 1.0027002 0.94383526
1.2850795 1.0652243 0.9977128 1.0272915 0.9533458 1.442172 0.9796949 0.85151887
0.87649137 1.2984215 1.0887741 1.0400747 1.1064813 1.4124832 1.2190678 1.0230293
0.96545196 1.2791932 1.1695946 1.1374143 0.9803703 1.1483383 0.93549484 1.1709582
0.8453734 1.3630357 1.1914681 1.075931 1.2432297 1.2991745 1.2606373 0.86114705
1.1702542 0.8825005 1.3017164 1.240373 1.2202814 1.1672715 1.1293808 0.79404426
1.3011817 0.969306 0.9983347 1.4471451 1.0465295 0.88784325 0.79721355 0.91236734
0.7784006 0.81366783 1.1205558 0.8577283 1.2130172 1.270949 0.91578764 0.919486
1.0869318 0.84342307 1.0441103 1.3986051

layer3.1.bias f4 [100]
00000000: 31c8 03bf c8f9 213e b1c3 18be f751 93bd
00000010: 4c02 0bbf 050d f8be 8299 85bd 0bbb 26be
00000020: 2b20 05bf d60d edbe 7842 02bf 8540 31bf
00000030: a651 0cbf 920e 01bf e2eb 44bf 440f 91bd
00000040: 6469 7dbe 96d2 a9be 625c db3d 9afc 87be
00000050: e7ff c8be 01f3 cabe 0462 673d afc2 ddbe
00000060: d26b b4be 1cb1 94be 115c d1bd 371d 0ebf
00000070: 1904 9fbe 5236 bbbe d74e e0be d5a2 72be
00000080: e970 21bf a614 143d 3968 27bf ab01 0c3c
00000090: 0ca2 2bbe 7f92 48bd be16 edbe 5197 26bf
000000a0: 3298 88be d31d 0abf d369 19bf 52da 2cbe
000000b0: 74dc f8be 6fc8 f5be 0d20 8b3c 837a d6be
000000c0: fcff 06bf 73fb 21bf c7eb 11bf 834a 81be
000000d0: ec21 443d f282 f7be 1d84 4f3e a5b9 2abf
000000e0: 9045 f6bc ec74 2ebe 16a6 1abf 7178 88bd
000000f0: 35d0 dcbe ede4 93be f66a debd 0524 a0be
00000100: 0d3b c3be 5d89 19bf 55ed 21be 4ce9 ffbe
00000110: 1ef2 fcbe e74b 0fbf 67b8 9bbe 5205 113e
00000120: e55b 0dbf 74a3 dcbe 123e 31bf 88a1 91bd
00000130: 9063 c2be 464b 0fbf 9922 21bf 7022 8bbe
00000140: 804a 33bf c791 5b3e 483e 5fbd 17f0 02be
00000150: 7416 34bf afe1 d23d 36e7 d2be c53c 53be
00000160: c708 88be 2096 03be 2beb 0cbe 0a98 4dbe
00000170: f6e5 b5be 4dee 65be 8ef7 e9be 73ea f7be
00000180: a8fd 30bf 3a83 05bf 3aa6 b9be ca4d eebe
-0.5147734 0.1581794 -0.149184 -0.07193368 -0.5430038 -0.48447433 -0.0652342 -0.16282289
-0.5200221 -0.46299618 -0.50882673 -0.69239074 -0.54812086 -0.5041286 -0.7692243 -0.0708299
-0.24747235 -0.33168477 0.1071098 -0.26559907 -0.39257738 -0.39638522 0.05648996 -0.43312594
-0.3523851 -0.29041374 -0.102226384 -0.5551333 -0.31057814 -0.3656488 -0.4381015 -0.23694928
-0.6306291 0.036152504 -0.65393406 0.00854532 -0.16761035 -0.048967835 -0.46306413 -0.6507464
-0.26678616 -0.5395176 -0.599271 -0.16880158 -0.48605692 -0.4800448 0.016983056 -0.41890344
-0.5273435 -0.63274306 -0.5700039 -0.2525216 0.047883913 -0.4834209 0.20265241 -0.6668952
-0.030062467 -0.1703679 -0.6040968 -0.066635974 -0.431276 -0.28885594 -0.10860245 -0.3127748
-0.3813099 -0.59975225 -0.15813191 -0.4998268 -0.4940347 -0.5597519 -0.30414125 0.14162186
-0.55218345 -0.43093455 -0.69235337 -0.07110888 -0.37966585 -0.55974233 -0.62943417 -0.2717471
-0.7003555 0.21442328 -0.054502755 -0.127869 -0.7034676 0.10296952 -0.41192025 -0.2062865
-0.26569197 -0.12850237 -0.13761584 -0.2007753 -0.3552701 -0.22454186 -0.45696682 -0.48421058
-0.6913705 -0.5215336 -0.36259633 -0.46543723

layer3.1.running_mean f4 [100]
00000000: 4ed3 3e3f c8f1 5a3f f4df fbbc 2f72 72bf
00000010: 85c4 8c3f 0ba2 073f 1f36 3d3f b101 f33d
00000020: 72f8 f0be bbc1 c0bf 62cd 3f3f 80db 9d3e
00000030: f61f 6bc0 f265 debd 349c 843f 5fd8 693f
00000040: de4a d2bc 69d8 263f 1343 22bf 9cf7 c0bd
00000050: a023 63c0 1f07 1d40 8249 4bc0 d777 5ac0
00000060: 3157 093f 77a8 943e 08fb 483f 6747 c53f
00000070: efe8 b8be 8ab0 6e3f 6574 6abe 7460 2abf
00000080: b77d ff3f 6100 82bf fb7a 163f f4c1 6fbf
00000090: f4d5 93bf bf71 bbbe d37d 55c0 0358 183f
000000a0: 02db a13f 418a a8bf 1d8a bc3e cca7 c3bf
000000b0: 928e 043f f7ab 3f3f acee 0040 0cfc c5bf
000000c0: 2b1b 40bf faf1 a43f 460c 943f 9e4e 243f
000000d0: 371a d23e f1be 8a3f 5576 ab3e 11fe f6be
000000e0: 52c2 58bf ac5a c3bf 9077 fcbd ca43 81be
000000f0: e3af b63f dad7 07bf 5610 76be bc47 33bf
00000100: 42d6 4dc0 aba0 673f 9b3a 23bf d2dc 4c3f
00000110: 5376 07bf 4689 ab37 c719 f13f b1e4 293e
00000120: 6135 d7bf 6511 863f 3193 a63f d7f2 0abf
00000130: 4bb1 8d3e d74f 483f f85d 8d3f 79e5 94bf
00000140: 4b3d f33f 098d 7b3f 2186 f03e 16d2 1cbf
00000150: af45 3d3f 9150 d03f e6f6 4dbf c818 98bd
00000160: c6d8 acbf bec7 1e3e 6daf e03f a4e7 acbf
00000170: f77b a13f dd2e 1e3f de2e 873f 967b 3ec0
00000180: b975 a93f 5ebb 93bf 1d85 3fc0 6116 8f3f
0.74541175 0.8552518 -0.030746438 -0.9470548 1.0997473 0.5298163 0.7391071 0.11865557
-0.4706455 -1.5059122 0.74922764 0.30831528 -3.6738257 -0.10859288 1.036017 0.9134578
-0.025670465 0.65173966 -0.633836 -0.09422228 -3.5490494 2.4535596 -3.1763616 -3.4135644
0.5364867 0.29034778 0.78508043 1.5412415 -0.36115214 0.9323813 -0.22895963 -0.66553426
1.996024 -1.0156366 0.58781403 -0.93655324 -1.1549668 -0.3661022 -3.3358047 0.59509295
1.2644961 -1.3167192 0.36824122 -1.5285583 0.51780045 0.7487177 2.0145674 -1.5467544
-0.75041455 1.2886345 1.1566246 0.6418246 0.41035625 1.0839521 0.33488718 -0.48240712
-0.8467151 -1.5262046 -0.12327492 -0.2524703 1.4272426 -0.5306374 -0.24029669 -0.7003133
-3.2162023 0.90479535 -0.637613 0.80024445 -0.52914923 2.0448711e-05 1.8835992 0.16591145
-1.6813165 1.0474058 1.3013669 -0.54276794 0.27674326 0.78246826 1.1044302 -1.163253
1.900308 0.9826208 0.46977332 -0.61258066 0.73934454 1.6274587 -0.8045486 -0.07426602
-1.3503654 0.15505883 1.7553536 -1.3508191 1.2615956 0.6179026 1.0561178 -2.976293
1.3239051 -1.1541555 -2.9924996 1.1178705

layer3.1.running_var f4 [100]
00000000: 6676 0641 c967 2141 032a be40 2649 1141
00000010: 1cdc 6441 3db1 8d40 db46 a541 9f5a c240
00000020: 9f8d 8141 4a63 9c40 50d2 c040 26ef fa40
00000030: eb57 ec40 7ef8 c040 1fda 5641 ab06 c840
00000040: ab42 1e41 13b6 e740 0fbb 9540 aab2 9440
00000050: 4699 2a41 0660 4441 e7b9 1d41 3955 1f41
00000060: 50fe b940 2976 0a41 7bc7 2e41 684d 5241
00000070: d142 0441 d228 9d41 ed61 ea40 1db5 d140
00000080: 859b 7d41 2e5c 1141 b5ba 8540 d280 da40
00000090: 6b48 da40 0f1e 0e41 0c79 b340 fa10 4141
000000a0: 7263 2d41 2d39 1241 4d2f f840 9893 1b41
000000b0: de0e be40 1f39 6f41 0d26 1741 2602 d040
000000c0: e76c ca40 c1fd a841 387b 0f41 b62d 5a41
000000d0: b3ba 4641 3337 7341 ab77 3f41 2719 5541
000000e0: 8957 ed40 d236 f540 b8a6 1d41 4d89 1541
000000f0: 6a69 0e41 ba62 dc40 f1be db40 6f63 2141
00000100: 4956 2841 5d83 7941 9c2d 2441 c49a b040
00000110: ca43 2041 5dde 0a41 2fcd 5841 1d20 0041
00000120: 1100 7241 7b29 1541 1c14 1c41 2022 3d41
00000130: f283 3641 8dba 2541 f402 8e40 d745 0c41
00000140: e094 7b41 ea11 1b41 ca10 2041 2f7a 2f41
00000150: 21ec 0241 019f ce40 915c bb40 a446 0a41
00000160: d891 fe40 549e b640 d4f6 1a41 3c3b 2c41
00000170: 8ea7 5b41 a10c 7941 fd03 0241 8004 4441
00000180: c910 1941 e875 4d41 dee1 cc40 97e2 4841
8.403906 10.087838 5.9426284 9.0803585 14.303738 4.4278855 20.659597 6.073562
16.19415 4.8871202 6.025673 7.841693 7.385732 6.0303335 13.428252 6.250814
9.891276 7.240976 4.6790843 4.6468096 10.66242 12.273443 9.857886 9.958306
5.812294 8.653848 10.923701 13.143898 8.266313 19.644932 7.324454 6.5533586
15.850469 9.085005 4.1790414 6.828225 6.82134 8.882339 5.608526 12.066645
10.836779 9.138959 7.755774 9.723534 5.939315 14.951446 9.44679 6.5002623
6.3257937 21.123903 8.967583 13.63616 12.420581 15.200976 11.966716 13.318641
7.4169354 7.662942 9.853203 9.346021 8.900736 6.8870516 6.8670583 10.086776
10.521066 15.594571 10.261135 5.5188923 10.01655 8.679288 13.550094 8.00784
15.125016 9.322627 9.7549095 11.820831 11.407213 10.358045 4.4378605 8.767051
15.723846 9.691874 10.004099 10.96733 8.182649 6.4569097 5.8550496 8.642246
7.955303 5.706827 9.685261 10.7644615 13.728407 15.565583 8.125974 12.251099
9.566598 12.841286 6.4025717 12.55532

layer4.0.weight f4 [200, 100, 1, 5]
00000000: 70ed 633e 599e ae3e 9e54 6fbe 04e8 febd
00000010: 22ff 84be d0c6 ecbc c8d3 9b3c 31bc 073d
00000020: 56f1 61bd a3f2 7d3a 19b3 b2bc a06b debc
00000030: 3ee6 40be a313 f13d b9da 8f3c 3a2b a4bd
00000040: 3aaa e6bb d938 c4bc ba89 833d 2988 473d
00000050: 00e7 de3d dea8 a7bd 27f4 9ebe b716 b5be
00000060: 352e 57be 6ff0 c2bd a99c 20bc 3ce9 8abc
00000070: 2a09 5bbe 0322 92be 3a9f 293e 2653 51be
00000080: 8782 87bd 18f6 08bd fa25 4fbe 0669 5b3d
00000090: 484b 3e3e d527 42bd 6ec2 9ebe 6627 0bbe
000000a0: 552d 04be 6abd 8c3c a8be bebd 6c35 1abe
000000b0: 99d5 57be 7e21 ba3d b8bf 95be 46ee 7fbe
000000c0: 0601 0d3c 669e d8bc 9cf2 26be 9b5c b43c
000000d0: d021 b8bd ab42 67be e4d4 0cbe aab0 b2bc
000000e0: 90d2 8e3e 1208 2cbe 7375 62be 253a 26be
000000f0: dc92 8c3d e1ea faba e4c5 193d 25f2 95bd
00000100: dcdc 2b3c efa4 763e 22a0 26be 8890 5c3d
00000110: 6b20 52be f7a7 acbe a537 2e3e f950 04be
00000120: e359 1dbe e145 8ebd c87a e1bd 1255 a8bd
00000130: cb2c 36bd 3f66 57be 6cdc cabe 7bf7 a1be
00000140: 8eb8 8f3d 9e76 94bd e649 3fbe b80a 2c3e
00000150: 1967 c63d 17fe d3bc be1f dd3b a95c d0bd
00000160: f9db 0fbe b6c2 cbbd 791a dcbd 6db1 3d3e
00000170: 37a5 2cbe 4a55 0abe 485f 73bd 1bf7 acbe
00000180: e984 9ebd 1a8b cebc 4bb6 48be 9e07 0ebd
00000190: 88a9 efbd 7098 ae3d ede6 a4bd 5df5 3cbe
000001a0: 0697 89be 7df3 583e babb 94bd c7e6 34be
000001b0: cf9b 5dbe b227 01be 0172 403d 14a9 afbd
000001c0: c4d9 07be 3533 5fbe 8750 46be a55a 56bd
000001d0: 7ff9 d43c 71d4 17bc 8986 68be 54e9 12bb
000001e0: 5442 143e 4131 8f3d f275 e93d 61e9 bebe
000001f0: cb3f 0ebe 8ee3 993e a868 ac3e 94b2 163b
00000200: 32dc 34be 970d 2f3e 185e 3e3e 8d6f 00bd
00000210: 0658 84be 8f1b 8cbe 88b6 d2bd 10c0 4d3e
00000220: 1e7b d53d 719f 3abc da21 43bd 15fc 563d
00000230: e42e 28be 21e1 443e c4c4 bebd 72bd 73be
00000240: 9195 69be 3c08 653e f776 3c3e 0412 debd
00000250: b902 68bd 49a1 24be 500f 723e fd42 083f
00000260: e2d8 bfbd 0555 31be 24b0 d4bd be4d e5bd
00000270: 2a8b 36be 1e95 33be 7da4 b93d 1994 11bd
00000280: e90d 943e 3647 143d afb0 13be e4a7 8cbe
00000290: 195c 3dbe 14fb 81be 332f 5cbd 85e5 2fbe
000002a0: d8aa 0fbe ebef 87be 9a48 893c 47fa 013d
000002b0: 173f 48be 2ba3 92bd 1dc4 53be 8aac e2bd
000002c0: b279 bd3c 92ec bdbd cc3d 91be 835f 0ebe
000002d0: 374f 85be ca58 9e3d d3f7 1dbe 6556 46bf
000002e0: b325 3bbe 9661 06bd 24bf 35be 46dc 85bd
000002f0: 8782 efbd 87f6 11bf b86a a7bd a900 2abd
00000300: 7175 a5bb bcde 84be 970d 47bd 2d08 35be
00000310: 623f acbd c536 5abe 13c7 2abe 6690 86be
00000320: 4476 e33e 3006 f13d f262 123c 6b95 04be
00000330: 5280 05bd a4dd a73d 2178 95be 904f 94be
00000340: bd7a b4bd 6c4e 60bd cab3 fa3e 6f7a 2a3e
00000350: 7af0 f7bd 64c7 e1bd 5d2b a7bd 44e2 a23e
00000360: daeb cbbd 0a0c a5bd 4ddf 953d 7801 56bd
00000370: f313 213a fc84 513e 2fa2 9a3c 4a9e c2be
00000380: 44d3 ecbd 08f0 77be 8f6a a83e d802 81bd
00000390: d344 a1be c1be 93be 8601 a03e 4196 79bd
000003a0: 078e 44bd a1ab ca3d 189c 9abd 73ae 87bd
000003b0: bd59 b13d b26c a4bd d62a debd 503e 51bd
000003c0: b7c0 4a3d c84d 34bb 88de 803d 190a 17be
000003d0: 9b37 9e3d 52c3 743e 4853 5f3d 3ab0 55be
000003e0: b71c 1bbe abbd 93be 7c85 a03e 7b80 203d
000003f0: 6a7c 403c cf6f 5bbe 8900 1abe 6e42 e43e
0.22258544 0.34105185 -0.23372123 -0.12446597 -0.259759 -0.028903395 0.019021884 0.033138458
-0.055161797 0.000968734 -0.021813916 -0.027150929 -0.1883783 0.117713235 0.01756035 -0.08016057
-0.0070393356 -0.023952888 0.06422754 0.048713837 0.108839035 -0.08186506 -0.31045648 -0.35368893
-0.2101372 -0.09518515 -0.009802976 -0.016956918 -0.21390215 -0.28541574 0.16564646 -0.20441875
-0.06616693 -0.03343782 -0.2022933 0.053566955 0.18583405 -0.047401268 -0.31007713 -0.13589248
-0.12907918 0.017180163 -0.093137085 -0.15059441 -0.21077575 0.090884194 -0.29247832 -0.24993238
0.008606201 -0.026442718 -0.16303486 0.022016814 -0.08990824 -0.22584026 -0.13753086 -0.021812756
0.2789502 -0.16799954 -0.22115116 -0.16233118 0.06863949 -0.0019143486 0.03754224 -0.07321576
0.010489669 0.24086355 -0.16272023 0.053848773 -0.20520179 -0.33721897 0.17013414 -0.12921514
-0.1536632 -0.06946922 -0.11009747 -0.08219351 -0.04447631 -0.21035098 -0.39621294 -0.31634125
0.07017623 -0.07249187 -0.18680534 0.16800964 0.09687633 -0.025877995 0.0067481687 -0.101739235
-0.14048757 -0.099492475 -0.10747237 0.18524714 -0.168599 -0.13509098 -0.05941704 -0.33782277
-0.07740194 -0.025212813 -0.19600789 -0.034675233 -0.117022574 0.08525169 -0.08051858 -0.18452974
-0.26873034 0.21186633 -0.072623685 -0.1766616 -0.21641468 -0.12612799 0.046983723 -0.08577171
-0.13266665 -0.21796878 -0.19366656 -0.05233254 0.025997875 -0.009266959 -0.22707571 -0.0022416906
0.14478427 0.06991816 0.113994494 -0.3728743 -0.13891523 0.30056423 0.33673596 0.0022994624
-0.17662123 0.17095028 0.18590581 -0.031356383 -0.25848407 -0.27364776 -0.10288721 0.20092797
0.10423873 -0.011390553 -0.047639705 0.052486498 -0.16424137 0.19226505 -0.09314874 -0.23802736
-0.22810961 0.22366422 0.18404756 -0.1084328 -0.05664322 -0.1607715 0.23638654 0.53227216
-0.09367539 -0.17317589 -0.10385159 -0.11196469 -0.17826524 -0.17537352 0.09064577 -0.035541628
0.28916863 0.036200725 -0.14422868 -0.2747184 -0.18492164 -0.2538687 -0.05375595 -0.17177399
-0.14030015 -0.2655023 0.016758252 0.031732824 -0.19555317 -0.07160028 -0.2068028 -0.110680655
0.023129318 -0.09273638 -0.2836746 -0.13903622 -0.26037 0.07731779 -0.15426569 -0.7747558
-0.182761 -0.03280791 -0.17748696 -0.065361544 -0.11694818 -0.57016796 -0.08174652 -0.041504536
-0.0050494005 -0.25951183 -0.048596945 -0.176789 -0.08410527 -0.21309955 -0.16677503 -0.26282042
0.44426167 0.11768758 0.008934723 -0.12947623 -0.03259308 0.081965715 -0.29193214 -0.2896695
-0.08812473 -0.05476229 0.48965293 0.16648267 -0.12106414 -0.11024359 -0.08162568 0.31813252
-0.099570945 -0.08058937 0.07317982 -0.052247494 0.0006144635 0.20460886 0.018876163 -0.3801139
-0.11563733 -0.24212658 0.32893798 -0.062993705 -0.3149782 -0.2885647 0.31251162 -0.06093431
-0.04798701 0.09896017 -0.07549304 -0.066250704 0.08659694 -0.080285445 -0.10848014 -0.051084816
0.049500193 -0.0027512182 0.062924445 -0.14749946 0.0772545 0.23902634 0.054522783 -0.20868006
-0.15147673 -0.28855643 0.3135184 0.03918503 0.011748413 -0.2142937 -0.15039267 0.44581932
