Lab2/deep_leakyrelu.pth (torch_old, 611560 bytes, 28 tensors)

layer1.0.weight f4 [25, 1, 1, 5]
000000 9d 83 4a bf c0 b9 b0 be e2 a2 7d 3f 0d e1 46 3f
       -0.79107076 -0.34516716 0.99076664 0.7768715
000010 45 4e 1c bf 50 c1 7a 3d 78 1d bb bd 62 c3 ec 3d
       -0.6105693 0.061219513 -0.0913648 0.11560704
000020 96 e9 4b 3e 35 79 80 be 06 5f 8b 3d c0 92 a1 be
       0.19913325 -0.25092474 0.06805234 -0.31557274
000030 98 59 86 3e bf 05 ae be d0 b3 1d 3e 12 b0 d4 be
       0.2624023 -0.3398876 0.15400624 -0.4154058
000040 f1 18 b9 be 27 96 8e be 7b 2b 38 bf bf 55 d9 3e
       -0.3615184 -0.27848932 -0.71941346 0.42448232
000050 41 8c 27 3e e7 9b cc 3e 1f 02 1e bf 0f 8f 1b bf
       0.16362096 0.39962694 -0.61721987 -0.60765165
000060 29 5b bd 3e 1a 74 63 3e f2 93 0a bf 1c f5 cf 3d
       0.36983612 0.22212258 -0.54131997 0.10154173
000070 c4 98 d9 3e 37 49 f3 3e 68 e3 27 3e 31 a9 2c 3e
       0.42499363 0.47516796 0.16395342 0.16861416
000080 8b 86 c1 be 55 02 3c 3f 40 b2 8b bd b5 67 97 bd
       -0.3779796 0.7344106 -0.06821108 -0.073928274
000090 4a 35 12 3e 1a 62 ff be c6 f1 a1 be f5 b2 1d 3f
       0.1427814 -0.49879533 -0.3162977 0.6160119
0000a0 68 c6 78 3d 8a 2f 5d 3e 5d 25 78 be 66 29 58 be
       0.06073609 0.21600166 -0.24233003 -0.21109542
0000b0 e5 d7 e1 3e 45 2d 71 3c 9b c3 e8 3e 8e 37 92 be
       0.44110027 0.014720266 0.45461735 -0.2855801
0000c0 85 c2 3e bd d6 57 15 3e 3b 19 15 bf 3f e0 71 3e
       -0.046572227 0.14584288 -0.58241624 0.236207
0000d0 04 11 09 be f7 44 ef be d4 00 30 3d 1b 61 cc 3e
       -0.13385397 -0.46732304 0.04296954 0.39917836
0000e0 11 a7 69 3e f5 c6 dc 3e ce e7 30 bd 1e ce 36 3e
       0.22817637 0.43120542 -0.043189816 0.17852065
0000f0 06 4c eb be ce 75 d3 3d 6a b1 c4 be 1b 59 eb be
       -0.4595644 0.10325204 -0.38416606 -0.4596642
000100 d3 97 52 3e 20 aa 77 3e d6 63 a6 bc 97 18 63 be
       0.20565729 0.24185991 -0.020311277 -0.22177349
000110 a9 1d 2a 3f 7e 63 28 bf a4 f3 65 3d 69 03 db 3c
       0.6645151 -0.65776813 0.056140557 0.026735025
000120 da 0c 60 be b8 db ed 3e 2f 0f 45 3e dc 90 53 bf
       -0.21879902 0.46456695 0.19244073 -0.8264291
000130 b8 a3 94 3e 27 92 3b 3f fb 11 96 be 0c 7a 33 bf
       0.29031157 0.73269886 -0.29310593 -0.70108104
000140 90 76 ce 3d 6a a0 1c bf 74 19 25 3f 9a b4 e0 3e
       0.10081208 -0.6118227 0.64491963 0.43887788
000150 34 46 10 bf 82 8b 05 bf bf ff 18 bf 64 ff 5e 3f
       -0.5635712 -0.52166 -0.5976524 0.87108445
000160 ca bf 42 3f fa 73 11 bf b3 de a9 be 09 f6 0b be
       0.76073897 -0.5681759 -0.3317772 -0.13668074
000170 b7 ad 73 3f 89 6a d3 3d ed 04 31 bf be d1 4d be
       0.9518694 0.10323054 -0.6914814 -0.20099542
000180 2f 8f 0f 3f e9 95 9e bc ca 31 35 bf 03 62 0a 3f
       0.56077856 -0.019358592 -0.707791 0.54055804
000190 21 c8 e7 be 5a e3 74 bd 63 df 06 3f db c2 17 3f
       -0.45269874 -0.05978713 0.5268461 0.592817
0001a0 e2 81 01 bf b2 dd c2 be df 9f 1e 3f 65 87 9d 3e
       -0.5058881 -0.38059765 0.61962694 0.3076736
0001b0 7b f5 81 be e3 bd 22 bf 85 91 15 bf 39 d8 a5 bc
       -0.253826 -0.63570994 -0.5842517 -0.020244705
0001c0 15 1a 83 3e 9f 4b 79 3e 2a c8 17 bf 89 f9 33 be
       0.25605837 0.24345253 -0.592898 -0.17575659
0001d0 3a e7 d5 3e cf 5d 97 3e b7 d8 c8 be 53 15 1d be
       0.41777974 0.29563758 -0.3922784 -0.15340166
0001e0 79 b5 be be 08 03 f2 bb 4a bd e6 3d e1 d7 4d 3e
       -0.37247828 -0.0073856153 0.11266573 0.20101883
0001f0 99 8f b1 be
       -0.3467987

layer1.0.bias f4 [25]
000000 bd 7d 78 3e 2b fa ef 3d 0e c9 4b be 65 2f ae be
       0.24266715 0.11717638 -0.19900915 -0.34020534
000010 d0 c4 82 be cd 68 a5 bc b5 49 ca be 75 65 61 bd
       -0.2554078 -0.020191574 -0.3950936 -0.055028398
000020 52 ca da bd 55 8a 46 3e 37 e4 ab 3e 7b 74 9f be
       -0.10683121 0.19388707 0.33572552 -0.31143555
000030 8c 95 a3 3e aa 25 91 be ec 68 42 3e 84 36 ec 3d
       0.31950033 -0.28349048 0.18985337 0.115338355
000040 4b 63 b7 be 4e 7d 0e 3e fe a0 27 3e 8c 95 ea 3e
       -0.35817942 0.13914987 0.16370007 0.4581722
000050 c7 51 d8 3e 02 d8 c0 be 01 88 60 bb 8e 98 d7 3e
       0.4224989 -0.376648 -0.0034260752 0.42108577
000060 7c 83 90 3e
       0.28225315

layer1.1.weight f4 [25, 25, 2, 1]
000000 6e aa 81 bf 4b 74 06 3c 5f e8 2c be 4a d9 80 bd
       -1.0130136 0.008206437 -0.16885518 -0.062914446
000010 e3 5d e5 3c 8b fe 9f bc bb 9a 3f 3e 66 d9 75 be
       0.02799887 -0.019530555 0.18711369 -0.24008712
000020 ac 63 bc 3e 79 3c dc bd 23 2f 29 be 24 26 fb 3d
       0.36794794 -0.10753722 -0.16521887 0.12263134
000030 04 b9 48 be 99 4c 36 3e 15 ec 52 3e cf cb e0 bc
       -0.19601828 0.17802657 0.2059787 -0.027440934
000040 03 d5 d6 3d fa 6a 88 bd 10 7b 0e 3d ae 7d 07 3e
       0.104898475 -0.06661029 0.03478533 0.13231537
000050 e6 ca 83 3e 29 2f 20 be 7c 13 3c be ad af 0c 3e
       0.25740737 -0.1564299 -0.18366808 0.1373889
000060 5b 27 63 3e 38 8f 36 be 94 af 61 be bd c1 41 3e
       0.22182982 -0.17828071 -0.22039634 0.18921562
000070 6e 2d 26 be ee 64 25 3e 21 a7 34 be d8 11 be bd
       -0.16228268 0.16151783 -0.1764188 -0.09280747
000080 b1 38 0b bf 47 69 31 3e fa 17 5a bf f1 34 72 3e
       -0.5438338 0.17325316 -0.85192835 0.23653008
000090 4d e4 1d bf a8 82 1d 3d e8 16 88 3d eb 24 ad bd
       -0.61676484 0.03845468 0.06644994 -0.08454307
0000a0 31 2d e1 be 3a cf a6 3d 7e 02 74 bd 10 f0 b3 3d
       -0.4397979 0.08144994 -0.05957269 0.08786023
0000b0 ce 69 3a 3d 55 84 fe bd fa c8 89 bd f5 a8 df 3c
       0.04551106 -0.12427584 -0.06727786 0.027302245
0000c0 99 8e 19 bd 1b ca e3 bd 70 15 11 be 37 f9 79 3d
       -0.037489507 -0.11122533 -0.14168334 0.061028685
0000d0 c5 fa 27 bd 4c e1 84 be f0 5e ca 3d 55 40 90 3e
       -0.041010637 -0.25953138 0.09881389 0.2817408
0000e0 86 cd 54 3e 47 15 ed 3e af e4 0b 3e e6 ef 6b 3e
       0.20781526 0.46305296 0.13661455 0.23040733
0000f0 8e 42 c3 be 16 0b 2a bc 6f 31 17 be 04 db 1f be
       -0.38136715 -0.01037862 -0.14764951 -0.15610892
000100 12 7a 19 3e c6 0f 79 3e 08 e7 16 3d 67 d6 03 be
       0.14987972 0.24322423 0.036841422 -0.12874757
000110 61 6f 7b 3e 6b 5e 05 bf 63 85 66 3e 34 b9 9f 3e
       0.24554206 -0.52097195 0.2251182 0.31195986
000120 81 ff b1 bc 84 dc 32 be e1 5d 25 3e f8 f8 b3 3e
       -0.02172828 -0.17466933 0.16149093 0.35150886
000130 fa a8 31 be e5 a4 ca be 09 b3 3a be 8b c6 b8 bd
       -0.17349616 -0.3957893 -0.18232359 -0.09022244
000140 9b 55 56 3e e0 de 71 3e 85 74 60 be 59 22 44 be
       0.20931093 0.23620176 -0.21919449 -0.19153728
000150 c9 0d b5 be e7 08 c1 3e 81 9b 5e 3e ce da 9b bc
       -0.3536208 0.37702104 0.21739008 -0.019025233
000160 58 ad bb bc 3c 71 b4 3d 8c 54 17 bd 24 9c 34 be
       -0.022909805 0.0881066 -0.036945865 -0.17637688
000170 8a 8c da 3e 6d d1 53 bc d9 ef 48 3d 82 51 80 3d
       0.42685348 -0.012928349 0.04905686 0.062655464
000180 43 e0 10 3e 40 4e ed 39 19 90 82 3e 74 aa 14 3d
       0.14148049 0.00045262463 0.25500563 0.03629537
000190 41 b5 1d 3e e0 cc 6a 3f ef 43 14 be 3c 69 35 3c
       0.15401174 0.91718864 -0.1447904 0.011072453
0001a0 54 cf 4f 3e cb 02 6e 3d 25 50 64 be 59 33 76 be
       0.20293933 0.058108132 -0.22296198 -0.24043025
0001b0 56 98 6f be 88 06 26 bf 8d 10 04 3f 99 eb b3 bc
       -0.23397955 -0.64853716 0.51587754 -0.021962928
0001c0 66 ac 9b bb a1 c2 d9 bc 45 07 6f 3e 4a f3 f6 be
       -0.004750776 -0.026582064 0.23342617 -0.4823249
0001d0 88 7d db 3d ff 5f 6a be dc 2e 21 3e da b1 d4 bd
       0.107173026 -0.22888182 0.15740532 -0.10385485
0001e0 2b e5 42 bd 4d ff 18 bd 10 1c 5b 3e e7 0f 06 3e
       -0.047581833 -0.03735285 0.21397424 0.13092004
0001f0 75 6f b4 bd ae 5e c4 be 71 18 6a be 94 aa be 3d
       -0.08810321 -0.38353485 -0.22860886 0.09309879
000200 02 d5 81 3e b7 92 83 3d 4e 17 2f be 88 00 ca 3e
       0.25357825 0.06424468 -0.17098734 0.3945353
000210 83 d3 e8 bd a7 84 e7 3e a3 24 7b 3c 1e 23 68 3f
       -0.11368468 0.45218393 0.015328559 0.90678585
000220 a5 5d 66 be b4 78 93 3f 58 48 83 3e ac 17 cb bd
       -0.2249666 1.1521211 0.2564113 -0.099166244
000230 9d 88 cb 3c 9d a2 71 3f 0b 58 d7 be 94 01 e6 3e
       0.024845416 0.94388753 -0.4205936 0.4492308
000240 1d 91 59 be 20 79 f0 3d 82 9d 6f 3d 9f a7 8a 3e
       -0.21246763 0.11741853 0.05849982 0.2708101
000250 47 cc 24 be 9b f0 df 3c 5e 5e 6b 3d 5f e6 08 3e
       -0.1609355 0.02733641 0.057463042 0.1336913
000260 e4 aa 52 be de 99 de 3c a3 0c 55 3e 6c 77 e6 bd
       -0.20573002 0.027172979 0.20805602 -0.11253247
000270 e8 79 1b 3f f0 7d cf be cf 48 ac 3e e4 90 a0 be
       0.6073289 -0.4052577 0.336493 -0.31360543
000280 bd 63 a3 be c2 33 dc 3e 06 c5 82 be 54 6f 43 3e
       -0.31912032 0.43008238 -0.25540942 0.19085437
000290 19 97 32 3e 76 82 8b bc e9 17 70 be 10 d2 5e 3e
       0.17440452 -0.017029982 -0.23446621 0.2175982
0002a0 ff 70 a4 be 26 7f 70 3e 50 e7 f5 3e b7 c1 b5 be
       -0.3211746 0.23486003 0.4802804 -0.35499355
0002b0 83 2c fc be 94 71 9e 3e 9e e9 cc 3e eb a4 49 be
       -0.4925271 0.30946028 0.40021986 -0.19691817
0002c0 4b b7 43 be 65 41 1b bc 1f a4 90 be 2c af a0 3e
       -0.1911289 -0.0094760405 -0.28250214 0.31383646
0002d0 a3 32 a1 3e b1 27 d8 be 3b de 39 be d8 88 48 3d
       0.31483945 -0.42217782 -0.1815118 0.04895863
0002e0 ab e5 6e 3d 7f bf 07 ba 4a 28 e9 bd c8 d9 0b bd
       0.058324497 -0.00051783765 -0.11384638 -0.03414324
0002f0 62 7d 01 bd 60 c6 07 3e 15 6e c2 bd 0e c0 6c 3d
       -0.031613715 0.13259268 -0.09493653 0.057800345
000300 1c 38 26 3e 7c 25 87 be ca 5e 8e 3e 63 a9 36 be
       0.16232342 -0.26395786 0.27806693 -0.17838053
000310 a0 8e 70 3d d9 5a de bd a3 a3 86 3e e2 98 ba bd
       0.058729768 -0.108571716 0.2629672 -0.09111191
000320 6e 69 34 3f de 3d 98 3d 2a 0b f5 3d 50 1f 33 be
       0.7047337 0.07433675 0.1196502 -0.17492414
000330 c8 67 12 bd 7f 7c 18 be c5 64 23 3d 67 f2 b9 bd
       -0.035743505 -0.14891241 0.039891023 -0.09079438
000340 c8 88 88 3d bd e0 49 3d 1a 6d 96 be 7f 0d 9f 3d
       0.06666714 0.049286593 -0.29380113 0.07766246
000350 4d 89 b9 bd 84 21 73 3d 9f a0 4d bd e7 33 db bc
       -0.09059391 0.059358135 -0.05020201 -0.026758147
000360 16 8e 1e be 3f c8 4e 3e 2e af 4c 3d 60 da 71 3e
       -0.15483889 0.20193575 0.049971752 0.2361846
000370 2b a7 d5 3d 8c 53 0b be 39 fc e4 bd 06 95 56 3e
       0.104322754 -0.1360609 -0.1118092 0.20955285
000380 dd 5f 1f 3e 12 35 19 be 90 cb 7c 3d a7 73 1c 3d
       0.15563913 -0.14961651 0.06171757 0.038196232
000390 20 c0 07 bd b0 fa 20 3e be 26 1d 3f 03 fb 86 3d
       -0.03314221 0.1572063 0.6138724 0.065908454
0003a0 23 0c dd 3d f8 95 4d be 94 cb 93 3e e5 3b 2c bd
       0.107933305 -0.2007674 0.28866255 -0.042049307
0003b0 a9 02 19 3f 1f 11 8e 3c e3 4a ff 3d ac df 0c 3e
       0.59769684 0.017342148 0.124654554 0.13757199
0003c0 81 9d 39 3e e8 c6 0b 3c 16 21 23 3f 63 6a 2a 3e
       0.18126489 0.00853131 0.6372236 0.16642146
0003d0 5a c3 97 3e 33 86 d9 bd 2e f8 83 3e 68 d4 d7 bd
       0.2964123 -0.106212996 0.25775284 -0.1053856
0003e0 06 83 ee 3d 42 06 7f bc cb 82 5a bd 5d c2 09 3f
       0.116460845 -0.015565457 -0.05334739 0.538122
0003f0 ee f9 71 bd 16 17 7c 3e ad 70 e3 3d fe 79 e0 bd
       -0.059076242 0.24618182 0.111054756 -0.10960768

layer1.1.bias f4 [25]
000000 6b a9 59 be 32 01 b9 3d 68 0f 69 bd 03 04 1c 3d
       -0.21256034 0.09033431 -0.05689946 0.038089763
000010 6e 37 75 bd e4 d5 4b 3d 61 f8 12 3e 38 1f 45 3c
       -0.059867315 0.04976453 0.14352562 0.012031369
000020 66 c4 9b bc 7b 45 ed bd a7 e9 a6 3d 7b e6 01 be
       -0.019014549 -0.11585518 0.081500344 -0.12685578
000030 44 06 8a 3d a3 50 11 bd f7 75 57 3d 66 45 b2 bc
       0.06739476 -0.03547729 0.052602734 -0.021761607
000040 3c df ba bd 26 72 fa 3c 6d a5 55 bd 2c 07 22 bd
       -0.0912461 0.030572008 -0.052159715 -0.03955762
000050 2f e5 95 bd 92 26 16 bd bf 87 30 be d0 31 07 bd
       -0.07319104 -0.036657877 -0.17239283 -0.03300649
000060 9a b6 93 bd
       -0.07212563

layer1.2.weight f4 [25]
000000 9c 7a 29 3f 29 ad 61 3f 55 c7 8c 3f a3 ea 8c 3f
       0.6620271 0.88154846 1.0998331 1.1009105
000010 0c fb 5c 3f 46 7f 81 3f 14 7d 92 3f 68 88 a4 3f
       0.8632057 1.0116966 1.1444421 1.2854128
000020 58 19 52 3f 2e 71 7e 3f e0 75 a6 3f be ef 5d 3f
       0.8206992 0.9939145 1.3004723 0.8669394
000030 37 cb 6f 3f aa bb 83 3f b4 bb 76 3f 5a b4 58 3f
       0.93669456 1.0291646 0.9638016 0.84650195
000040 a8 c8 89 3f 55 45 6e 3f 47 f8 7c 3f 55 97 3c 3f
       1.076436 0.9307454 0.9881634 0.73668414
000050 7c 37 98 3f b1 a7 3c 3f f4 4c bc 3f 22 6c 9a 3f
       1.1891932 0.73693377 1.4710984 1.206425
000060 5d 59 18 3f
       0.5951136

layer1.2.bias f4 [25]
000000 a8 75 81 bc 78 70 c0 be 8b 06 13 bf 99 f9 82 bf
       -0.015803173 -0.37585807 -0.5743186 -1.0232421
000010 e3 af 03 3c 9a cf 52 bf 39 67 91 be 8e 3b ea be
       0.00803754 -0.82348025 -0.28399065 -0.45748562
000020 b1 bc f3 bd e6 80 30 bf 59 9a 9c bf 37 06 77 bf
       -0.119012244 -0.68946683 -1.2234603 -0.9649386
000030 cf 58 80 be 85 29 fb be 0b 0f a2 bd e8 f8 03 bf
       -0.25067756 -0.49055114 -0.079130255 -0.51551676
000040 2b 81 a4 be e5 12 5c bf 7e 15 f6 be 99 b3 65 be
       -0.32129797 -0.8596633 -0.48063272 -0.22431792
000050 83 b7 6d bf 4a f4 1b bf cc 6d 89 bf 00 48 6b bf
       -0.9285814 -0.6091963 -1.0736632 -0.9190674
000060 05 22 fe 3d
       0.124088325

layer1.2.running_mean f4 [25]
000000 05 cb 46 bf a2 f0 e4 3e 5f e3 87 3f d4 00 7b 3e
       -0.77653533 0.44714838 1.0616263 0.24512035
000010 51 5e c2 3e 9f f8 a4 3e 95 da 32 3f 65 d8 2e 3e
       0.37962583 0.32220933 0.6986478 0.17074735
000020 64 3d de 3c 0a 61 4f bf 12 2a b9 be 18 18 c0 bd
       0.027128883 -0.81007445 -0.3616491 -0.093795955
000030 e0 89 47 3e df 33 b3 3f b6 5e 34 3f 0a 6e 0c 3f
       0.19486189 1.4000205 0.7045702 0.54855406
000040 c9 4b 90 3e 7d 22 72 be d6 5a 94 be 86 b0 01 be
       0.2818282 -0.23645969 -0.28975552 -0.12664995
000050 d1 7d 45 bf 84 df 53 3f 85 a3 bf bf 3d 9e f5 be
       -0.77145106 0.8276293 -1.4971777 -0.4797229
000060 cf 11 40 bf
       -0.75027174

layer1.2.running_var f4 [25]
000000 60 55 4f 43 85 f5 a4 43 17 61 03 44 cf a9 4d 43
       207.3335 329.91812 525.517 205.66331
000010 26 3b e9 42 39 f5 98 43 be be ef 43 f8 d9 f1 43
       116.615524 305.9158 479.49017 483.70288
000020 25 fe 9a 43 9e 45 0c 43 37 e7 e5 43 77 84 9a 43
       309.9855 140.27194 459.80637 309.03488
000030 a9 f9 86 43 11 84 6d 43 ca c3 8e 43 74 0c 46 43
       269.95047 237.51588 285.5296 198.04865
000040 6f ac ca 43 ca a9 7a 43 3b cc 63 43 a3 f2 f5 42
       405.34714 250.66324 227.79778 122.9739
000050 62 f9 00 44 eb ea 59 43 e6 07 09 44 11 49 66 43
       515.8966 217.91765 548.1234 230.28542
000060 3a b9 e8 42
       116.36177

layer2.0.weight f4 [50, 25, 1, 5]
000000 7c 46 2b be a1 e0 fb 3d af ff 0e bf 48 e9 f8 be
       -0.16726106 0.12298704 -0.5585889 -0.4861548
000010 1a cf 88 3c d4 03 cc be f7 a6 2a 3f 98 15 e5 3e
       0.016700316 -0.3984667 0.6666102 0.44743037
000020 66 c8 bc 3e 96 ea 46 3f d3 f7 4e bf 06 77 7b be
       0.36871642 0.777017 -0.808469 -0.24557123
000030 3f bf 4b be f3 26 36 bc 05 54 a1 bd 4d 16 e2 3e
       -0.19897173 -0.011117685 -0.078773536 0.4415764
000040 20 42 11 bf fc 2f 51 bf 2e 50 2e bf 7b ef 44 3e
       -0.56741524 -0.81713843 -0.68091094 0.1923198
000050 c9 be c7 be 3d 45 8f be 67 38 26 bf d1 b1 21 3e
       -0.39012745 -0.27982512 -0.64929813 0.15790488
000060 52 b8 11 bf 22 19 04 bf f9 bd 09 bf 27 bd 15 3e
       -0.56921875 -0.5160085 -0.538055 0.14622937
000070 6b 81 44 bd 28 86 a1 be eb ff 9e bf 6a da 0e bf
       -0.047974985 -0.31547666 -1.242185 -0.55802023
000080 0b ed da bb 71 85 95 be e4 05 46 be 77 38 19 bf
       -0.0066810898 -0.2920337 -0.19338185 -0.59851784
000090 a9 16 9a be 68 89 1e 3e f1 c2 50 bd 0b d5 f8 be
       -0.30095413 0.15482104 -0.05096716 -0.4860004
0000a0 58 b7 25 be 83 61 c8 3e ef 30 b5 be dc 67 bf 3e
       -0.16183221 0.39136896 -0.35388896 0.37383926
0000b0 f0 81 c1 bd 71 c0 fd be 43 b3 85 bf b2 a3 1c bf
       -0.09448612 -0.49560884 -1.0445331 -0.6118728
0000c0 45 bc 02 be f8 5c 78 3e d5 94 20 3f 13 5a 13 bf
       -0.12767132 0.24254215 0.627271 -0.5755932
0000d0 c0 ba c5 be 78 64 0c bf bf d6 a2 3f 73 e9 80 bd
       -0.3861904 -0.54840803 1.2721785 -0.06294527
0000e0 ed c1 07 bf bb 0d 84 be a8 24 7e 3c 82 16 ff be
       -0.5303028 -0.25791726 0.015511669 -0.4982186
0000f0 a0 53 01 bf e6 5a 6c bd 8c f0 f2 be 09 61 d7 3e
       -0.50518227 -0.057703875 -0.47449148 0.4206622
000100 a5 f1 22 3f 97 02 29 3f 68 ea 97 be 4a c0 7c be
       0.6364997 0.66019577 -0.29671025 -0.24682727
000110 dc c6 06 3d 27 81 14 3e 94 98 5f bf 95 f5 a4 be
       0.03290449 0.14502393 -0.8734219 -0.32218614
000120 a3 dc fb bd a7 47 c4 bd 09 ee 40 be 06 71 91 be
       -0.122979425 -0.09583979 -0.18840803 -0.28406543
000130 31 97 73 be 03 42 87 3e 8f 77 55 3e 3f bd d1 be
       -0.23788144 0.2641755 0.20846389 -0.40964696
000140 95 3b 84 bf 07 f6 93 bf 5b 24 0c 3f f8 31 4c 3d
       -1.0330683 -1.1559457 0.54742974 0.04985234
000150 fb 94 e6 3b 0c 63 2c 3e 95 6c 23 bd 0b 8b 24 bf
       0.007036803 0.16834658 -0.039898474 -0.6427466
000160 4d c9 1a be bc ea 5e 3e ab 86 12 bf bc 11 ad bd
       -0.15115853 0.21769232 -0.57236737 -0.08450648
000170 af b6 47 bf 61 68 d4 3d 44 54 07 be c4 ad b4 bd
       -0.7801313 0.10371471 -0.13215739 -0.08822206
000180 31 84 63 be 81 2c d8 be 1b ac d6 bd 03 e2 de 3d
       -0.22218396 -0.42221454 -0.10482045 0.10882952
000190 56 9d 71 3e d5 0f 28 be 02 26 6a 3e ad ca 57 3f
       0.23595175 -0.1641229 0.22866061 0.84293634
0001a0 37 c9 c3 3f 07 ca a7 3e 3b be a0 be 7b 94 d0 be
       1.5295781 0.32771322 -0.31395134 -0.40738282
0001b0 d9 6a c6 3d cb 3e a6 3e da be f1 bd ef c1 1d bd
       0.09688348 0.32469782 -0.1180398 -0.038515028
0001c0 70 f5 07 be 79 80 45 be c9 26 a8 be 4c cc 45 3e
       -0.1327722 -0.1928729 -0.3284209 0.19316214
0001d0 5e 43 6a be a6 ce 89 be 3d 70 89 be dd 2d d4 3e
       -0.22877261 -0.26915473 -0.26843444 0.4144124
0001e0 84 a6 a2 3e 7f e3 05 bf 06 08 b3 be 58 2b 1b bf
       0.31767666 -0.52300256 -0.3496706 -0.6061301
0001f0 8c 73 54 be 83 5e 09 be 25 ba b7 bd e6 c8 08 3e
       -0.20747203 -0.1341496 -0.08971051 0.13357887
000200 22 cd 4c bd 0a 88 b4 3d ed 73 30 be 02 48 a5 3e
       -0.050000317 0.0881501 -0.17231722 0.322815
000210 d2 df db be 51 50 87 be c8 09 c2 3e a3 0a 13 bf
       -0.429442 -0.26428464 0.37898088 -0.57438105
000220 56 2f 84 be 4c 66 c3 3e 83 a7 cd be 01 5d a2 bf
       -0.25817364 0.38163984 -0.40166864 -1.2684633
000230 0b 71 19 bf e5 8d 8a be 47 91 cc be ef 86 13 3e
       -0.59938115 -0.27061382 -0.39954588 0.14406942
000240 e3 15 54 3e 70 07 1d be b9 fe 02 3f 7d 4a df be
       0.20711474 -0.15334868 0.51169926 -0.43611518
000250 d7 c5 a3 3e 70 b9 10 be 04 8d ab bd 32 21 89 be
       0.31986877 -0.14133239 -0.08376506 -0.2678314
000260 c9 3f ab 3e cf 1e 55 be a6 64 77 be e5 80 bf bf
       0.33447102 -0.20812534 -0.24159488 -1.496121
000270 83 e4 ca be 5d 40 51 3d 81 68 e9 be 28 fd 7a bf
       -0.39627466 0.051086772 -0.45587543 -0.98042536
000280 09 85 4f bf 19 9c 43 bf 44 b7 c1 bc 22 b4 91 ba
       -0.8106237 -0.7641006 -0.023646958 -0.0011116306
000290 f9 a8 75 bf 41 bc 92 3e e6 20 29 be bd 07 dd bc
       -0.95960957 0.2865925 -0.16516456 -0.026981229
0002a0 d5 79 9f 3e 92 7e 51 be 22 dc 6d bf 0c d6 00 be
       0.31147638 -0.20458439 -0.9291402 -0.12581652
0002b0 c2 09 1a 3f 93 d4 01 bf 99 8c ea be 7e 5c 2a bf
       0.6017114 -0.5071499 -0.45810392 -0.6654738
0002c0 25 e4 aa be f3 c7 0c 3f a3 ec c4 bd e2 03 b8 be
       -0.33377185 0.549926 -0.09615447 -0.35940462
0002d0 e3 02 34 be 28 4a 06 3e f5 cf 8b 3e fc 36 5a bc
       -0.17579226 0.13114226 0.27307096 -0.013318773
0002e0 40 80 18 bf 43 a2 49 be b3 00 86 3e ba 8c 8d be
       -0.59570694 -0.19690804 0.26172408 -0.27646428
0002f0 f0 db 29 3e 82 d1 35 3c 7a 5a 1a 3e 5b 73 99 3e
       0.16587806 0.011097314 0.15073577 0.29970822
000300 bd 67 89 be f3 15 54 3f d6 bc 58 3e e8 92 b2 bf
       -0.2683696 0.8284599 0.21165785 -1.3951082
000310 63 82 7c be fa 8e 0f bd 19 4e d0 be 89 44 31 bf
       -0.24659114 -0.035048462 -0.40684584 -0.692452
000320 b2 c2 eb 3d 82 4a af bd fa b7 5c 3e 42 01 0d 3e
       0.115117446 -0.08559133 0.21554556 0.13770011
000330 df a0 a1 bc 66 57 78 bf 92 aa 38 be ae b3 17 3f
       -0.01973003 -0.9700836 -0.18033817 0.59258544
000340 e3 ad ef be 45 ce cc be bc 13 4b bf 20 9a 69 3d
       -0.46812353 -0.4000112 -0.7932699 0.05703175
000350 bb 1d 13 3f 11 11 97 3d b8 26 b9 be c5 da cd be
       0.5746724 0.07376302 -0.36162353 -0.4020597
000360 5d 3b bd 3e 9b f9 b3 3e 41 fb 23 3e b3 45 01 be
       0.36959353 0.3515137 0.16013815 -0.12624244
000370 af ba 6a be f9 2d 62 3e 9d f1 5b be 47 ef 45 3e
       -0.22922777 0.2208785 -0.21478887 0.19329558
000380 b8 57 a4 be 4b 24 f8 bc 93 91 9a 3d 23 32 49 3e
       -0.32098174 -0.030290743 0.07547297 0.19648032
000390 a0 e4 a8 3e cd 6a 25 be cf 39 ec be 39 47 a7 3e
       0.32986927 -0.16154023 -0.46137854 0.32671526
0003a0 61 1e 47 be ec 92 9d 3e b1 a4 86 be ea da 82 3e
       -0.19445182 0.30776155 -0.26297525 0.25557643
0003b0 8e c5 a3 be f5 3e e9 bd f8 e9 de bd 74 3b 4f 3e
       -0.3198666 -0.11388961 -0.1088447 0.20237523
0003c0 0d 9f b6 be fc ef 6b be 4a bf 03 bf cb 96 eb 3d
       -0.3566822 -0.23040766 -0.5146376 0.11503371
0003d0 91 8b a0 3e dd 30 9c 3d 8a 0e 5e be 7b 74 8a 3e
       0.3135648 0.076265074 -0.21685234 0.27041993
0003e0 3f 44 1f bd 0f c6 cb 3e ea e3 f5 3d a4 57 f1 bc
       -0.038883444 0.39799544 0.12006362 -0.029460736
0003f0 92 bd ae 39 26 15 ef bd 1e d1 f8 bd 27 ef 3f 3e
       0.00033329107 -0.116739556 -0.12149261 0.18743573

layer2.0.bias f4 [50]
000000 bf 54 fa 3c ad 59 c6 3c 05 89 90 3d c9 78 7d bd
       0.030557988 0.024212683 0.070573844 -0.061882768
000010 73 5c e6 3d 87 09 86 bd 09 3f d7 bc f8 78 06 be
       0.11248102 -0.06544786 -0.026275175 -0.13132083
000020 1e 0b 3e 3c b8 77 63 bd 7d a2 8f 3d 3e 46 1a bd
       0.01159933 -0.055534095 0.07013414 -0.037664644
000030 b6 dc 7c bc 22 0c 1a 3e 1f cf 67 3d d1 81 91 3c
       -0.015433481 0.15043691 0.05659401 0.017762097
000040 39 3d db bd 5c ea 80 bd 40 54 13 be ce e0 8c bd
       -0.10705037 -0.062947005 -0.14387608 -0.068788156
000050 7f ac 76 bd a2 84 d0 3c c3 ad d7 bd ba 76 9e 3b
       -0.0602231 0.02545387 -0.10531189 0.0048359307
000060 ba 55 36 3e de e0 75 3d 21 8c a2 bd d6 c4 0f 3d
       0.1780614 0.060028903 -0.07936884 0.035099827
000070 9f 8a ce 3d f3 f0 cf 3d d6 c3 cf bd 13 4d a9 3c
       0.100850336 0.10153379 -0.101447746 0.020666635
000080 8a a3 d8 bc d2 35 ec 3b 40 e3 02 bd c0 65 cc bd
       -0.026445169 0.0072085643 -0.031955004 -0.09980345
000090 78 65 25 bd 65 8d 88 bc 46 22 0c bd 4d ba 01 3d
       -0.04037997 -0.016668985 -0.034212373 0.03167181
0000a0 58 0a ab 3d 26 81 f9 3d d8 6c bd 3d fc 35 00 3c
       0.08351582 0.12182836 0.09249276 0.007825371
0000b0 5c 94 09 3e 46 26 e9 3d 70 c3 4b 3d e5 64 3f 3c
       0.13435501 0.11384253 0.04974693 0.01168177
0000c0 7e ba f2 3b e0 28 aa bd
       0.0074074855 -0.083085775

layer2.1.weight f4 [50]
000000 ae 47 a3 3f e1 e0 c3 3f a8 4f 13 3f 00 23 f2 3e
       1.275625 1.5303003 0.5754342 0.47292328
000010 c3 13 99 3f d7 e0 6d 3f b1 bb a5 3f ab f7 5e 3f
       1.1959156 0.92921203 1.2947904 0.8709666
000020 72 82 b5 3f 80 82 6c 3f 4a 10 b3 3f 7f ec d2 3f
       1.4180434 0.9238663 1.3989346 1.6478423
000030 ef 0e a4 3f e6 1c df 3e 2d 15 97 3f 58 7c 04 3f
       1.2817057 0.43576735 1.1803337 0.51752234
000040 ac 6e b3 3f a6 0e 48 3f 2f eb 72 3f 43 eb 56 3f
       1.4018149 0.7814735 0.9489011 0.8395273
000050 2a 0e 2d 3f 5c 41 8e 3f f7 4a b2 3f ad a6 99 3f
       0.6759974 1.1113696 1.3929127 1.200399
000060 c3 bf 34 3f ef f2 5a 3f 92 45 9e 3f e7 47 6f 3f
       0.70605105 0.8552694 1.2364981 0.9346909
000070 6b 3c 86 3f e5 62 81 3f d4 b8 82 3f e8 e2 5e 3f
       1.0487188 1.0108305 1.0212655 0.8706498
000080 5b 11 5b 3f 9f dc 82 3f 03 ba 55 3f b4 f1 e0 3e
       0.8557336 1.0223578 0.83486956 0.43934405
000090 b9 da a9 3f 4b 9d 28 3f 17 37 c1 3f ae 69 b0 3f
       1.3269874 0.6586501 1.5094937 1.3782251
0000a0 84 7e ab 3f 9e 31 85 3f 25 85 4e 3f cf 63 a2 3f
       1.3397985 1.0405767 0.8067191 1.2686709
0000b0 9b 26 75 3f 21 ae 3e 3f 6d 39 4b 3f 1c 08 9e 3f
       0.9576203 0.7448445 0.793845 1.2346225
0000c0 f8 9e 57 3f 14 24 4c 3f
       0.8422694 0.7974255

layer2.1.bias f4 [50]
000000 6d 98 53 bf 28 b8 33 bf 15 79 36 bf 59 41 1a bf
       -0.8265446 -0.70202875 -0.71278507 -0.6025596
000010 41 9d 11 bf 8a 24 db be df d0 51 bf 94 11 da be
       -0.56880575 -0.42801315 -0.81959337 -0.42591536
000020 a2 9d 04 bf ad 5d 59 be 96 32 19 bf 77 ac 80 bf
       -0.5180303 -0.2122714 -0.59842813 -1.0052632
000030 f3 42 63 bf be 01 a3 be 88 fe 46 bf 25 72 08 bf
       -0.8877403 -0.31837267 -0.77732134 -0.5329917
000040 8a a4 53 bf e7 20 9f be 60 8f ac be 64 6a 95 be
       -0.8267294 -0.3107979 -0.33703136 -0.29182732
000050 7d ab 1a bf cb cc 44 bf 58 75 4e bf 1c f5 e2 be
       -0.6041792 -0.7687499 -0.806478 -0.4432763
000060 90 52 0b be 01 f4 df be eb a7 2c bf 02 6d d4 be
       -0.13605714 -0.43740848 -0.6744372 -0.41489416
000070 cc 5b 4a be ee a3 1c bf 12 ec ff be c2 27 09 bf
       -0.1976158 -0.61187637 -0.49984795 -0.5357629
000080 52 f4 6e be ef 43 9c be ba f2 c3 be 0c 63 f1 be
       -0.23335388 -0.3052058 -0.38271123 -0.4714588
000090 44 59 06 bf 91 2c 29 bf 1f 6c 52 bf 34 0f 3e bf
       -0.5247996 -0.6608363 -0.8219623 -0.7424195
0000a0 0f 43 ae be 78 12 f5 be a1 d1 ac bd 8b 5f 32 bf
       -0.34035537 -0.47865653 -0.08438421 -0.69677037
0000b0 a6 00 cd be c9 b2 1f bf 75 86 e0 be 05 e9 b0 be
       -0.40039557 -0.6238218 -0.43852583 -0.3455278
0000c0 79 d6 25 bf 6b 6d bb be
       -0.64780384 -0.36606917

layer2.1.running_mean f4 [50]
000000 7c b6 b6 c0 3b 1f a0 c0 c7 18 c4 3d 07 ac f6 3e
       -5.709776 -5.0038123 0.095750384 0.4817812
000010 a0 bf 60 c0 a2 b0 4c c0 16 82 20 c0 f3 54 4c c0
       -3.5116959 -3.1982808 -2.5079398 -3.192685
000020 35 67 af bf b4 4e 25 c0 33 e4 66 c0 f1 ed 8e c0
       -1.3703371 -2.5829287 -3.6076782 -4.4665456
000030 a1 e4 4c c0 e4 f0 c3 3d 45 4d 15 3f b3 e9 89 3e
       -3.2014544 0.095674306 0.5832103 0.2693611
000040 52 7a 6f c0 ef 1e a5 bf 07 3e 5d 3d d2 99 3a bf
       -3.7418408 -1.2900065 0.054014232 -0.7289096
000050 bd c6 6b bf d9 ae 41 c0 ba e2 a1 c0 61 37 a3 bf
       -0.92100126 -3.0262969 -5.0589266 -1.2751275
000060 8e 3a 0a bf 87 b0 20 c0 1f 3c 84 c0 f5 02 ab bf
       -0.539956 -2.5107744 -4.132339 -1.3360277
000070 77 f8 3c c0 b7 a2 85 c0 40 13 a7 bf 9d 5a 75 3f
       -2.952665 -4.1761127 -1.305275 0.9584139
000080 a4 cc 0e c0 69 4b f1 bf 8a fc ca bf 29 14 9a be
       -2.2312403 -1.8851138 -1.5858319 -0.30093506
000090 5f 43 5e c0 bf fd 89 be d5 88 c2 bf ba d9 5d c0
       -3.472862 -0.26951405 -1.5198008 -3.466414
0000a0 ae 22 2e c0 f4 8b 44 3f 08 bb 1f c0 64 ad 8c c0
       -2.7208667 0.7677605 -2.4957905 -4.396166
0000b0 82 d3 d5 bf 1f f8 64 3f 89 65 c0 bf 6e ae c6 bf
       -1.6705172 0.894411 -1.5030986 -1.5521982
0000c0 2c 53 74 3f b3 b4 d4 bf
       0.9543941 -1.6617645

layer2.1.running_var f4 [50]
000000 82 a9 dc 41 38 51 09 42 68 d8 66 40 77 dd 82 40
       27.582767 34.329315 3.6069584 4.0895343
000010 6a 2d d3 41 dc cf 43 41 d9 3a 9a 41 e2 70 0f 41
       26.397175 12.238247 19.278734 8.965059
000020 0c a3 92 41 d5 02 5c 41 63 c1 aa 41 de 2a 03 42
       18.329613 13.750691 21.344427 32.791862
000030 b8 7d e2 41 29 8e b8 40 f9 26 b4 41 8b c9 ec 40
       28.311386 5.7673535 22.51903 7.3996024
000040 96 e7 72 41 1d 38 3b 41 9f 89 51 41 87 82 18 41
       15.18154 11.7012 13.096099 9.531867
000050 e8 35 0f 41 9c dc ab 41 8b 19 b6 41 50 1d ac 41
       8.950661 21.48272 22.762472 21.514313
000060 90 c1 19 41 fd c2 25 41 a5 d9 7e 41 9d 52 2b 41
       9.609756 10.360105 15.928136 10.707669
000070 30 73 9f 41 4a b0 91 41 7b 29 2a 41 62 70 0e 41
       19.931244 18.211079 10.635127 8.902437
000080 39 45 6e 41 0b 7c 32 41 cd 1b 15 41 11 43 a5 40
       14.8919 11.155284 9.319287 5.164437
000090 80 36 ab 41 3a 80 2c 41 2c e6 7c 41 39 04 ab 41
       21.401611 10.781305 15.806194 21.377062
0000a0 ae 11 9e 41 74 31 a1 41 d3 68 27 41 8f d0 d6 41
       19.758633 20.149147 10.463092 26.851835
0000b0 12 db d8 40 db 70 08 41 8a f9 05 41 2c 9f 85 41
       6.776742 8.527553 8.373423 16.70272
0000c0 ab f4 2f 41 79 af 02 41
       10.997233 8.16784

layer3.0.weight f4 [100, 50, 1, 5]
000000 87 b4 1e 3f b3 b6 e4 3e 48 ce d6 3b 49 f3 40 3f
       0.6199421 0.44670638 0.0065553524 0.75371224
000010 8f 97 8c 3e b3 41 a3 bc 39 f7 b5 3e b1 7d 6b 3e
       0.2745938 -0.019928789 0.35540178 0.22997166
000020 51 bc 74 3e f7 4f 39 3e 74 ef fb bc 98 d6 a6 3d
       0.23899962 0.1809691 -0.030753829 0.08146399
000030 dc bf 57 bd 38 46 c4 3c fc f4 10 be 70 fe da 3c
       -0.052673206 0.023959264 -0.14155954 0.026732653
000040 81 0e 9a bd 53 f4 5a bd 09 4c 5a be 44 dc 82 bb
       -0.07522298 -0.053455662 -0.21318068 -0.003993543
000050 e1 46 ed 3e 1c 49 df bd 83 f4 73 3e ba 11 78 3d
       0.4634314 -0.109026164 0.23823743 0.06056378
000060 97 d7 a1 bc 75 e9 a9 3e b7 b0 b1 3d 04 56 38 3e
       -0.019756122 0.33185926 0.08676284 0.18001562
000070 48 d0 59 bb e6 11 0e 3e ad 1f a9 3e 04 12 77 3e
       -0.0033235718 0.13874015 0.3303198 0.24127966
000080 e2 d9 c2 3c d1 e9 5d 3e 5c 53 f3 bd 8b 2d 84 3e
       0.023785535 0.21671225 -0.11881134 0.25815997
000090 a9 53 4b 3e 1b 05 46 3d 39 1c 04 3e 25 ae 44 3d
       0.19856133 0.048344713 0.12901391 0.04801764
0000a0 60 0d 0d 3f af 64 69 3e d1 e9 59 3d 35 a5 85 be
       0.55098534 0.22792314 0.0532015 -0.26102605
0000b0 3a 7b a5 3d 07 a7 55 3e 68 54 63 3e e2 fb 94 3e
       0.08080144 0.20864497 0.22200167 0.2909842
0000c0 85 98 ed 3e f6 b2 c5 3d 53 b0 80 3e b3 15 79 3e
       0.46405426 0.09653275 0.25134525 0.24324684
0000d0 73 0a 02 3e c8 a7 93 3e 29 85 a3 be 3c 4f b0 be
       0.12699299 0.28838944 -0.3193753 -0.3443545
0000e0 a5 cb 91 be 19 c6 23 be 07 ec d2 bd 38 e3 c9 be
       -0.2847568 -0.15993537 -0.10298925 -0.39431167
0000f0 83 45 7d 3e 4e d8 f7 3e ba 49 1e 3d c8 19 e4 bc
       0.24733548 0.48407215 0.03864453 -0.027844325
000100 fb ef 7a 3e ca 25 1f 3c cd 6e 51 bc 64 ae d7 3c
       0.24505608 0.009713599 -0.012782765 0.026328273
000110 37 ba 09 3e a1 6e a1 bd 3f a8 06 3f 1c 0a 9f 3e
       0.13449942 -0.07882429 0.52600473 0.310624
000120 66 f3 e5 3e f2 01 ca 3e b7 75 07 3f 58 4f 5e 3d
       0.4491226 0.3945461 0.52913994 0.054274887
000130 0f 5a 88 bb 2a 33 04 be 16 e4 40 3e a0 87 20 3b
       -0.0041611264 -0.12910143 0.18837008 0.0024494901
000140 54 2b f4 3e 2f 0e c7 3e 9a 05 1c 3e 8a a0 12 bc
       0.47689307 0.3887801 0.15236512 -0.008949408
000150 85 05 2d bd 68 15 d8 3d 90 06 1e 3e 00 32 09 3d
       -0.042241592 0.10550958 0.15432191 0.03349495
000160 80 45 91 3e db 0c a0 3d 50 0e 46 bd 97 12 88 bd
       0.28373337 0.07814952 -0.048353493 -0.06644171
000170 ec de 81 bd 65 44 b2 3c 9d 17 5e be 2a c6 82 3c
       -0.06341347 0.021761129 -0.21688695 0.015963633
000180 23 ee c6 bc 27 e1 32 3d 2c 0c cf 3d 53 46 f0 bd
       -0.024283474 0.043671753 0.101097435 -0.11732163
000190 79 88 19 3d c8 86 db 3d 30 ca 29 3d 50 2e 97 3d
       0.037483666 0.10719067 0.041452587 0.0738188
0001a0 2f 01 f1 bd a4 4f fb 3e 83 d8 81 3e 85 1a 86 bd
       -0.11767804 0.49084198 0.25360498 -0.06548027
0001b0 5d 2b 4d be f3 17 11 3c a2 7c 8a 3e ca fe 9a bd
       -0.20036073 0.008855808 0.27048212 -0.075681284
0001c0 97 9d 28 be 60 09 ff bc f8 fa ea 3d 22 b7 4a 3e
       -0.16466366 -0.0311324 0.1147365 0.19796422
0001d0 df 61 08 bc f6 a4 f4 3d 17 21 75 3e 24 24 0b 3e
       -0.008324116 0.11945526 0.23938404 0.13588005
0001e0 61 8e 40 be c2 51 de 3d 3c 26 88 3b e6 f4 8c bc
       -0.18804313 0.10855438 0.0041549485 -0.01720662
0001f0 58 0b 19 3c a5 84 a0 3e a0 b3 35 3e b7 85 46 3e
       0.0093410835 0.313512 0.17744303 0.19386946
000200 c2 83 6f 3e 93 a9 06 3f d5 bf 1c 3e 9b aa 1e 3e
       0.23390105 0.526025 0.15307553 0.15494768
000210 0e 12 c9 3b 00 77 d2 3d a2 d4 48 be e5 55 8e 3e
       0.0061361855 0.10276604 -0.19612363 0.27799907
000220 8a e5 1b 3d 70 cf 2b 3e f7 80 61 be 67 0b 17 bd
       0.038060702 0.1677835 -0.22021852 -0.03687611
000230 fc 04 6f 3e b4 6a af 3e 91 92 86 3d 53 95 a3 3d
       0.23341745 0.34261096 0.06570924 0.07987466
000240 85 bf 00 3f 42 ce 95 bd b6 82 d4 3d 5f c0 a6 bb
       0.50292236 -0.07314731 0.10376494 -0.0050888504
000250 72 05 b8 3c 0c 3d 1e 3d 42 af 13 3e 40 fa 94 3e
       0.022463534 0.038632438 0.14422324 0.29097176
000260 b8 a9 6c be 59 8e 3b 3e 65 de 68 3d 79 02 c4 bd
       -0.23111618 0.1831602 0.056852717 -0.09570784
000270 ae 5a 23 be 09 02 91 be 7a 66 07 be 6f f5 8e be
       -0.1595256 -0.28321865 -0.13222685 -0.27921626
000280 22 41 ba 3d 91 48 18 3e ef ca 37 be d8 1d 54 3e
       0.09094454 0.14871432 -0.17948507 0.2071451
000290 bd 2d aa 3e 02 2c 52 3e e5 52 c8 bd 2d 18 17 be
       0.3323802 0.205246 -0.09781436 -0.14755316
0002a0 f8 d6 1e bd 7a b8 8d 3e 26 29 1d 3d c6 fe b7 3d
       -0.03877923 0.27679807 0.03836932 0.08984141
0002b0 01 3f 98 3d 54 de a9 3d d0 7f 34 bd b0 23 2a bc
       0.07433892 0.08294359 -0.044067204 -0.010384485
0002c0 aa 5a 5d bd ee aa 57 bd 7f af ce bb 6a d2 71 3c
       -0.054041542 -0.052653246 -0.006307542 0.014759639
0002d0 c1 64 1a 3e b7 65 9a 3e e9 28 38 3e a7 85 9f 3e
       0.15077497 0.30155727 0.17984356 0.31156656
0002e0 1b 75 fe 3d e3 3f ed 3d 81 f3 c3 3d af 81 3f 3d
       0.1242468 0.11584451 0.09567929 0.046754535
0002f0 aa 28 4f 3e c9 b4 1c 3e e5 2c da 3e ab 4f d6 3e
       0.20230356 0.15303339 0.42612377 0.41857657
000300 5e 5d 4c 3d a3 40 63 3e bd 37 95 3d 5a 34 d0 3e
       0.04989373 0.22192626 0.07286022 0.4066494
000310 3d ae 13 3f 82 6f b8 bd d1 18 40 be c9 e9 49 3e
       0.5768774 -0.090056434 -0.18759467 0.19718088
000320 b5 12 c1 3e 58 c6 ce bc f3 40 2e be bf bc a8 3e
       0.37709585 -0.025241062 -0.17016964 0.32956502
000330 a4 b8 56 3d 3a de d6 bd 39 60 1a 3e 5a 4b c7 bc
       0.05242218 -0.10491605 0.15075769 -0.024327923
000340 b1 a2 90 be dc 5c 90 3d 60 9c e3 3e 50 4a 18 3d
       -0.28249124 0.070489615 0.44455242 0.037180245
000350 fa d1 86 3e ee cc 12 3d bc ce 5f 3e ae 73 42 3e
       0.26332074 0.035839967 0.21856207 0.18989441
000360 bc 71 50 3e 1d 79 d7 3e 5c e7 80 3e 99 34 89 3e
       0.20355886 0.4208459 0.25176513 0.2679794
000370 df df 9b 3e b4 79 28 be 12 68 93 bc df 64 d1 3d
       0.30444238 -0.16452676 -0.01799396 0.10224318
000380 da e5 d7 3e c1 da 71 3e e8 ba 8c 3d 94 ea e1 3c
       0.4216755 0.23618604 0.06871587 0.027577676
000390 10 b2 ba bd e6 80 4f 3e d8 7d 92 3d 19 86 0a 3e
       -0.09115994 0.20264015 0.07152909 0.13527717
0003a0 30 35 5b be fb 33 07 3e 89 74 23 3e ae 10 1b 3e
       -0.21407008 0.13203423 0.15962423 0.15143082
0003b0 73 e1 91 be 6f f1 7e 3e c6 f4 fd 3e 3c bf af 3d
       -0.28492317 0.24896787 0.4960081 0.08581397
0003c0 a3 08 3d be 6c 41 26 be 0e 39 92 bd 61 4a 43 be
       -0.18460326 -0.16235894 -0.071397886 -0.19071342
0003d0 98 5c a6 bd c2 c6 94 3e f5 d4 9f 3d e1 48 ce 3d
       -0.081231296 0.2905789 0.0780429 0.10072494
0003e0 b1 2a 06 ba 0e b0 42 bc fb f5 a2 3e 85 db eb bd
       -0.0005118056 -0.011882795 0.31828293 -0.115164794
0003f0 33 0c bc be 52 09 03 bf 48 88 2e 3e bf c2 e6 be
       -0.36728057 -0.51186097 0.17044175 -0.45070454

layer3.0.bias f4 [100]
000000 97 f3 f5 bc 41 e1 4f 3c 17 6a 58 3d 15 be 55 3d
       -0.03002338 0.012687982 0.05283555 0.05218323
000010 ee 4e cc bc 25 bc 50 bd 06 cd dc 3c 69 a4 c1 3c
       -0.02493998 -0.05096068 0.026953232 0.023637967
000020 30 c4 97 bc 03 3f d7 3b e2 f4 b8 bc a6 4a 6c 3d
       -0.018526167 0.006568791 -0.022577707 0.057688378
000030 93 3d 6c bb a8 34 38 3c e2 c5 f2 ba 43 fe 13 bd
       -0.0036047443 0.011243023 -0.0018522108 -0.036131155
000040 21 1c 51 3c e0 a6 b3 3c cf 58 05 bd 5a 01 14 3d
       0.012763054 0.021930158 -0.032555398 0.0361341
000050 31 5c 0c bd 71 07 74 3c 36 2f 7d 3d b1 a5 d2 bc
       -0.034267608 0.014894352 0.061812602 -0.025713773
000060 18 e9 a0 3d 03 42 59 3d 25 a1 40 bd ce 0e 8e 3b
       0.07856959 0.05304147 -0.04702868 0.004335261
000070 ef 89 7f 3b 74 0d 5f 3c 2a c3 67 bc 62 0d f0 3b
       0.0038992127 0.013614047 -0.014145652 0.007325814
000080 6d a5 8b 3d 87 89 7e 3d db 10 83 3d b2 3c 1d bd
       0.06818662 0.062142875 0.06399699 -0.03838796
000090 19 f9 b6 ba a9 7b 2a bd ea 38 ad ba 58 af 14 3d
       -0.0013959735 -0.041621838 -0.0013215814 0.036300033
0000a0 f6 dd 03 3d 7e 4c 35 3d d0 c3 37 bd 80 78 85 bd
       0.0321941 0.0442624 -0.044864476 -0.06517124
0000b0 d7 22 ea bd d5 bf 6e 3c 41 77 88 3c a8 53 1a 3d
       -0.114324264 0.0145721035 0.016658427 0.037677437
0000c0 40 d1 bd 3c 17 df d0 3c e1 aa 7e bc 0a eb 22 bd
       0.023171067 0.025497003 -0.01554367 -0.039774932
0000d0 fb a9 eb bc c5 0c 2a 3d 2d 26 a5 bb 40 bd 28 bd
       -0.028767576 0.041516084 -0.0050399513 -0.041196108
0000e0 75 e4 8e bc f4 4d 2d 3d 1c b2 66 3d e2 87 46 3d
       -0.017442921 0.04231067 0.056322202 0.04846943
0000f0 39 87 3f 3d 4b 67 4d bd 61 ea ec bc 2d 61 98 bb
       0.046759818 -0.050147336 -0.028920354 -0.004650256
000100 db 7f 95 bd 65 ba 25 3d 75 02 54 3d 01 77 1e bd
       -0.07299777 0.040460963 0.051760156 -0.03868771
000110 17 6c 20 3c 5c db c8 ba 53 0d 26 bd c9 3f 22 bd
       0.009791396 -0.0015324163 -0.04054005 -0.03961161
000120 28 cb 86 3d 12 ff 61 3d 73 a3 3c 3d 26 5d 81 bc
       0.06581718 0.055174895 0.046054315 -0.015791487
000130 56 5d 88 bb 3f 02 c7 3d 84 9a 62 bd 42 46 3c 3d
       -0.004161517 0.09717225 -0.05532314 0.04596544
000140 bc dc 9e bc 6a ae 98 3d 93 70 8b 3d f5 89 4d bb
       -0.019392364 0.07455142 0.06808581 -0.0031362746
000150 77 64 0d bd e0 9d c7 3d 15 34 90 3b cb 4d d6 3c
       -0.03451964 0.09746909 0.00440074 0.026160141
000160 cb e2 00 bd 8f cc a4 bd 01 96 d0 3b c0 49 59 bd
       -0.031466287 -0.08046829 0.006365538 -0.05304885
000170 2a 58 97 3d 39 ed 33 bd 9e 07 bf 3d 0d ff f2 3c
       0.07389863 -0.043927405 0.09327625 0.029662633
000180 a4 22 13 bd 5e 75 bf bd a9 23 57 3d 00 85 9a bd
       -0.035921708 -0.09348558 0.052524243 -0.07544899

layer3.1.weight f4 [100]
000000 4e 45 78 3f 1b e3 47 3f a5 c7 91 3f f6 95 86 3f
       0.9698075 0.7808091 1.1389052 1.0514514
000010 28 d7 71 3f bf e6 89 3f 96 27 a3 3f 24 ca a2 3f
       0.9446893 1.0773543 1.2746456 1.2717938
000020 9f 14 8b 3f 4b 21 9e 3f ad 3b 8e 3f 23 d4 9d 3f
       1.0865668 1.235391 1.1111962 1.2330364
000030 1e 89 94 3f 73 15 a3 3f 0c be 41 3f ac 24 63 3f
       1.1604345 1.2740921 0.75680614 0.8872783
000040 78 a5 85 3f 97 4d af 3f 12 b4 87 3f d5 ac 6f 3f
       1.0441122 1.3695554 1.0601828 0.93623096
000050 ee 7c 93 3f e9 bf 91 3f 41 1a 1a 3f 55 1b 42 3f
       1.15225 1.1386691 0.6019631 0.75822955
000060 4c 29 85 3f 94 07 8a 3f 56 f8 8b 3f b0 30 91 3f
       1.0403228 1.0783563 1.0935161 1.1342983
000070 bb 14 8f 3f 9f e6 7e 3f 74 18 98 3f b1 67 66 3f
       1.1178201 0.9957065 1.1882463 0.9000197
000080 a5 ad 73 3f bc 36 73 3f 9d a9 8b 3f f3 79 96 3f
       0.95186836 0.95005393 1.0911137 1.1755966
000090 1d c9 6a 3f 7e 62 9d 3f 6c 09 80 3f c8 09 80 3f
       0.91713125 1.2295682 1.0002875 1.0002985
0000a0 a0 31 82 3f c0 39 af 3f 21 ec 7b 3f 1c 98 94 3f
       1.0171394 1.3689499 0.9840718 1.160892
0000b0 6e 76 7b 3f 5e 9d 63 3f 3f 34 51 3f f8 11 aa 3f
       0.98227584 0.88912 0.81720346 1.3286734
0000c0 df 3d 92 3f de 16 59 3f 72 cd 80 3f 5c 81 97 3f
       1.1425132 0.8480052 1.0062697 1.1836352
0000d0 10 64 a7 3f 21 51 9e 3f d0 2f 83 3f ea 55 84 3f
       1.3077412 1.2368509 1.0248966 1.0338719
0000e0 a1 64 82 3f 32 1c 90 3f 4c 65 9a 3f 72 ed 9a 3f
       1.018696 1.1258605 1.2062163 1.2103713
0000f0 29 f0 86 3f 1a 82 4f 3f 4c ad a4 3f 15 42 84 3f
       1.0542041 0.81057894 1.2865386 1.0332667
000100 86 29 7c 3f e9 af a2 3f 86 72 47 3f de 6d 48 3f
       0.9850086 1.2709934 0.77909124 0.78292644
000110 89 ec 83 3f 49 ef 41 3f 79 2f a3 3f 61 42 7e 3f
       1.030656 0.75755745 1.2748863 0.99320036
000120 69 a8 86 3f 57 b4 8c 3f 47 8c 87 3f e8 dd 84 3f
       1.0520145 1.0992535 1.0589684 1.038022
000130 39 90 98 3f bb 65 45 3f 24 b7 8d 3f ae 68 50 3f
       1.1919013 0.77108353 1.1071515 0.8140973
000140 fd 1e 9a 3f bf d3 7a 3f 92 b6 98 3f d2 d1 6f 3f
       1.2040707 0.9797935 1.1930716 0.93679535
000150 58 b3 8d 3f 2f ed 8e 3f 1e 7b 0b 3f db 5f 69 3f
       1.1070356 1.1166133 0.54484737 0.9116189
000160 8f 33 9c 3f c9 26 63 3f 91 9a 86 3f 23 0a 92 3f
       1.2203234 0.88731056 1.051592 1.1409343
000170 17 3b 63 3f 43 7e 5c 3f b4 e1 6b 3f f0 7e a1 3f
       0.8876204 0.8613016 0.9214127 1.2616863
000180 a6 e2 88 3f 79 fe 0c 3f 4f 42 73 3f 33 6b 89 3f
       1.0694168 0.55075794 0.95023054 1.073584

layer3.1.bias f4 [100]
000000 aa 49 af be 68 f3 a6 be 54 ca 6e be 4c e8 30 bf
       -0.3423589 -0.3260758 -0.2331937 -0.69104457
000010 cd e9 fb be 12 23 fd be c4 15 af be 82 f3 1d bf
       -0.49201813 -0.4944082 -0.34196293 -0.6169969
000020 1a 34 27 be e9 10 13 be b1 1c c3 be ed 85 35 bf
       -0.16328469 -0.1436192 -0.38107827 -0.7090748
000030 b9 75 a8 be fa af 1c bf 24 c7 da be ac 86 de be
       -0.32902315 -0.6120602 -0.42730057 -0.4346212
000040 c2 69 ad bd a9 c1 09 bf 98 fc aa bd 53 e2 ab be
       -0.08467437 -0.53811127 -0.0834896 -0.3357111
000050 d4 1e 08 bf 01 68 24 be b1 95 30 be 13 de 4f be
       -0.5317204 -0.160553 -0.17244603 -0.20299558
000060 7b 87 44 be 53 8a 5c be e2 18 15 bf 9e 9c 31 bf
       -0.19192307 -0.21537142 -0.58241093 -0.69379604
000070 41 8f 0b bf 03 4b 8d be c2 11 d1 be 44 ac 1c bf
       -0.54515463 -0.27596292 -0.4083386 -0.61200356
000080 05 29 fd be 42 58 d9 be a0 c3 48 bd b9 2b da be
       -0.49445358 -0.42450148 -0.049014688 -0.42611483
000090 72 4e f5 bc a3 a5 23 bf d2 12 29 bf 2e 98 3c bf
       -0.029944632 -0.63924617 -0.6604434 -0.7366971
0000a0 74 50 05 bf 30 b9 68 be 64 21 23 bf 69 41 ce be
       -0.52075887 -0.22726893 -0.63722825 -0.4028428
0000b0 c7 f2 ca bd b0 99 c3 be 45 71 09 bf a9 8f f2 be
       -0.09909587 -0.38203192 -0.5368846 -0.4737523
0000c0 fa e1 f7 be 23 ed 2a bf 29 10 8e be 5e 64 ae bc
       -0.48414594 -0.6676809 -0.27746704 -0.021288093
0000d0 23 a9 29 bf 0e d7 98 be 26 90 1f be d8 43 af be
       -0.6627371 -0.29851574 -0.15582332 -0.34231448
0000e0 a9 c4 2f bd e8 a2 1e bf d4 df 1e bf 14 84 e6 be
       -0.04291216 -0.61967325 -0.62060285 -0.45022643
0000f0 a1 c5 1b be 63 9f d8 be 9c 26 43 bf c6 11 b4 be
       -0.15212108 -0.42309102 -0.7623079 -0.3516981
000100 99 87 27 bf 8f f5 2d bf 97 d6 0a bf 78 cf 49 bf
       -0.6544128 -0.6795282 -0.5423369 -0.788322
000110 c9 8d 8b be 93 08 24 bf 83 4f ed be 3c b3 18 bf
       -0.2725661 -0.64075583 -0.46349725 -0.5964849
000120 e9 f9 a6 be de 89 14 bf eb 3c e5 be 58 18 b0 be
       -0.3261254 -0.5802287 -0.4477304 -0.34393573
000130 15 6a 1b bf ec c1 14 bf 28 68 6a be e1 3d 30 bf
       -0.60708743 -0.581084 -0.22891295 -0.6884442
000140 0f ff 3d bf 50 ae a7 be 30 03 ee be d1 b5 16 bf
       -0.74217314 -0.32750177 -0.46486807 -0.5887118
000150 dd db 88 be b4 5e 02 bf a1 4c 02 bf a1 31 7a be
       -0.26730242 -0.50925756 -0.50898176 -0.24432994
000160 97 a0 d1 be da 94 0e be 39 2c 15 bf ea 36 34 bf
       -0.40942833 -0.1392397 -0.58270603 -0.7039629
000170 6c 7c 5d bd 41 1a 84 bd c9 fb 72 bf 6d fc 62 be
       -0.054073736 -0.0645032 -0.94915444 -0.22166605
000180 56 a3 e9 be fb 3a 4b be 2a 67 ea be 59 fd 69 be
       -0.45632428 -0.19846718 -0.45781833 -0.2285055

layer3.1.running_mean f4 [100]
000000 0d 3b c6 40 0a f5 e9 3f b1 73 ac 3f a7 2a b4 40
       6.1947083 1.8277905 1.3472806 5.6302066
000010 92 5e c5 40 04 89 ed 3e 3a eb c7 3f c3 12 c8 40
       6.167794 0.46393597 1.561866 6.2522902
000020 45 5f 56 40 af 2f 97 40 5f eb 13 40 6a f6 a6 40
       3.3495648 4.7245708 2.311241 5.21758
000030 a5 b6 e2 40 66 9b 9e 40 6d 20 4d c0 84 28 c7 bf
       7.0847955 4.9564695 -3.205104 -1.5559239
000040 ef ed ee be b3 e8 b9 c0 f0 e1 24 40 9a 19 16 bf
       -0.46665904 -5.8096557 2.5762901 -0.58632815
000050 fe 4b 72 c0 e1 ff b6 3f 4f df 02 be af 1b 2b c0
       -3.7858882 1.4296838 -0.12780498 -2.6735647
000060 c6 4a 68 c0 ec cd 9d 40 5e 8a 9b 40 76 09 a7 40
       -3.6295638 4.931387 4.8606405 5.219905
000070 6e af 6a 40 28 36 ea 40 8b 8b b5 3f 01 97 7f c0
       3.6669574 7.319111 1.418321 -3.9935915
000080 dd 5f d0 3c 91 a0 6d 40 a9 9c 0c 40 bc fd 48 40
       0.025436336 3.7129252 2.1970618 3.1404867
000090 05 89 31 40 f0 e4 ca 40 69 cd db 40 f1 2b e4 40
       2.773988 6.3404465 6.8688245 7.130364
0000a0 e0 4f 4f bf 37 9c a0 40 a2 4d 5a 40 9a 06 ba 40
       -0.80981255 5.019069 3.4109883 5.813306
0000b0 fb db 94 bf 73 64 92 bf cc 92 88 bf 1c 79 97 40
       -1.1629633 -1.1436905 -1.0669799 4.733534
0000c0 76 53 5b 40 96 b0 ee 3f 7b 09 9e 40 a5 b3 11 3f
       3.426969 1.864764 4.9386573 0.5691474
0000d0 f5 93 d9 c0 1c cf 41 40 6c 4a 0f 40 0a cb 79 40
       -6.799311 3.028266 2.2389174 3.9030175
0000e0 61 67 a4 40 62 b8 47 40 8e 5d 88 40 ca 5b ac 40
       5.1376195 3.1206288 4.2614202 5.3862047
0000f0 46 18 ba 3f 20 8a af bf 70 52 ad 40 1b 50 0c 3f
       1.4538658 -1.3714027 5.416313 0.5480973
000100 60 af f0 bf 40 75 ce 40 91 ee 9c 40 4d 49 31 3f
       -1.880352 6.4518127 4.904122 0.69252473
000110 93 80 3a 3f 9f 2f 41 3f 85 a6 61 40 ad ed c9 40
       0.7285244 0.7546329 3.5257885 6.310263
000120 dd f3 7e 3f b2 d5 5a 40 15 22 6a 40 11 0f 34 40
       0.99590856 3.419293 3.6583302 2.8134196
000130 0e ee b6 40 6c b2 6d 40 82 4d f7 be 53 78 ec bf
       5.7165594 3.714015 -0.4830132 -1.847422
000140 a1 fe ed c0 e3 0d ba 3d 0b bb 3d 40 23 12 ae 40
       -7.4373326 0.0908468 2.9645412 5.439714
000150 65 a2 83 bf 2e 4a ab c0 10 bc 9b be 67 b1 49 40
       -1.0283934 -5.352805 -0.30416918 3.1514528
000160 5d 62 79 40 f1 32 d8 bf 10 17 ab 40 fd 90 07 40
       3.8966286 -1.6890546 5.3465652 2.1182244
000170 d6 c5 9c 3f 44 bc b8 3f 12 3c ae 3f 05 dd 54 c0
       1.2247875 1.4432454 1.3612082 -3.32599
000180 42 a6 8f 40 7a 21 e9 be 6e 0a 52 40 ac e5 04 40
       4.489045 -0.45533353 3.2818866 2.076518

layer3.1.running_var f4 [100]
000000 9e 42 52 41 cf f4 9f 41 13 c5 ab 41 9c 8b 2c 41
       13.141264 19.994535 21.471228 10.784084
000010 d3 75 6a 41 7e 91 ad 41 bf c9 a8 41 ca 8b 8e 41
       14.653766 21.696041 21.098509 17.818256
000020 aa a8 fa 41 c4 04 a2 41 0d a9 9e 41 cd 57 b7 41
       31.332355 20.252327 19.832544 22.917871
000030 27 c3 db 41 ab c4 ba 41 47 d2 ff 41 64 68 9f 41
       27.47029 23.34603 31.977674 19.925972
000040 e1 46 92 41 46 4d df 41 b9 c2 87 41 30 08 6d 41
       18.284609 27.912731 16.97008 14.814499
000050 25 5b 57 41 50 ba 7a 41 aa a8 62 41 cb 73 b0 41
       13.459752 15.670486 14.166178 22.05654
000060 29 03 83 41 4f f9 75 41 37 50 b4 41 a8 c9 75 41
       16.376543 15.373366 22.539167 15.3617325
000070 32 77 2b 41 fa 5e 7b 41 fd c8 91 41 0c d9 7c 41
       10.7166 15.710688 18.223139 15.80299
000080 da 5f 44 41 fc 0e 8d 41 b3 5e 71 41 77 da 5a 41
       12.273401 17.632317 15.08562 13.678336
000090 05 55 96 41 e1 42 9a 41 d4 85 ba 41 3d ce 85 41
       18.791513 19.282656 23.315346 16.725702
0000a0 e6 d9 49 41 e2 1d 9f 41 06 23 99 41 19 da b4 41
       12.615698 19.889591 19.142101 22.606493
0000b0 ad 11 54 41 4e 4e 57 41 b7 e9 b4 41 23 0d 81 41
       13.254315 13.456617 22.614119 16.131414
0000c0 4b 65 65 41 61 57 6f 41 4c bd 98 41 66 f7 75 41
       14.33723 14.958833 19.09243 15.3729
0000d0 59 db f7 41 72 3a 99 41 60 b2 95 41 7a 13 d6 41
       30.982103 19.153538 18.712097 26.75951
0000e0 46 23 95 41 b4 63 4a 41 90 62 79 41 dc a4 b8 41
       18.642223 12.649342 15.586563 23.080498
0000f0 37 5c a3 41 5a 7e ac 41 57 df ba 41 c2 a3 a4 41
       20.420027 21.561695 23.359053 20.57996
000100 7b 17 16 42 60 58 e8 41 ff 48 9a 41 b3 35 e9 41
       37.52293 29.043152 19.285643 29.15122
000110 69 8c 86 41 98 a4 6a 41 75 77 6a 41 f6 0e 95 41
       16.81856 14.665184 14.654164 18.632305
000120 7c d2 88 41 f4 02 81 41 88 50 cd 41 aa 3a a5 41
       17.102776 16.126442 25.664322 20.653645
000130 22 4d c4 41 ef e3 75 41 1a c5 9a 41 d8 eb 99 41
       24.537663 15.368148 19.346241 19.240158
000140 a8 aa 3b 42 4c 60 7f 41 d7 e4 b0 41 53 c3 a8 41
       46.916656 15.96101 22.111738 21.095373
000150 7e 49 9f 41 57 e5 9e 41 a6 c4 9c 41 56 65 91 41
       19.910885 19.861982 19.59602 18.17448
000160 76 87 69 41 48 9f 62 41 ea c1 97 41 1d 39 8e 41
       14.5955715 14.163887 18.969685 17.777887
000170 7e ad 89 41 ec c3 86 41 47 b4 72 41 0d 3a b6 41
       17.209713 16.845665 15.169013 22.778345
000180 41 61 93 41 23 39 3d 41 ca 48 44 41 50 57 64 41
       18.422487 11.826449 12.267771 14.271317
