Lab2/deep_best_relu.pth (torch_old, 611592 bytes, 28 tensors)

layer1.0.weight f4 [25, 1, 1, 5]
00000000: 756c 253e 9923 b3bd d21e 1b3f d32d 0f3d
00000010: 0897 1dbf 0279 943e 9f14 09be 0e93 813d
00000020: aafd 923e a491 20bd 1a52 953e 16c8 c63d
00000030: e1f6 3fbe 9389 8dbe f40f 793e 5a4f 6dbe
00000040: 50a8 a23e f5a4 963e b3ce 11bf bac8 ac3e
00000050: 80d3 ca3e a9bb 04bf bde3 ecbd 7fa0 20ba
00000060: 5ca1 293e f1c1 d93e 23c2 09bf c4a6 40be
00000070: 31ce d13e 96b8 5fbe ba51 d2be 2d0a d13e
00000080: 1f8d f13e ff20 b5be a090 a7bd da40 12be
00000090: 39b9 ab3d a3cb 4bbd 8b19 7d3d 05d9 403e
000000a0: 1255 76be 521f 083f e4f2 cbbe e46b 02be
000000b0: c244 be3e 9efe 03be 418b 723e ca4c 89be
000000c0: 442d 9b3e 863d cdbd ba99 67bd eeef e83e
000000d0: 00f1 71bd f114 813c b641 b6be 402b 0bbf
000000e0: 47dc 68be cf01 063f eb2c 8d3e 6e26 e5be
000000f0: 9c2b 113d 2117 dcbe 16de 193e 4309 b63e
00000100: 5f2f a8be 90cd 8cbd b377 8f3d 53ec debd
00000110: c6e2 97be 0678 a63e 24e9 273f 7bdf b1be
00000120: dda3 aebe 19b0 a03e a8cc d3bd 7d4b 173f
00000130: f9b5 17bf 2591 13be 8c97 cebd 7304 ac3e
00000140: 25d0 be3e 7209 c2be 3a1d 91be 59b0 1dbf
00000150: a8d5 c53e 1417 22bf 23bb a43d ba95 953e
00000160: 4407 133f 38ed 33bf 64ca a23e c86a 1c3e
00000170: e37b 81bd 36a2 6bbe 4819 dbbd e5e6 9b3e
00000180: c037 813e b25c 1bbf 49ad 13bf 7edf 253f
00000190: d648 6abf 9b6c d03e 10fc 023e 6ac2 63be
000001a0: 2ed6 18bf 938b 33be 5e77 a63e baea fdbe
000001b0: a4b4 4c3e a367 993e 48bb e73e 04d1 acbd
000001c0: 5538 7ebe cc77 cb3e 06a2 cd3d 6227 0e3f
000001d0: fa7d 293e e3f3 5dbe 5cb1 8e3e ac3c 96be
000001e0: b867 0abf 8da6 d63d 3d17 c9be be09 eabd
000001f0: 0e85 a83c
0.16154654 -0.08747024 0.60593903 0.03495581 -0.6155858 0.28998572 -0.13386773 0.063268766
0.28709155 -0.039201394 0.291642 0.09706132 -0.1874652 -0.27644023 0.24322492 -0.23174801
0.31769037 0.29422727 -0.5695602 0.33746892 0.39614487 -0.51848847 -0.11566875 -0.00061274314
0.1656546 0.42530778 -0.53811854 -0.18813616 0.40977624 -0.21847758 -0.41077977 0.40828076
0.4717798 -0.35376737 -0.08181882 -0.14282551 0.08384938 -0.04975475 0.061791938 0.18832786
-0.24055889 0.5317279 -0.39833748 -0.1273647 0.37161833 -0.12890097 0.23685934 -0.26816398
0.30307972 -0.100215 -0.05654309 0.45495552 -0.059067726 0.015757056 -0.35597008 -0.5436287
-0.22740279 0.5234651 0.27573332 -0.44755882 0.03544198 -0.42986396 0.15026125 0.3555394
-0.3284864 -0.068751454 0.07005253 -0.10884919 -0.29665202 0.32513446 0.6559012 -0.34740815
-0.34109393 0.31384352 -0.103417695 0.5909956 -0.59262043 -0.14410837 -0.10087499 0.33597144
0.37268177 -0.3789783 -0.2834261 -0.6159721 0.3863957 -0.63316464 0.08043506 0.29215795
0.5743296 -0.7028384 0.31795037 0.15275109 -0.06322458 -0.23011097 -0.106981814 0.30449596
0.25237846 -0.60688317 -0.5768629 0.64794147 -0.9151739 0.4070786 0.12791467 -0.22242132
-0.5970181 -0.17533712 0.32512945 -0.49593145 0.19990784 0.2996188 0.45260072 -0.08438304
-0.24826176 0.39739835 0.10040669 0.55528843 0.16551962 -0.21675067 0.2786969 -0.29343164
-0.5406451 0.10480986 -0.39275542 -0.114276394 0.020571258

layer1.0.bias f4 [25]
00000000: 8fbc 0c3e c64f 6a3e 6988 7bb9 9e80 d0bc
00000010: 4815 85be a01a 96be 813c 9c3d 6fcf 85bd
00000020: 4419 3b3e a54a b3be b218 12be 9ef7 a03e
00000030: a6e3 d63d 9c7c 6a3e b6c9 55be a742 d4be
00000040: c481 b3bd 5e6e 12bb 5195 69be 6a1b a4be
00000050: bc84 7c3d 99f9 dcbe dc78 a3be 0ebf b63d
00000060: 7b03 3f3d
0.13743804 0.22881994 -0.00023988042 -0.025451954 -0.259928 -0.29317188 0.07628728 -0.065337054
0.18271357 -0.35017887 -0.14267233 0.31438917 0.10492639 0.22899097 -0.20877728 -0.41457102
-0.08764985 -0.0022343616 -0.22810866 -0.32052165 0.061650023 -0.43159178 -0.31928146 0.089231595
0.04663418

layer1.1.weight f4 [25, 25, 2, 1]
00000000: e61b 01be eae5 8d3d d6e3 1bbe 266f 313d
00000010: ccb3 29be 206e 3cbd 9832 83be c9c1 5f3d
00000020: f07c 843e 63eb fabd 6e5b 383f 7819 5dbe
00000030: 39ac 5ebe fa95 1d3d 103a 77be 8096 ea3d
00000040: e648 17bf a59c dd3d df90 05be 14e9 c8bd
00000050: 1dd4 f1bd fc9f 843d 82af 2e3e 6cd2 a33c
00000060: 357f af3e c3ef e23c 7b3e 56bd 960d 833d
00000070: 26fe 923d bc3d c0bc 09cb f03d 99fd 11be
00000080: 4459 c43e 21e4 5ebe a2e7 623e 5de4 033d
00000090: 60fa 5fbd 6ab8 333d 3a73 92bd 4738 1cbe
000000a0: 66a0 8b3e 40bb c13d 4e0f cbbd e331 1abd
000000b0: 7ca4 a2bd 90e7 053e a874 28be 4b9e 8dbd
000000c0: c19e 973e 0dc9 703c 6874 57be 7a4b fc3e
000000d0: b2a2 97bd 6b57 9c3e bc96 563e 3ae1 7ebd
000000e0: df24 133e 5aa5 a2be 54ad 023e 4b44 efbd
000000f0: 6c08 313e 28f2 413d 2d27 59bc 3810 953e
00000100: 3cd8 c9bc 6297 323e e7f0 e0bd c789 21be
00000110: 77c0 10be 1326 1b3e a6fe 46bd c907 d63e
00000120: 08bb 83be 9ae9 66bd 0c47 dbbd 5ab0 98bd
00000130: ff51 be3d 2fed 23be 4eb6 873d 69ca df3e
00000140: d026 b33e fd0d 0bbe 50fe 8a3e eb34 b5be
00000150: ecc6 d8be 96bd 6c3d 0652 5a3e 26dd 6ebd
00000160: 54fc 7f3e 93c2 05bf c51f 1b3e 8986 aabe
00000170: 8d32 23bd c9dd fd3c 85b1 3ebd 16da 993e
00000180: 46e9 83be 3784 de3e 2fb5 323d 7eb2 b7be
00000190: a97a a63d 360a f1bd 9784 19bd ecbe 873e
000001a0: 528d 60be c9a8 0ebd d2e6 6fbd 2f65 8ebd
000001b0: c0ef 133e 5573 a33e 1971 1cbb c5d7 423e
000001c0: b395 0cbe 9d9f 65be f8c4 b03d e4a8 8b3e
000001d0: 99a5 bebb 1c81 06be 2543 263c 9306 95bd
000001e0: d9c9 6ebe b3f2 d1be 9e97 903e 034e b33c
000001f0: c611 ed3d 9c50 813d 28ef 0cbe b8bc ec3c
00000200: 4012 91bd d1af 923e 78a5 19bd 9765 d33e
00000210: 7a6f 3c3d f6dd 0dbe d332 6f3e d323 febd
00000220: 7c97 8abe 95d9 c0be 8caf 99be f8ea cfbc
00000230: 6dc8 6a3d 52ec 0ebf 62aa 9b3d 30fe c23d
00000240: 2925 123e 430c 1e3e 061e 0a3d acd7 df3d
00000250: 9937 bf3d c8d8 68be e87d a5bc e77b 793e
00000260: f9df 3c3d e30f 79be 2358 3d3e d550 2cbe
00000270: 4c44 e93c 483e 0d3e ee06 673e 9030 5cbe
00000280: 6960 c13d 3dc0 9dbe abb2 06bd 797f 933e
00000290: afc0 2f3e 7cc6 30be 70d8 353e e52f dabd
000002a0: 8502 d83d f9b8 903d 6dbe 3d3c 431d e23d
000002b0: 03d8 f2bd 56c3 ee3e 9032 31be b7ea 493e
000002c0: 061d 1c3e 83f3 50bc 06b2 c23e 97d6 e6be
000002d0: d1ad 493e 47d8 05bf 1116 663d 23cc 1cbe
000002e0: 39db b4be 6ea6 273f 2c7f 453d c3ad 27bd
000002f0: 2ae4 b63d 7d17 a0be ecab 74be 43e0 cc3e
00000300: b45c 183c 6680 42be 9008 943e dbb0 c2be
00000310: f952 c13d 2606 cabd 6ec2 eebd bc85 b13d
00000320: 60ff ea3e f4af 8abe 353d 393e 3bc8 e6bd
00000330: 3a25 853e 9cd3 f63d 33be 723e 00ff 253e
00000340: ae0e fdbd bf3b 843e c210 dbbd 7d18 f6bd
00000350: ee4e 823e c2d0 03be f646 173d 52bc 5cbd
00000360: b39e 94be 4e63 a53e e71e c0bd f5c6 993c
00000370: 5e53 c33d eb9e 3dbe 3f7e c4bd 35bf c0be
00000380: 285d cd3c d19e 2ebe 527e 37be 3a4d 813e
00000390: 08ee 213e d18f d3bd 1195 debd 7b9c 803e
000003a0: 5b40 61be ae5a 4e3e 4856 7ebd f96c 26bf
000003b0: 6a1d 603e 2c85 c93d d65f acbe 1250 053f
000003c0: 8f38 42be 98b2 17be ec98 71be b1eb ac3d
000003d0: 27ce 463e 314d 3e3d 7b22 8f3d 4547 05bd
000003e0: aa05 abbe 977b 153e 9271 fb3d 94da b5bd
000003f0: a25c 483d 707f 103e 0208 0dbe 010e e3bc
-0.12608299 0.06928618 -0.15223631 0.04331889 -0.16572493 -0.04600346 -0.25624537 0.054628167
0.2587657 -0.12251928 0.7201451 -0.21591747 -0.21745385 0.038473107 -0.24143243 0.11454487
-0.5909561 0.10820893 -0.13043545 -0.09810081 -0.118080355 0.06475827 0.17059138 0.019997798
0.3427674 0.027702218 -0.05230568 0.06399076 0.07177381 -0.023466937 0.11757476 -0.14256896
0.38349354 -0.21766712 0.22158673 0.032200206 -0.054682136 0.043877043 -0.07150884 -0.15255843
0.27270812 0.09459543 -0.099150285 -0.037645232 -0.07941529 0.13076615 -0.16450751 -0.069149576
0.29613307 0.014696372 -0.21040499 0.49276334 -0.074040785 0.30535445 0.20955938 -0.06222651
0.14369534 -0.31766778 0.12761432 -0.11682948 0.17288369 0.04735008 -0.013253969 0.29113936
-0.024639241 0.1744056 -0.109834485 -0.15775214 -0.1413592 0.15151243 -0.048582695 0.41802815
-0.2572863 -0.056375124 -0.107069105 -0.074555114 0.09292983 -0.16008447 0.06626569 0.43709114
0.3499055 -0.13579555 0.2714715 -0.35391936 -0.42339265 0.05779799 0.21320352 -0.058316372
0.249986 -0.5225002 0.15148838 -0.33305767 -0.03984313 0.030989544 -0.046556015 0.300492
-0.2576391 0.43460247 0.04362982 -0.35878366 0.08128864 -0.11769526 -0.037479963 0.2651285
-0.2192891 -0.034828935 -0.058569737 -0.06952893 0.14446926 0.3192393 -0.0023871122 0.19027622
-0.1372898 -0.22424169 0.08631319 0.2727729 -0.0058180806 -0.13135189 0.010147844 -0.072766446
-0.23319186 -0.41005477 0.28240675 0.021887785 0.11575656 0.06314203 -0.13763106 0.028898582
-0.07083559 0.28649762 -0.03751132 0.41288444 0.04600475 -0.13854203 0.23359232 -0.12409177
-0.27068698 -0.37666002 -0.30016744 -0.025380597 0.057320047 -0.55829346 0.07600857 0.09521139
0.14271988 0.15434365 0.03372004 0.10929808 0.09336776 -0.22738945 -0.020201638 0.24363671
0.046112034 -0.24322467 0.18490653 -0.1682771 0.02847495 0.1379329 0.22561237 -0.215029
0.09442217 -0.3081073 -0.032885235 0.2880819 0.17163347 -0.17263216 0.17758346 -0.106536664
0.105473556 0.07066531 0.011581046 0.110407375 -0.11857607 0.46633404 -0.17304444 0.19718443
0.15245447 -0.01275337 0.38026446 -0.45085594 0.19695212 -0.5228314 0.056173388 -0.15312247
-0.35323504 0.65488327 0.048216984 -0.040937196 0.089302376 -0.3126792 -0.23893708 0.40014848
0.009299446 -0.18994293 0.28912783 -0.38025555 0.09439654 -0.09864454 -0.11658178 0.08668086
0.4589796 -0.27087367 0.18089755 -0.1126866 0.26004964 0.1205208 0.23705368 0.16210556
-0.123563156 0.25826833 -0.10696556 -0.120163895 0.25450844 -0.12872604 0.036932908 -0.053890534
-0.29027328 0.32302326 -0.09380894 0.018771628 0.095373854 -0.18517654 -0.09594392 -0.3764588
0.025068834 -0.17052771 -0.17919281 0.25254232 0.15813458 -0.10330165 -0.10868276 0.25119385
-0.21997206 0.20151779 -0.062094003 -0.6501003 0.2188622 0.09839854 -0.33666867 0.520753
-0.18966888 -0.14814222 -0.23593491 0.08443392 0.19414578 0.046460334 0.069889985 -0.03253867
-0.3340276 0.14597927 0.12277521 -0.08879581 0.048916467 0.14111114 -0.13772586 -0.027716639

layer1.1.bias f4 [25]
00000000: b7dd 873d a4c4 20bd f1ba 55bd 2cc3 ab3d
00000010: dbc9 e03b 2700 07be 60ff 8cbd 6eae 04bd
00000020: 5b64 65bc c8ff 273e 18c0 ac3d dca7 eb3b
00000030: f9d8 f1bd 791d 083e 0d95 6dbd 2b20 ffbd
00000040: 1d16 e8bd 6b41 b7bd f166 713d 086a 4b3d
00000050: 781d eb3d 515e 84bc 65eb 273c 5be8 ff3d
00000060: 1b8b 823d
0.066340856 -0.03925003 -0.052180234 0.083868355 0.0068600005 -0.13183652 -0.068846464 -0.03239291
-0.014000977 0.16406167 0.084350765 0.0071916413 -0.118089624 0.13292493 -0.058003474 -0.124573074
-0.11332343 -0.08948024 0.058936063 0.049661666 0.1148023 -0.016158255 0.0102489935 0.1249549
0.063741885

layer1.2.weight f4 [25]
00000000: af0b 8d3f 6127 633f 5b3b 4b3f 6bd9 6e3f
00000010: 144d 943f 0070 593f 45ac 623f 46b3 853f
00000020: 42a3 533f b0b3 5c3f efdd 703f 503a 793f
00000030: 9baa 803f a19f 7d3f 4e12 7c3f 76b5 863f
00000040: fb30 383f 33ff 883f 6578 893f 518c 863f
00000050: ed2e 773f 54b5 823f c88a 643f cdf6 523f
00000060: 4b9d 733f
1.101919 0.8873196 0.79387444 0.93300503 1.1586022 0.84936523 0.8854411 1.0445335
0.82670987 0.8621168 0.94088644 0.973546 1.0052065 0.990717 0.9846543 1.0524127
0.7194974 1.0702881 1.0739866 1.0511571 0.9655598 1.0211587 0.89274263 0.8240784
0.95161885

layer1.2.bias f4 [25]
00000000: a891 2bbf dc94 34be e7fe f9bd 78e7 343a
00000010: 523e cfbe 6f98 37bd 6bdb c93b 58de 12bf
00000020: 100c afbd 68f7 203d 857d 24bf ab89 43bf
00000030: 68bb 0bbf c6f9 8abe 9d13 ffbe b9d1 32be
00000040: 5d97 87be e747 b7be 9a18 2ebf 6c65 973c
00000050: 5b15 82bf 3f0d 72bf 1395 1fbe 7722 bebe
00000060: 0b50 38bf
-0.6701913 -0.1763491 -0.12206822 0.00069009466 -0.40477234 -0.044823106 0.00616019 -0.5737052
-0.085472226 0.039298445 -0.6425403 -0.7638194 -0.54582834 -0.27143687 -0.4981965 -0.17462815
-0.2648267 -0.35797045 -0.6800629 0.018480979 -1.0162767 -0.9455146 -0.15584211 -0.3713567
-0.71997136

layer1.2.running_mean f4 [25]
00000000: ec47 663d cadc 02bf d8e8 34be 2e52 143f
00000010: c760 9cbe 393b 8ebe b2e8 e83e f00d 3f3f
00000020: 95c6 d53e ee5f 063f b1c6 a13e 483d bd3e
00000030: 3ff0 743f 9de7 bebc 7fa5 4dbc 545e 34bf
00000040: ab2c a33c 6df7 31bf b38e 0b3f 5362 9cbe
00000050: b832 0abe ddd4 6dbe 4ba8 04bd 54ae 303f
00000060: 6be9 e83e
0.056220934 -0.5111815 -0.17666948 0.57937896 -0.30542585 -0.27779558 0.45490032 0.7463064
0.4175307 0.5249013 0.31596902 0.36960816 0.95679086 -0.023303801 -0.012551664 -0.70456433
0.01991876 -0.69518167 0.54514617 -0.30543765 -0.1349591 -0.23225732 -0.03238706 0.69016004
0.45490584

layer1.2.running_var f4 [25]
00000000: d32d 5142 c3fc be42 3103 3c42 42ab 8b42
00000010: d4ae aa42 0025 fc41 30d7 6942 e088 6442
00000020: 0b84 9642 b88a 2f42 7c72 cc41 89e2 3942
00000030: 80eb c142 bb6a 1242 f338 6f42 6dfd 8542
00000040: f466 7b42 436c 2642 28b2 7942 628e ee41
00000050: b91b 0c42 ef7f 5242 5c42 3f42 dd7d 3242
00000060: 5f72 5f42
52.29475 95.493675 47.003117 69.83449 85.34146 31.518066 58.460144 57.133667
75.2579 43.885468 25.5559 46.471226 96.95996 36.60423 59.805614 66.99497
62.85054 41.605724 62.42398 29.819523 35.027073 52.624935 47.814804 44.622913
55.86169

layer2.0.weight f4 [50, 25, 1, 5]
00000000: 1f16 253e 5e99 9b3c 2d75 243e 963a d93d
00000010: 3baf 9e3d 3da7 5f3d 868a 733e 199f 2c3e
00000020: 003c 64bd e4b1 76bd fa71 55be 95e1 c6bd
00000030: 40fe 37bc 785e 4d3d a9c4 02be 8433 ccbc
00000040: 19ee a7bd 294a a73e 1d87 69bd fe7e bf3c
00000050: bd64 ffbd de8c a9bd 68ff 9cbd 9786 20bd
00000060: 95b6 633e 0bd9 6f3e 6358 423d f163 febc
00000070: 1c38 9e3d 2e63 aabe 9580 acbd eaa4 54be
00000080: 23e9 b43c 05f7 a13d b1dd 42bb c316 f4b9
00000090: d1af c6ba 4513 93bc 5dfc 2e3e bf52 983c
000000a0: 2bd8 25be d6de 95bb 116b c23c a06d ba3d
000000b0: ec7a fabb 9017 21be 0174 1ebe 6e1d d23d
000000c0: 7d43 1ebe a41e e8bd e802 4dbe 1357 25bd
000000d0: a25b 88bd 0b9b e6bd e3c8 24be 26af 593e
000000e0: f4b5 fc3d baa8 893b ebca 163e ed53 333e
000000f0: 980d bebd 1a6f 8fbe b420 d0be 1fc5 593e
00000100: 5dda 8abe ac4a cb3c 629d e23e e8fa 0c3e
00000110: f5cf 16be 20a8 c9be e5a0 9d3d ecc3 003d
00000120: 59f1 9ebd 55cf e83d ca73 a33c 6f4a 0b3e
00000130: a830 603c 66f3 5f3e 310b 283d b9ad c2be
00000140: fb63 de3d e79f d5bd 9b7d c63d 9de3 ca3d
00000150: af1b 983e ed66 e6bd 4c67 e5bd 8dea 8dbc
00000160: c6bf d83d f9f2 8ebd af74 253d a04e 8d3d
00000170: ab11 cb3d 190b 293e dcba 2bbd da8f b6bd
00000180: 1695 9db9 49da 37be 20d4 843e a9a0 20be
00000190: b19a 40bd 075c 92bc 875b ca3c f036 47bd
000001a0: 8997 08be eb15 eb3c e00a ec3d d128 013d
000001b0: 40c9 53bd 1f15 d63d d265 76bd 74b8 6e3e
000001c0: bce3 893d 3865 8a3d 1dde 2a3e 7bae 103e
000001d0: f55a 783d 2cbd 423e f55a 1f3d f7c3 8a3e
000001e0: fa4a 1d3d d1ef f73c 1a79 303e 69c1 d2bc
000001f0: 8b3e ae3b 61c2 313b 21db 1ebe 365b 36bd
00000200: adcf b53d 1dd7 32be 778f 36be 4389 f7bd
00000210: 6082 71bd 4735 fdbd 7814 72bd 428d ceb9
00000220: 43c3 873d e423 e63d 23ec 2abe 1633 d23d
00000230: d443 8cbe ac91 bcbd df45 6c3e f346 16bd
00000240: 54db e6be c8fb 883e 32d5 c63d 40bc 093c
00000250: 5558 ab3d 5a15 523e 7013 2c3e 1ab4 06ba
00000260: cc09 1fbe 749f 173e 091f 543e 93b0 9fbd
00000270: d362 92bd 59b0 fe3d 2d0c 373c 91f3 89be
00000280: 0f1f 50be 89ae cdbd 53c0 19be a805 143e
00000290: 2c87 bbbc c689 26be 0cbc 22be 30a0 a93d
000002a0: e3d0 bf3c b7b3 51be 52c1 193b 9aa2 32be
000002b0: 1665 3f3e f7e9 c83d c22c 47be 0007 1abe
000002c0: 9fb6 15be 58d4 f03d 3cfa e9bd de62 8bbc
000002d0: ea79 82bd a0c5 d6bd bab5 b6bc b9a0 af3c
000002e0: 7fd2 bbbd 3f6f 6ebd 8628 5a3e 2444 a2bc
000002f0: 5b32 703d 9c6d 70bc b732 8f3c 01f8 aabc
00000300: 5ee0 683e 0352 74be 6394 b93d 21a3 aebd
00000310: 4e59 01be d8bc 0abd 82d0 34bd 8e67 07be
00000320: d0ba 333e 8e09 173c 4253 6bbe 118d 3d3e
00000330: f2e2 fbbc d749 8fbd 852b d03d 9c8b aa3c
00000340: 9cc6 7d3c 90f8 eabd c11b 763e dfc8 c43d
00000350: fa1b b33d 7421 1e3d 5d25 713e d4fc 60be
00000360: 712f ccbb 20dc f2bc 5b4d 1c3e ab73 353d
00000370: ed7e 3bbe 3535 2e3e 0f9d 73bd 5cb5 59bd
00000380: 3ad2 0c3e e00d 94be c151 8c3d 2b2e 4e3e
00000390: 17c5 82bd c3b9 f6bc 1ed0 db3b 87f1 7f3d
000003a0: bb4e 523c 0645 9fbc ae32 09bc b4f5 9cbd
000003b0: 5d80 b2bd 15ac 48bd a9a7 3dbc 5880 d93c
000003c0: 0235 a6bd 8355 ef3c 1275 c9ba 7daf 533d
000003d0: 9f17 1abe 8cf0 8ebe 7619 ae3c caa5 de3d
000003e0: 4d67 97bc abff debd 8723 f9bd b9be 33be
000003f0: 383e 3abd 4a02 debe 6a90 8b3e a5b3 e13d
0.1612172 0.01899403 0.16060324 0.106068775 0.07748266 0.05460285 0.23783311 0.16857566
-0.055721283 -0.060228243 -0.2084426 -0.09710995 -0.0112300515 0.05013892 -0.12770332 -0.024926908
-0.081997104 0.32673767 -0.05701362 0.023375984 -0.12470386 -0.082788214 -0.076659024 -0.039190855
0.22237618 0.23422639 0.047447573 -0.031053515 0.07725546 -0.33278793 -0.084229626 -0.20766035
0.022083825 0.07908443 -0.002973419 -0.00046556265 -0.0015158599 -0.017953524 0.17088456 0.018594144
-0.16195743 -0.0045736833 0.023732694 0.091029406 -0.007644048 -0.15731645 -0.1547394 0.102595195
-0.15455432 -0.11333969 -0.2002064 -0.040366244 -0.066581026 -0.11260041 -0.16092257 0.2125822
0.12339392 0.004201022 0.14725845 0.17512484 -0.092799366 -0.2801445 -0.4064995 0.21266602
-0.27119723 0.02481588 0.442607 0.13767588 -0.14727767 -0.39386082 0.07696704 0.031436846
-0.07760877 0.113676704 0.019952673 0.13602613 0.013683476 0.21870193 0.041026298 -0.38023165
0.108589135 -0.104308896 0.09691926 0.09906695 0.2970862 -0.112501 -0.11201343 -0.017323757
0.10583453 -0.06979937 0.04039448 0.06899762 0.09915479 0.1650814 -0.04192625 -0.08914156
-0.0003005645 -0.17954363 0.2594309 -0.15686287 -0.047022525 -0.017866148 0.024701847 -0.048636377
-0.13339056 0.028696975 0.11525512 0.031533066 -0.0517056 0.10453247 -0.060155697 0.23312551
0.0673289 0.06757587 0.16686292 0.14129059 0.06063362 0.19017476 0.038905103 0.27102634
0.03840158 0.03026572 0.17233697 -0.02572699 0.0053175143 0.0027123915 -0.15513279 -0.04452058
0.08877502 -0.17464872 -0.17828165 -0.120867275 -0.058962226 -0.123636775 -0.05910155 -0.00039396627
0.0662904 0.11237314 -0.16691642 0.1026365 -0.273955 -0.09207472 0.23073529 -0.036688756
-0.4508921 0.26754594 0.097086325 0.008406699 0.083664574 0.20515957 0.1680429 -0.00051385316
-0.15531081 0.1480692 0.20714964 -0.07797351 -0.071477555 0.124359794 0.0111723365 -0.2694364
-0.20324348 -0.100430556 -0.15014772 0.14455283 -0.022891603 -0.16263494 -0.15892047 0.082825065
0.023415035 -0.20478712 0.0023461175 -0.1744484 0.18690905 0.0981025 -0.19450668 -0.15041733
-0.14620446 0.11759251 -0.114246815 -0.017014917 -0.063709095 -0.10486913 -0.02230345 0.021438943
-0.09171008 -0.05821156 0.21304521 -0.019807883 0.058641773 -0.01467457 0.017480237 -0.02087021
0.2274184 -0.2385941 0.09061506 -0.08527208 -0.12631723 -0.0338715 -0.04414416 -0.13223097
0.17551732 0.009218587 -0.22980979 0.18510844 -0.030747864 -0.06996506 0.10164551 0.020818524
0.015489247 -0.11473191 0.24034025 0.096086256 0.087455705 0.038606122 0.23549409 -0.21971446
-0.0062312414 -0.02964598 0.15263884 0.044299763 -0.18310137 0.17012484 -0.059475955 -0.053151473
0.1375207 -0.28916836 0.06851531 0.20134799 -0.06385248 -0.030117875 0.006708159 0.062486198
0.012836154 -0.019442093 -0.008373899 -0.07664052 -0.087158896 -0.048992235 -0.011575618 0.026550457
-0.08115579 0.02921558 -0.0015369973 0.05168103 -0.15048073 -0.27917898 0.021252375 0.108714655
-0.018481875 -0.108886085 -0.121649794 -0.17553224 -0.045469493 -0.4336112 0.27258617 0.110205926

layer2.0.bias f4 [50]
00000000: 8cf1 07be b5d1 7c3c ddca a63c fbc4 a63d
00000010: 61d6 00be f7da 633d 7561 453d f138 39bc
00000020: 5a19 303d 1213 e4bd 175d 03be f125 de3d
00000030: a58d e83c 1bc9 d23d 03dd 0c3d 5098 14be
00000040: 4592 44bc e8d1 cb3c 022c 19bd 55d3 edbc
00000050: f9fb d8bd 7812 b93d 31fd ec3c d754 e8ba
00000060: fcf9 c33c e138 5ebd 5d8d 90bd b53d 563d
00000070: 12c6 bebc 10fa dc3c af65 b9bb f35c 813d
00000080: 18ed 46bd 15a3 1b3e bc42 dcbd 5d2c d83d
00000090: 8aa3 babc 666b 48bc c4a4 503d 7aa5 8bbd
000000a0: 84a5 ac3d 3f29 ab3d 378c 80bd c776 013e
000000b0: 768d e23d ee49 62bd b02c c1bd ee0d 7d39
000000c0: a4f0 a33d 33a4 b0bd
-0.13275737 0.015430857 0.020360405 0.0814304 -0.12581779 0.055628743 0.048188645 -0.01130508
0.042992927 -0.1113645 -0.1282848 0.108470805 0.028387854 0.10292264 0.03439046 -0.14511228
-0.011997764 0.024880365 -0.037395485 -0.029031435 -0.10594935 0.09036726 0.028929325 -0.001772548
0.023922913 -0.054253463 -0.07058213 0.052304942 -0.023287807 0.026974708 -0.0056578736 0.06316557
-0.048565954 0.1519893 -0.10754916 0.105553366 -0.02278306 -0.012232637 0.050938383 -0.068186715
0.08430007 0.083574764 -0.06276744 0.12642966 0.11062138 -0.055246286 -0.094323516 0.0002413315
0.08004883 -0.086250685

layer2.1.weight f4 [50]
00000000: 40d1 223f bcf8 623f b511 893f 6b85 643f
00000010: fbd8 443f d157 453f 1006 693f 9095 3c3f
00000020: d8c6 4f3f e728 163f e1a9 873f a27d 963f
00000030: 79e1 483f ca35 923f 4da1 703f e7ee 8d3f
00000040: b36a 8a3f 9a18 403f 2607 3e3f 6aa7 523f
00000050: a3cf 523f 529d 943f e7ee 233f 2bff 453f
00000060: f720 3e3f 99af 503f 97f7 453f 4900 3b3f
00000070: bdab 5c3f f136 853f 92c2 8d3f 7243 543f
00000080: d6b7 893f 95d2 8c3f f616 8f3f 18d8 4d3f
00000090: f944 863f fa39 913f 792e 763f 3558 833f
000000a0: fb3e 2f3f 9779 803f a406 463f c515 8a3f
000000b0: f95d 0b3f 29f1 8b3f 762a 5f3f 8886 573f
000000c0: e41b 7f3f dcc1 773f
0.6360054 0.8866079 1.0708529 0.8926608 0.76893586 0.7708712 0.91024876 0.73665714
0.81162786 0.5865616 1.0598718 1.175709 0.78469044 1.1422665 0.93996125 1.1088532
1.0813812 0.7503754 0.7422966 0.82286704 0.8234808 1.161051 0.6403641 0.7734248
0.7426905 0.8151794 0.7733092 0.7304731 0.8619955 1.0407392 1.1075003 0.82915413
1.0759227 1.1001765 1.1178882 0.8040786 1.0489799 1.1345818 0.9616466 1.0261294
0.68455476 1.0037106 0.7735388 1.0787894 0.54440266 1.0932971 0.87174165 0.84189653
0.9965193 0.9678018

layer2.1.bias f4 [50]
00000000: 78c3 9ebe 0fe4 b1be ba39 bfbd 82cb 72bf
00000010: 06cd 06be 1ce0 fabe c251 9dbe 652b c0be
00000020: 1a6c 69bf 42f5 25bf 77f7 c7be e51f ebbe
00000030: b866 93be b9eb c5be b4f7 a4be 2c47 c9be
00000040: d983 eabe 2a5f 58bf 4d5d f0be f4d4 e8be
00000050: 740c 36bf fbe4 33bf a205 5abf ed4d 13bf
00000060: 1982 d1be 1ef3 54bf 4a02 28bf 3677 afbe
00000070: d522 78bf d1f9 6fbf 800e dcbe 4b82 3ebf
00000080: 7ec0 06bf 889f 1dbf 3f3b b3be e278 56bf
00000090: ffbf a8be 2e0f 84be 7743 2bbe 3296 a8be
000000a0: 1d9b 9fbe cbbe 8ebe f837 08bf 1b24 bcbe
000000b0: 563f d7be ae26 26bf 82bd 2dbe b957 2bbf
000000c0: 6124 ddbe be3b 5bbe
-0.31008506 -0.34744307 -0.09337182 -0.9484178 -0.13164148 -0.48999107 -0.3072644 -0.37533107
-0.91180575 -0.6482736 -0.39055988 -0.4592277 -0.28789306 -0.38656405 -0.32220232 -0.39312112
-0.45803717 -0.8452021 -0.46946183 -0.4547497 -0.7111275 -0.7027127 -0.85164845 -0.5754078
-0.4091957 -0.8318347 -0.6562849 -0.34270638 -0.9692815 -0.93740565 -0.42979813 -0.7441756
-0.5263747 -0.6157155 -0.3500614 -0.837782 -0.3295898 -0.2579283 -0.16724955 -0.3292709
-0.3117303 -0.27879938 -0.532104 -0.36746296 -0.4204051 -0.6490277 -0.16966823 -0.6693073
-0.43191817 -0.21409509

layer2.1.running_mean f4 [50]
00000000: 15cb c5bd cfc7 18bf 0875 133f a06d 623f
00000010: 52d7 2e3f fd58 b93e 4054 763d f5d5 fd3f
00000020: 9884 2d3f b950 903f 0830 84bf 0d23 d6bf
00000030: deb8 02c0 9460 f6bf e1f2 1c3f b497 f7bf
00000040: 3fd3 c6bf 33ec dc3f cad9 fa3e bf33 33c0
00000050: 85b7 0d3f a818 0540 fbff 82be c256 883e
00000060: ee6c 1940 afc4 873f 543f b13f b55b 61bf
00000070: 1986 a93f 4719 babf 2a1b 0fc0 623c fe3f
00000080: c47a e3bf 41f0 0640 d0ec b6bf 14b5 a13e
00000090: ddde 37bf 23d4 1cbe 67f6 9bbe ca01 fbbf
000000a0: 4bd9 8fbe cc58 9dbf d628 023f 3450 aebf
000000b0: d2bd 213f 279b 1f40 74e6 29be 5aa6 4b40
000000c0: fb86 50bf 4f38 033c
-0.096578754 -0.59679884 0.5760045 0.88448524 0.682973 0.36200705 0.06013894 1.983092
0.67780447 1.1274635 -1.0327158 -1.6729447 -2.0425334 -1.9248223 0.61308104 -1.9343171
-1.5533217 1.7259582 0.48994285 -2.8000333 0.55358154 2.07963 -0.25585923 0.2662869
2.3972735 1.0606898 1.3847451 -0.8803056 1.3244048 -1.4538964 -2.236033 1.9862177
-1.777184 2.108414 -1.429102 0.31583464 -0.7182444 -0.15315299 -0.30461428 -1.9609921
-0.2809547 -1.2292724 0.5084356 -1.3618226 0.6318027 2.4938447 -0.16591817 3.1820283
-0.81455964 0.0080090305

layer2.1.running_var f4 [50]
00000000: 36e1 0840 ffd3 2e40 ca96 6d40 692d 6f40
00000010: 9c84 4740 8910 7540 2d33 1a40 0265 3a40
00000020: da98 4240 6814 1340 4dce a140 52f5 ac40
00000030: d8da 7740 7713 7c40 d45a 3240 0270 da40
00000040: ef65 7b40 32b0 4840 bdd7 0a40 57e7 8a40
00000050: 6b28 9940 ac80 9740 c110 4040 0ba3 1440
00000060: b424 8d40 c3bf 8840 e584 1d40 4580 0440
00000070: 2679 7540 5aac 1640 620d 9b40 befc 3c40
00000080: 3fde 2b40 d52e 7c40 7889 8640 5fc9 2d40
00000090: a4cd 7740 800c 9a40 7466 3740 9216 8740
000000a0: 432d e73f 7b52 8b40 6d74 0d40 d466 8a40
000000b0: 8e12 2740 ea46 8940 1c3a 6740 d11f 8740
000000c0: fa1b 8a40 4308 9040
2.1387458 2.7316892 3.7123284 3.7371466 3.1174688 3.8291342 2.4093735 2.912415
3.0405793 2.2981205 5.056433 5.4049463 3.8727322 3.938688 2.7867937 6.826173
3.9280965 3.135754 2.1694176 4.3407397 4.786184 4.734457 3.0010226 2.3224514
4.4107304 4.2734084 2.4612362 2.070329 3.8355193 2.3542695 4.8453836 2.9529262
2.6854398 3.9403584 4.204281 2.7154157 3.8719263 4.814026 2.8656282 4.221505
1.8060688 4.3538184 2.210231 4.3250523 2.6105075 4.2899065 3.6129217 4.222634
4.315915 4.5010085

layer3.0.weight f4 [100, 50, 1, 5]
00000000: d2d7 fb3c db89 91bd 234f 90bc e456 7bbd
00000010: 025f 33bd 68a2 bd3d afe8 eabc 3d35 18bd
00000020: f9a2 dd3c 457f 9b3d dbd7 2d3d f752 823d
00000030: f767 803d 421e e3bc 8613 b23b 5f4e 073e
00000040: f0bc f63d ee8a 3c3e e537 1a3c e1ec 253e
00000050: ff67 2c3d 8b30 1a3c df02 0a3d 30e9 303d
00000060: de3c febc 86d7 b13d 1ef6 7f3d 4c11 423d
00000070: 19a4 313e 8d20 773c d92e 16bd 21de 6d3d
00000080: 6ee1 e4bb b8d2 e6bc f5ee 98bd d669 1d3e
00000090: 5a1b e63d 8ce4 973d 9c77 3d3d 851a e73d
000000a0: ffa0 b83d ed45 b43b 7282 803b 8277 05bd
000000b0: ef56 033e edc1 393e 3246 153e 7273 093c
000000c0: 59e4 fc3d 680c 363e 0455 c5bb 76df dd3d
000000d0: 101f b33d 7b0b b03c 4492 153e 4509 02be
000000e0: 6410 0bbe c2ed 07be c5d3 ec39 f2bf d4bd
000000f0: dc7f b53d eaae 0f3d 366f 2dbd 085d a6bd
00000100: 4292 6ebd 01e9 4e3d e899 d3bd 9fbe 5dbd
00000110: 393a 0b3d 4b78 7f3d e7a7 793e faba ce3c
00000120: bd4a 26bc be53 aa3b d12f 3d3d 9da1 7f3d
00000130: b971 81bc ecb6 9e3d 8c8b 2dbe 8be4 c0bc
00000140: d6d3 2a3d a3bf 28bd f248 eabd 7191 e03d
00000150: 25a6 b7bd 4d98 d73d 994c 8d3c 0930 5fbc
00000160: 96d9 d53d cb5b 5a3c 51ea e2bd 114c 6f3d
00000170: f670 963c 1320 90bd 1d8b e43c 5e18 403d
00000180: ef47 e3bd c13e e0bc a566 573d 2b22 87bd
00000190: 166e 913d 6435 213e 8362 a53d 8fa9 9b3d
000001a0: 26c6 0d3d 5cfa b83d 9720 8a3d 9ac6 193e
000001b0: 80ca 323e 5f87 273e 67e5 f3bc 37a0 813d
000001c0: 04c8 9b3c 6f37 3d3d c934 813d b5ad 2bbb
000001d0: be2c 3d3d be03 843d a8ab 913b 8104 8bbd
000001e0: c05a 2ebd f054 cb3d 19e3 afbc 9615 23bd
000001f0: db79 e63d 96e5 953c 39cd 0a3e a7c0 113e
00000200: 66e8 a63d 9ca6 3c3e e782 603d c717 c2bd
00000210: 5248 943c 2c2b 4ebb 78e7 16be a03c 363d
00000220: faf2 89bd e73c 113e 2b35 ca3d c07a a7bc
00000230: dde3 b13d fd94 143e f9c7 003e 5ce7 cb3d
00000240: 0ebc af3b 0922 5b3c ee10 553d 911e ae3d
00000250: 8a34 dd3d d63f 043e 1363 a6bd 4856 283e
00000260: 1365 d43d a0aa 96bd 3d1a 29bd 6907 b93d
00000270: b13c 0c3e cd43 583d bc08 493e 4742 1b3e
00000280: c7b4 8a3d 210b ad3c 718f ac3d 53da bb3d
00000290: 3d8b b73d 0fd3 e83d 193b c33d 97e3 6c3d
000002a0: d22e 313d 6f30 fd3c 5a4a 223d 5ca6 f5bc
000002b0: d331 193d ad3b cfbc b128 dcbc 9e2d 243d
000002c0: 5a21 253d 9521 a33d 1dda f23d c06c 073e
000002d0: aa8d 9d3d 246f 0cbd b95a 15bd b231 b13d
000002e0: a7dc 16be 8c02 5fbd 1c39 3f3e 219e 8e3c
000002f0: a247 19bb a01d 0dbb 1d68 043d 966a 873d
00000300: c63b aebd b6d4 9cbd 4c40 173e 73bf a8bd
00000310: 30c9 653d a6b6 1fbd 5947 a5bd cea4 c13d
00000320: ffbc a33d f7e1 1dbd a93f 403d bb8d 0c3d
00000330: 3c3f b33d 9325 d0bd ba02 12be d873 f6bb
00000340: f0a7 1fbe de3e 64bd 8ca1 5e3e 9cf8 1d3d
00000350: b185 92bd cf0b cb3d d8f2 ab3c 90de 8f3d
00000360: e617 dd3d 37dc f9bd 9aa7 b23d cd8f 6dbd
00000370: 7cd2 043e 6d95 db3d 40e8 423c 2333 2f3d
00000380: c4bd d23b 87bb 673e 21a9 5b3d eb14 30be
00000390: eb6e 433e ea95 2fbd 29a1 84bc 8e78 8cbc
000003a0: 79f3 d03d d4b7 b73d cb31 07bd d6fc 373e
000003b0: 0535 4c3d 6779 303e 47a5 483e be4c 7c3d
000003c0: 9e1e bb3d b9d0 c03c 651d 21be f291 803d
000003d0: 970b 7e3d 39e5 04bc b065 c3bd d0d1 703c
000003e0: 4809 ee3d 6bdf eabd bcd5 eebd 6777 5f3d
000003f0: 78e0 e03d 7ced c03d 9d5d a5bb 82c8 83bd
0.03074256 -0.07106372 -0.01761586 -0.061362162 -0.04379178 0.09259492 -0.028675405 -0.037160147
0.02705525 0.07592634 0.042442184 0.063634805 0.0626983 -0.027724389 0.0054344563 0.1321349
0.12047756 0.18412372 0.00941274 0.16203643 0.042091366 0.009410988 0.033694144 0.043191135
-0.031034883 0.08683686 0.062490575 0.047379777 0.17347755 0.015083444 -0.03666577 0.058073167
-0.006984881 -0.02817665 -0.074674524 0.15372404 0.11235686 0.07416639 0.046256647 0.11284355
0.090150826 0.0055015 0.0039218003 -0.032584675 0.12826131 0.18140383 0.14577559 0.008389341
0.12348241 0.1777817 -0.0060220975 0.108336374 0.08746159 0.02148985 0.14606577 -0.12698849
-0.13580471 -0.13274291 0.00045171208 -0.10388173 0.08862278 0.03507892 -0.042342387 -0.08123213
-0.05824495 0.05051518 -0.1033209 -0.05413687 0.033991072 0.06237058 0.24380456 0.025235642
-0.010149655 0.005197971 0.04618818 0.062409986 -0.015801298 0.07749733 -0.16947764 -0.023546478
0.04170593 -0.041198384 -0.114396945 0.10965241 -0.089672364 0.10527096 0.017248439 -0.013622292
0.10441892 0.013327549 -0.110798486 0.058422152 0.01836441 -0.07037368 0.027898366 0.04689824
-0.110977046 -0.027373673 0.052588124 -0.06598314 0.07101075 0.15743023 0.0807543 0.076007
0.034612797 0.09032127 0.06744497 0.15017167 0.1746006 0.16360234 -0.029772473 0.06329387
0.019016273 0.046195444 0.06308896 -0.0026196067 0.046185248 0.06446026 0.004445512 -0.067879684
-0.042567015 0.0992831 -0.021470593 -0.039815508 0.11253711 0.018297952 0.13554849 0.14233647
0.08149795 0.18422931 0.05481234 -0.094771914 0.018100891 -0.0031458838 -0.14736736 0.04449141
-0.06735797 0.14183389 0.09873422 -0.020444274 0.086860396 0.1450996 0.12576284 0.09956238
0.005362994 0.013374814 0.0520181 0.08501924 0.10801037 0.12914976 -0.08124366 0.16439164
0.10370841 -0.07356763 -0.04128479 0.090346165 0.13695027 0.052799035 0.19632238 0.15162002
0.06772762 0.02112347 0.08425797 0.091725014 0.089621045 0.11368381 0.09532756 0.057834234
0.043257542 0.030906884 0.03962169 -0.029986553 0.03740103 -0.02529701 -0.026874872 0.040082566
0.04031501 0.0796539 0.11858008 0.13225079 0.07693036 -0.03428568 -0.036463473 0.08652057
-0.1473261 -0.05444579 0.18674129 0.017409386 -0.0023388644 -0.002153255 0.032325853 0.066121265
-0.08507495 -0.07657759 0.14770621 -0.08239641 0.05610007 -0.038992546 -0.08070249 0.09455262
0.079950325 -0.038545575 0.04693571 0.034314852 0.087522954 -0.10163417 -0.14258853 -0.007521134
-0.15591407 -0.055724017 0.21741313 0.03856717 -0.07154406 0.09914362 0.02098982 0.07024872
0.10795574 -0.12200206 0.08723374 -0.057998467 0.12970918 0.1072186 0.011896193 0.042773377
0.006431313 0.2263013 0.05362809 -0.1719548 0.1908528 -0.04286758 -0.016190128 -0.017147329
0.10202689 0.08970609 -0.03300647 0.17967543 0.04985525 0.17233811 0.19594298 0.061596625
0.09136699 0.023537027 -0.1573387 0.06277837 0.06202277 -0.008111292 -0.0954088 0.014698461
0.11622864 -0.11468395 -0.1166186 0.05455723 0.10980314 0.094202965 -0.00504656 -0.06434728

layer3.0.bias f4 [100]
00000000: db9c adbd 4dea 91bd df76 103d f492 6a3c
00000010: 4ea5 d5bc 0168 e33d e052 62bc 5601 a93b
00000020: 3416 9cbb e6b4 d138 5bff bd3c 23b7 a53c
00000030: 991c 82bd d8e0 26bc 8155 e9bc 3164 5f3d
00000040: 6474 98bc 7fc8 1cbd 35db 11bd d630 43bd
00000050: ebfd e93c e42d 393d 311d 223d 477f f73c
00000060: 3509 163d eb52 6f3d a4d4 a8bc 0645 cf3c
00000070: de30 02bd 9377 85bd a5e4 91bb cd14 acbc
00000080: 96f7 163d 77d8 c83b 4776 703c f687 1b3d
00000090: 7fa7 68bd 4c33 b9bd d2a9 02bc c9ae 103d
000000a0: f7a6 ac3d 3e21 923d 05cf 953d 4eff d7ba
000000b0: bf0b c9bc 2325 a5bc 9450 9abc 162d 803d
000000c0: 10de 223d 5c42 0fbd 1c50 1bbc a72a c23b
000000d0: 6d4c b13c ee1c 523d 1c13 4cbb 352c f1bc
000000e0: 16f4 0fbd 052e 61bd fd7f 513d 70f3 c6bc
000000f0: 2b4a a53d 1626 59bd 0d28 423d d368 79bd
00000100: 3c46 fdbc 24e8 cb3c 02de 26bd 1e58 3dbb
00000110: 12e5 76bd 8d83 6b3c b33e 9b3d e3c4 933b
00000120: 511c 6cbd d3bb 273d 5c77 1c3d 3d86 f03c
00000130: d228 b63c af0d 87bc 21f0 8f3d e03d ba3d
00000140: 3365 9bbd 635b 923d c329 a8bc d290 f0bc
00000150: 62d4 673d 871f f3bc 1fdc dd3d 6514 193d
00000160: 0f58 b73d 82c7 233d d9f2 c03b b718 793c
00000170: 32d4 833d 4ea5 633c 2952 fd3c 5252 00bd
00000180: 2f27 97bc e84c 88bc 2d6e f1bb 3eb8 843d
-0.084771834 -0.071247675 0.035269614 0.014317263 -0.0260798 0.111038215 -0.013813704 0.00515763
-0.004763389 9.9995916e-05 0.023193052 0.020228928 -0.06353111 -0.010185443 -0.028483154 0.05453891
-0.018610187 -0.038277145 -0.035609443 -0.047653995 0.02856346 0.04520978 0.03957862 0.030212058
0.036629874 0.058428686 -0.020609207 0.025301468 -0.031784885 -0.065169476 -0.0044523054 -0.021006012
0.03685721 0.0061293202 0.014676637 0.03797146 -0.05680036 -0.09042987 -0.007975059 0.035322938
0.084302835 0.07135247 0.073148765 -0.0016479285 -0.024541734 -0.02015931 -0.01883725 0.062585995
0.039762557 -0.034975395 -0.009479549 0.0059254947 0.021642888 0.05129712 -0.003113932 -0.029440025
-0.035144888 -0.05497553 0.05114745 -0.024286002 0.08070787 -0.053014837 0.047401477 -0.060890984
-0.03091728 0.024890967 -0.040739067 -0.0028891633 -0.060277052 0.014374626 0.07580318 0.0045095547
-0.057644192 0.040950608 0.038199767 0.029360885 0.022236262 -0.016486017 0.07028223 0.09093833
-0.075876616 0.07146337 -0.020527726 -0.02936593 0.05659903 -0.02967812 0.108330004 0.037372965
0.08952343 0.039985187 0.0058883247 0.015203646 0.064369574 0.013894392 0.030922966 -0.031328507
-0.018451301 -0.016638234 -0.0073678703 0.06480454

layer3.1.weight f4 [100]
00000000: 7a30 833f 3b4d 3f3f 5462 5b3f c118 273f
00000010: 64f1 843f 6598 563f 4803 993f a67a 783f
00000020: eeab 743f 3c19 563f f794 6d3f a7c1 8e3f
00000030: 8394 6e3f 3882 7f3f e7fc 833f 28c0 733f
00000040: f814 653f ab75 7b3f 547f 843f 6b2b 623f
00000050: fa5b 583f 6cc5 943f f498 823f 814d 683f
00000060: 3637 813f 9c05 863f 7c4a 823f 0dbb 823f
00000070: 2b89 873f ca0c 8e3f 9a9c 8f3f 7afa 573f
00000080: 6978 803f 4467 833f 6e30 5f3f 2c21 793f
00000090: 2d09 7f3f 1321 833f 9741 6b3f 85ef 623f
000000a0: 8f19 8f3f 7878 843f cb9f 6d3f 94f0 4e3f
000000b0: 891e 4b3f 608b a03f cc38 8d3f 6718 493f
000000c0: 7e6d 473f 8e9e 8e3f 4eea 653f 48d8 723f
000000d0: 56d8 913f c795 8a3f 32c2 833f 1a49 803f
000000e0: 1e3c 8e3f f632 983f ab56 813f dea0 483f
000000f0: cbe8 823f 7a92 993f 05b0 823f a1cd 923f
00000100: 6f2e 563f c4cb 853f d002 613f 58e8 973f
00000110: 0a60 7d3f ed2e 823f 291a 853f 640a 6c3f
00000120: 76e5 923f a671 4b3f 2240 963f f47f 9c3f
00000130: c17c 893f ca75 913f 735e 833f 1e39 573f
00000140: 5ef1 8e3f cca5 863f b27c 903f 2334 953f
00000150: 4b39 843f a06f 753f ade4 483f 4bc0 653f
00000160: b96e 333f 159d 833f 78ca 6f3f 60fb 743f
00000170: bc83 953f 43f6 903f 7cf2 663f c091 753f
00000180: 2deb 6f3f d66b 5f3f 4117 723f 3041 883f
1.0249169 0.7472722 0.8569691 0.65272146 1.0386167 0.83826286 1.1954126 0.97062147
0.95574844 0.83632255 0.9280543 1.1152848 0.9319536 0.99808073 1.0311555 0.9521508
0.8948512 0.9822642 1.0351357 0.883475 0.84515345 1.1622748 1.0202928 0.9074326
1.0094974 1.0470462 1.0178981 1.0213333 1.0588735 1.1097653 1.1219666 0.8436657
1.0036746 1.0265889 0.8718327 0.9731624 0.99623376 1.0244468 0.9189696 0.8864673
1.1179675 1.0349264 0.9282195 0.80835843 0.7934347 1.2542534 1.1032958 0.7855286
0.77901447 1.1142137 0.89810646 0.9486127 1.1394145 1.0826958 1.0293639 1.0022309
1.1112096 1.1890552 1.0104574 0.78370464 1.0227293 1.1997826 1.0209967 1.1469003
0.836646 1.0452809 0.87894917 1.1867781 0.9897467 1.0170571 1.0398608 0.92203355
1.1476276 0.7947029 1.1738322 1.2226548 1.0741197 1.1364071 1.0263199 0.8407153
1.116741 1.0519347 1.1288054 1.1656536 1.0329984 0.9587345 0.7847393 0.8974654
0.70090824 1.0282313 0.9366832 0.9569607 1.1680827 1.1325153 0.9021375 0.9592552
0.93718225 0.8727392 0.9456673 1.0644894

layer3.1.bias f4 [100]
00000000: f3cc bfbe c9a1 813e 7381 65bd 7419 55bc
00000010: 9610 dbbe 9ba9 05bf 05ce 0abe 8634 20be
00000020: 3678 06bf 4580 b9be 989c 82be 6bdb e1be
00000030: 6c99 cdbe 0fd5 ddbe f39a f4be c201 82be
00000040: bd05 8bbe e6ff 91be ac43 c5bd c3eb d4be
00000050: 097d d8be 37ce a63d f7f8 27be daf0 9fbe
00000060: 21a5 b4be 8900 ebbd eaad 8dbe f333 e1be
00000070: 8cfa 94be d910 45be eaad a8be f399 afbd
00000080: fea1 bdbe 99bd 25be 8295 88be 3f1b 6fbe
00000090: 150a 84be f75c 3a3d acfd a9be b381 0cbf
000000a0: 5431 8abe 9289 c8be dce4 c0be fdcb 02be
000000b0: d893 f6be 0d0d 74be 1082 03bd e4ce c5be
000000c0: df69 57be 3f4b c7be cbe4 e8be 627c 91be
000000d0: 2422 ab3d 235b c2be 9428 3e3d 3883 3cbe
000000e0: 309d d13c 3d0d 6fbe 912d d3be ab76 32be
000000f0: 1272 81be dcba a5be 93d6 ecb9 fb0b c9be
00000100: 3b85 a7be 835e b5be 158e 50be 0e66 dfbe
00000110: b50a 78be ccfb d6be 149c a1be 5754 a73c
00000120: e120 f3be ae55 44be 3485 cebe ef87 bc3c
00000130: cc07 bbbe fea0 b8be 888a cabe 484f 8dbe
00000140: 8398 f7be cb89 193e 5af6 e7bd 83ea d2be
00000150: c519 0cbf 1929 593a e5ea 80be 6f9f 8ebd
00000160: e0b9 85be b19b 8ebd 7470 04be 6879 f8bd
00000170: 5a16 d0be 1da6 8ebe 4034 8cbe 55f4 a1be
00000180: 68f3 b8be e473 9abe d7f0 e5be 3d12 95be
-0.3746105 0.25318745 -0.056031656 -0.013006557 -0.42786092 -0.5221192 -0.13555153 -0.15645036
-0.5252718 -0.36230674 -0.25510097 -0.44112715 -0.40156114 -0.43326613 -0.47774467 -0.25391966
-0.27152815 -0.28515548 -0.09632048 -0.41586122 -0.42282894 0.08144801 -0.16403566 -0.31238443
-0.35282233 -0.114747114 -0.27671748 -0.43984947 -0.29097402 -0.19244708 -0.32945186 -0.08574285
-0.37037653 -0.16185607 -0.26676565 -0.23350237 -0.25788942 0.045498814 -0.3320135 -0.54885405
-0.2699076 -0.39167458 -0.37674606 -0.12773128 -0.4815967 -0.23833103 -0.03210646 -0.38634408
-0.2103648 -0.38924596 -0.45487055 -0.2841521 0.08356121 -0.37960157 0.046425417 -0.18409431
0.025587648 -0.23344894 -0.41245702 -0.1742808 -0.2528234 -0.32369125 -0.00045173298 -0.39266953
-0.32718834 -0.3542367 -0.203667 -0.4363255 -0.24222834 -0.4198898 -0.3156439 0.020425959
-0.47486022 -0.19173309 -0.40336 0.023014037 -0.36529386 -0.36060327 -0.39558816 -0.2759955
-0.48358545 0.1499397 -0.11326285 -0.41194543 -0.5472682 0.0008284017 -0.2517921 -0.06964003
-0.26118374 -0.069632895 -0.12933522 -0.121325314 -0.40642053 -0.2786111 -0.27383614 -0.31631723
-0.36123204 -0.30166543 -0.4491031 -0.29115477

layer3.1.running_mean f4 [100]
00000000: fbd6 b03f 5994 d83f 9f29 063f 5083 4b3f
00000010: 002b 873f efce 313e b5fd 3d40 7f0e 06bf
00000020: f209 53bf fba8 d0bf 963c 8d3f 81d4 4c3f
00000030: a940 1fc0 80b1 a93f d94e 903f 6174 3e3f
00000040: 551e 2540 5e60 ad3f c1e3 06bf 9e0d 52bd
00000050: 2010 2fc0 a69d 0540 4448 8ebf 835e 57c0
00000060: bdaa d43f ffbb eb3f 327b e63e bd6b 0f40
00000070: 4e62 0240 e201 f53f 5365 fc3f 2c16 4b3f
00000080: e508 ef3f 15dc 23be 14b3 873f 44e9 e3bd
00000090: 0ddb 48bf 3b73 893f acfb 60c0 a894 103e
000000a0: 586b a53f 6247 01be 3be0 833f cb2b b73f
000000b0: 6d76 5b3f ba53 363f ab50 7140 caf2 aabf
000000c0: 2abd 04bf 8d07 1540 a876 e43f 4db8 a33f
000000d0: a94b b73e af71 583f 5cf9 c63f 1e36 dbbe
000000e0: e276 613d 935a d63d a066 80be dc72 edb9
000000f0: 1eb5 913f 879c 6d3e e0d2 f43f 62c4 63bf
00000100: bccf 30c0 2485 e13f 3872 92bd 519a 0940
00000110: 96f0 cdba 9e4e dd3e 2704 be3f a261 5a40
00000120: 8deb 0dc0 dbfa 953f c83d ec3f c408 a4bf
00000130: f1bd a63f d12d 903f b0e0 0b40 a5d4 c2bf
00000140: a4f6 a03f 2c81 1440 8eb2 5a40 51b2 1fc0
00000150: 4cee a83f b5e9 0040 54c4 56c0 f27a ad3e
00000160: 79f6 f6bf 5d1f 7dbc 2e1c 2640 0972 c1bf
00000170: bc74 963e f46f ac3f b7df d63f 5efd ffbf
00000180: 8cf1 983f 50aa 31c0 c259 67c0 7071 a43f
1.3815607 1.6920272 0.5240726 0.7949724 1.0559998 0.17364095 2.96861 -0.5236587
-0.8243705 -1.6301569 1.1034114 0.80011755 -2.4883215 1.3257294 1.1274062 0.7439633
2.5799763 1.3545034 -0.52691275 -0.051282518 -2.7353592 2.087747 -1.1115804 -3.3651435
1.6614605 1.8416747 0.45015866 2.2409508 2.03725 1.91412 1.9718422 0.79330707
1.8674589 -0.16001923 1.0601525 -0.11128476 -0.78459245 1.073829 -3.5153608 0.14119208
1.2923384 -0.12624887 1.0302805 1.431024 0.8572758 0.71221507 3.7705486 -1.3355343
-0.5185114 2.3285859 1.7848711 1.2790619 0.35799912 0.8454847 1.5544848 -0.42814726
0.055045016 0.104664944 -0.25078297 -0.0004528974 1.1383398 0.23204242 1.9126854 -0.8897153
-2.762679 1.7618756 -0.07150692 2.1500437 -0.0015711959 0.43224043 1.4845017 3.412209
-2.2175019 1.171718 1.8456354 -1.2815175 1.3026716 1.1263982 2.1855888 -1.5221144
1.2575269 2.320384 3.417148 -2.4952586 1.3197722 2.0142643 -3.355733 0.33882862
-1.9293967 -0.015449372 2.59547 -1.5112926 0.29385936 1.3471665 1.6787022 -1.9999197
1.1948714 -2.77602 -3.6148534 1.2847118

layer3.1.running_var f4 [100]
00000000: 6763 6b41 6540 e640 eb80 1341 aaab 2c41
00000010: 7392 5941 14d5 ea40 c8f8 8a41 f1e9 cc40
00000020: 96f2 1a41 1bd9 0e41 97a0 2a41 bb22 7b41
00000030: 2709 1841 2ca1 1b41 8690 8641 3851 0141
00000040: 92a8 2f41 de84 2b41 71e1 2d41 5d9a de40
00000050: daf4 5b41 b338 3841 03ae 2d41 ce00 2341
00000060: 0c66 8d41 30f9 1441 7beb 5641 66be b641
00000070: 8e83 8541 0640 8b41 2a8d 9b41 d77f df40
00000080: 40ad 8641 91dd 0141 23ae 0041 b3af 3841
00000090: 0e3a d641 aeab 4941 75ce 0e41 8965 4941
000000a0: 9a33 4441 f5b0 fc40 77a0 3841 bfa7 f840
000000b0: 1ea9 1641 93a9 a441 18dd 6541 a176 c940
000000c0: 3480 bd40 6a78 c241 ad89 1041 b3a9 6641
000000d0: dcbb 4741 b8aa 0d41 a5e4 4f41 949e 3241
000000e0: 7567 7941 670f 4f41 0e2e 2441 626e 1341
000000f0: cb6b 5641 bfee 0e41 e56c 1041 e73d 3741
00000100: c091 1441 5d2a a141 e988 5741 a454 ec40
00000110: 470d 1f41 63c3 4341 f13f 4c41 b5ea 9541
00000120: 1a05 4041 be70 1e41 2d32 7141 c357 3341
00000130: 5ac9 2f41 2469 9741 25fe 4741 19c5 5841
00000140: 5d28 6f41 b13f 4741 7bd1 7c41 dd99 2e41
00000150: fd3f 5241 a62d c040 16ab 0441 b9b1 5141
00000160: e602 8f41 481d ce40 0c56 4841 dcfb 0441
00000170: 2ba1 4941 c124 8241 e933 1141 8097 5b41
00000180: c363 2d41 1758 4f41 9cbe 4641 323e 2d41
14.711768 7.1953607 9.218974 10.79191 13.598254 7.3385105 17.371475 6.4035573
9.684225 8.928004 10.6642065 15.695979 9.502234 9.726849 16.820568 8.082329
10.978655 10.719938 10.867539 6.956343 13.747278 11.513843 10.854983 10.187696
17.674828 9.310837 13.43249 22.842968 16.689236 17.406261 19.443928 6.9843554
16.834595 8.116593 8.042514 11.542895 26.778347 12.604414 8.925405 12.587289
12.262598 7.896601 11.539176 7.770477 9.416288 20.5828 14.366478 6.295731
5.9219 24.308796 9.033612 14.41643 12.483364 8.854179 12.993321 11.163715
15.587758 12.94126 10.261244 9.214449 13.401317 8.933288 9.026586 11.452613
9.2855835 20.145685 13.470925 7.385332 9.940742 12.235202 12.765611 18.739603
12.0012455 9.902525 15.07475 11.208926 10.986658 18.926338 12.499547 13.54812
14.947354 12.45305 15.801143 10.912564 13.140622 6.0055723 8.291769 13.105889
17.876415 6.4410744 12.521008 8.311489 12.601848 16.267946 9.075173 13.724487
10.836856 12.959006 12.4215355 10.827684

layer4.0.weight f4 [200, 100, 1, 5]
00000000: 8229 1e3e 8777 7b3e 8f8e debd 8075 31bd
00000010: 2989 28be ca69 07bd 4fbd 2b3d 3226 4a3d
00000020: 75b8 21be 9d7b acbd f5ad 383e f11f 7b3c
00000030: 30d7 4bbc c88e e73c 8308 d8bc 14c7 adbd
00000040: eb06 d63d 1bd6 183e 2e72 a03d 7672 a9bd
00000050: 9df5 863d 1f99 8abc d513 e0bd 4a4d 48be
00000060: 912a ffbd 892a dfbb 0695 003e 8149 22bb
00000070: 7725 21be 79cf 9bbd 671d 903d dd57 333e
00000080: 5b71 4d3c 7339 1bbd 31c5 3cbb 8edb dbbb
00000090: 445b b73d 7877 f0bb 931a 37be b9e1 d43d
000000a0: 721a 433d 2182 d3bc dd6d 34bd c207 5fbc
000000b0: cbd3 f1bd 22b7 113d 1b29 20be 9be1 20be
000000c0: 6d1b 24bd 0560 bfbd f79b 0f3d ef03 3bbe
000000d0: 9ae2 21bd 2eda 603d 5496 15bd 25de 27bd
000000e0: fefc 603d 8e02 c8bd 70c6 e4bd 08e3 b7bd
000000f0: 98eb 853d 14b3 253b 157b 883d 0b87 3abd
00000100: bfbc 253d 89d2 e83d f7ac b8bd 5dc4 d6bd
00000110: bd31 00be 6134 1dbe 2073 b03d e609 abbd
00000120: 0742 19be 7b91 28bd 38d6 6a3c 375d 84be
00000130: 3933 0b3e f866 33be 2563 80be 88cc 8abd
00000140: 5262 8a3e 8987 6cbd 8337 04be af4d 653c
00000150: 35f9 e6bd 52da 0e3e 7020 4dbd 3503 e8bc
00000160: d2a0 1dbe 1767 01be 17ce 03be d9fd a63d
00000170: e5eb 733c b35c 863c c0f7 1b3d 7004 35be
00000180: 5003 31be 7c08 8fbd fb04 01be 4f32 043d
00000190: f34b 8abd 7def 40bb 4858 c1bd 556f f6bd
000001a0: 5f60 2bbe 6019 b23d c3cd 313d 0ac6 07be
000001b0: 75a2 2abe 6271 f0bd 3f2b 33ba 6953 a5bd
000001c0: 1db3 51bd 7e18 40be dcba ffbd 518f 4abd
000001d0: fdd8 bebc e09c a5bd bd27 eabd ef92 9bbc
000001e0: cb8e b33d e0d3 23bd 002d 52bd 9e25 48be
000001f0: ca16 80bd 301e 8b3e 67d4 163d 175c c63d
00000200: 1bc7 18be d69e d03d a089 0b3d ee08 9bbc
00000210: e1f1 4ebe 442b 04be 7888 3dba 9f7a e8bc
00000220: 4dfa 973c 2084 193d a6eb f3bd db27 1a3d
00000230: 4af4 dbbd 24df 953e 3258 1cbe 9584 cbbd
00000240: dcc0 06bd 325d a23d e2f2 fb3d ad30 f0bd
00000250: 594a 98bd 2ea5 dcbd 2ba4 203e 1c53 3b3e
00000260: 652b a5bd eb3a cdbd 77dd a4bd d582 e1bb
00000270: de8e 25be f260 fdbd 458b 98bc bc74 5c3d
00000280: 3294 043c 71ce 203e 34bd afbd 8203 d3bd
00000290: 84c6 90bd 1d00 f0bd 0809 c33c b89e 15be
000002a0: 5519 d9bc 4baa 86bd 1440 9e3e a730 b03b
000002b0: cd47 073d a8bf 153c dc3f b5bd 3327 7e3c
000002c0: af17 a93c 9b7e dcbd 5f41 3fbe b952 90bc
000002d0: ed3e bcbd 2637 9dbc db1d 16bd 568c 8bbe
000002e0: 6f54 d1bd 2e6b 50ba 34a9 39be 9e34 ba3c
000002f0: f68f 30be 42be 8cbe 24db 93bd 6f98 98bd
00000300: 67aa 433d 2982 43be 6ae5 47bb e0d1 36bc
00000310: 2d95 2dbe bbd0 ecbd 844f 0abe 7102 09be
00000320: cf61 503e edb4 22bd 5717 2a3e 6005 52bd
00000330: ea21 483c 6b85 f13c f4d6 83bd a61b 3dbe
00000340: 1aa0 a8bd 1db9 f5bc 76dd e43d 5ae4 fbbc
00000350: b5ba b4bd a95b 2ebe 1cd1 20bd 8f8b fd3d
00000360: 2cc3 9d3d 997f 6d3d 7c9d 4a3d 802b a73c
00000370: aca6 c43d bf65 453d 6f40 f3ba 88c8 1dbe
00000380: 66ad 60bd 340d d5bd 2656 c43d 7a92 65bd
00000390: 5e18 9fbd 1b93 f8bd 921a bd3e 50d4 2dbe
000003a0: 01e7 92bb e2c2 963d a9b2 d8bd db66 7fbd
000003b0: 4017 9b3d 2ce9 d7bd b35a 30be 299d febc
000003c0: b69d 4a3d fee7 913d 3bea 8d3c c39c 32be
000003d0: 7a74 cb3c 9dd9 053e 09ce dcbb da3b eabd
000003e0: 21fe 2bbe dfa2 1fbe 0681 703e b824 863d
000003f0: fcbf 3f3b 648a 7fbd f07e 03be 874b d53d
0.15445521 0.24557315 -0.10867035 -0.043324947 -0.16458572 -0.033059873 0.041928586 0.049352832
-0.15793021 -0.08422015 0.1803511 0.01532744 -0.012441441 0.028266326 -0.026371246 -0.08485237
0.10450538 0.14925425 0.07834278 -0.08273785 0.06589816 -0.016918717 -0.10941283 -0.19560733
-0.12459291 -0.0068104905 0.12556848 -0.002476305 -0.15736948 -0.07607932 0.07036858 0.17513986
0.012539233 -0.037896585 -0.0028804059 -0.0067095226 0.089529544 -0.0073384605 -0.17881231 0.10394616
0.047632642 -0.025818886 -0.044050086 -0.013612689 -0.118079744 0.03557504 -0.1564068 -0.15711062
-0.040065218 -0.09344486 0.03506085 -0.1826322 -0.039522745 0.054895572 -0.036520317 -0.040983338
0.054928772 -0.09766112 -0.111706614 -0.0897885 0.065390766 0.002528374 0.06664101 -0.045538943
0.040463205 0.113682814 -0.090173654 -0.10486672 -0.12518974 -0.15352012 0.08615708 -0.08351497
-0.14966594 -0.041154366 0.0143333 -0.25852367 0.13593759 -0.17519748 -0.2507564 -0.067772925
0.27028137 -0.057746444 -0.12911801 0.013995572 -0.11278001 0.1395047 -0.050079763 -0.028321842
-0.1539338 -0.12636982 -0.12871586 0.08153886 0.014887785 0.016401624 0.03807807 -0.17677474
-0.1728642 -0.0698404 -0.12599556 0.03227454 -0.067527674 -0.002943962 -0.094406664 -0.12032954
-0.16735981 0.08696246 0.04340912 -0.1325914 -0.16663535 -0.11740376 -0.0006834752 -0.0807255
-0.051196206 -0.18759343 -0.124868125 -0.049453083 -0.023296827 -0.08086562 -0.11433361 -0.018990962
0.0876747 -0.03999698 -0.051312447 -0.195456 -0.06254347 0.2717147 0.036823656 0.096855335
-0.14919703 0.101865456 0.034066796 -0.018925156 -0.20209457 -0.1290713 -0.0007230113 -0.028378783
0.01855197 0.03747952 -0.11910181 0.037635665 -0.10739954 0.29271805 -0.15268019 -0.099373974
-0.03289877 0.07927932 0.123021856 -0.11728034 -0.07436056 -0.10773693 0.15687625 0.18293422
-0.080649175 -0.10021003 -0.080500536 -0.0068820515 -0.16167781 -0.123720065 -0.018621096 0.053822264
0.008091973 0.15703751 -0.085810095 -0.103034034 -0.07069114 -0.117187716 0.023808017 -0.14611328
-0.026501337 -0.065754496 0.30908263 0.0053768936 0.03302746 0.009139933 -0.08850071 0.0155122755
0.020641176 -0.107663356 -0.18677281 -0.01761757 -0.0919169 -0.019191336 -0.036649566 -0.27255505
-0.102211826 -0.00079505413 -0.18130952 0.022730168 -0.17242417 -0.27488905 -0.07219532 -0.074509494
0.04776993 -0.19092621 -0.0030501732 -0.011158437 -0.16951437 -0.1156325 -0.13506895 -0.13379838
0.20349811 -0.039723326 0.16610466 -0.051274657 0.012215117 0.029482564 -0.064374834 -0.18467578
-0.08233662 -0.029995495 0.11175053 -0.030748535 -0.08824674 -0.17027153 -0.039261922 0.12380134
0.07703242 0.057983015 0.049466595 0.020406485 0.09602103 0.048192736 -0.0018558631 -0.15408528
-0.054852866 -0.10402909 0.09586744 -0.056047894 -0.077683195 -0.12137433 0.36934334 -0.16975522
-0.004483104 0.0736139 -0.10580952 -0.06235395 0.07572794 -0.10542521 -0.17222099 -0.0310808
0.04946681 0.07124327 0.017323604 -0.17442612 0.024835814 0.13071294 -0.0067384285 -0.11437197
-0.16796161 -0.15589474 0.23486719 0.06549972 0.0029258719 -0.06238784 -0.12841392 0.10414796
