Lab2/deep_best_elu.pth (torch_old, 611504 bytes, 28 tensors)

layer1.0.weight f4 [25, 1, 1, 5]
0	0x3ef059af	0.46943423
1	0x3e6913f8	0.22761524
2	0xbef4dbde	-0.47823995
3	0xbe2562c5	-0.16150959
4	0x3e5e128a	0.2168676
5	0xbce023de	-0.027360853
6	0xbeba1d9d	-0.36350718
7	0x3f113598	0.567224
8	0x3d7ef06a	0.062240995
9	0xbeb7b2f6	-0.35878724
10	0xbd8564e0	-0.06513381
11	0x3d7994bf	0.06093287
12	0xbc2388eb	-0.009981374
13	0x3e2dae5d	0.16961046
14	0x3d01dbe3	0.03170384
15	0x3df91ee6	0.121640965
16	0xbec9a885	-0.39386383
17	0x3eee4861	0.46539596
18	0x3eb522c8	0.35378098
19	0xbf0796ec	-0.52964664
20	0xbe1535c6	-0.14571294
21	0xbd615f9d	-0.055022825
22	0xbd07de1f	-0.033170816
23	0xbd9bfaf1	-0.07616223
24	0xbd871082	-0.065949455
25	0x3e953b2d	0.2914671
26	0xbf2a8a94	-0.66617703
27	0x3e701f8b	0.23449533
28	0x3f57ab6a	0.8424593
29	0xbf339d50	-0.70161915
30	0x3d30727b	0.043077927
31	0x3d0f7434	0.03502293
32	0xbdd9a1e7	-0.106265835
33	0xbe0078bd	-0.12546058
34	0x3da13287	0.078709655
35	0xbd20cf39	-0.039260123
36	0x3efe54bb	0.4967402
37	0xbeff24b8	-0.49832702
38	0xbe8939b3	-0.26801834
39	0x3e67a01b	0.22619669
40	0xbf20d831	-0.6282988
41	0x3e8bf3ae	0.2733435
42	0x3d003b58	0.031306595
43	0xbe3bd6b2	-0.18343619
44	0x3d698719	0.057013605
45	0xbd34dda5	-0.04415669
46	0xbef5317e	-0.47889322
47	0xbd0e7578	-0.034779996
48	0x3e3e7cf9	0.18602361
49	0x3d51090b	0.051034015
50	0xbe1c9517	-0.15291248
51	0xbd022c13	-0.031780314
52	0x3ef54031	0.47900537
53	0x3ea2f9ff	0.31831357
54	0xbf24f352	-0.6443378
55	0xbed56d71	-0.4168506
56	0x3f37b193	0.7175533
57	0xbe73f570	-0.23824096
58	0xbedc674f	-0.43047568
59	0x3e8e0ec7	0.2774565
60	0x3e631a26	0.22177944
61	0x3e9fe29b	0.31227574
62	0xbe0a74ca	-0.13521114
63	0xbedea549	-0.43485478
64	0xbd9ba4d2	-0.07599796
65	0x3f2f91c8	0.6858182
66	0xbf0cfdde	-0.5507487
67	0x3db14335	0.08655397
68	0x3e908844	0.28228962
69	0xbe1f58d9	-0.15561236
70	0x3e97bb80	0.2963524
71	0x3e92d80a	0.2868045
72	0xbf4b4eaa	-0.79416907
73	0xbdc8a0f3	-0.097963236
74	0x3eb8c9c5	0.36091438
75	0x3da7ae0d	0.081874944
76	0xbda9e1c1	-0.08295012
77	0x3ea747cb	0.3267196
78	0xbe9893ba	-0.29800206
79	0x3d63c30d	0.055605937
80	0xbe95601b	-0.29174885
81	0x3f39b0b2	0.7253524
82	0xbe7a886d	-0.24466105
83	0xbeede391	-0.46462682
84	0x3de3eecd	0.11129532
85	0xbef8cbd5	-0.48593011
86	0x3e263fb7	0.16235243
87	0x3f1e37b7	0.61803764
88	0x3e6dee20	0.23235369
89	0xbf2c912f	-0.6740903
90	0xbeb06bd7	-0.34457275
91	0x3eb1b894	0.34711134
92	0xbdc78ecb	-0.097440325
93	0xbd7f0163	-0.06225718
94	0x3e70cde1	0.23516037
95	0x3ebf6e74	0.37388957
96	0xbe8b69cd	-0.27229157
97	0xbd864192	-0.06555475
98	0xbea6cf46	-0.32580012
99	0x3eb9a895	0.3626143
100	0xbf190f41	-0.597889
101	0xbcd59e25	-0.026076386
102	0x3ca99508	0.020700946
103	0x3f355fa5	0.70849067
104	0xbf0d5634	-0.5520966
105	0x3eb5d60c	0.35514867
106	0xbf1abd4a	-0.6044508
107	0x3e968fe1	0.29406646
108	0x3d92eadf	0.07173704
109	0x3e388ea0	0.18023157
110	0xbe7dfee8	-0.2480427
111	0xbde9f818	-0.11424273
112	0xbe871fc3	-0.2639142
113	0xbd1d9ff2	-0.038482614
114	0x3ef6b3f9	0.48184183
115	0xbf2924a3	-0.6607153
116	0x3f2d850d	0.67781144
117	0xbdaaebe8	-0.08345777
118	0xbdd6d9b0	-0.10490739
119	0x3d8ea9f2	0.06966008
120	0xbeb022d2	-0.34401566
121	0xbdd8cfce	-0.105865106
122	0x3f21b616	0.63168466
123	0x3ee1ffb0	0.44140387
124	0xbf48f59b	-0.78499764

layer1.0.bias f4 [25]
0	0xbdad92ff	-0.08475303
1	0x3e6272d8	0.22114122
2	0xbe189a9c	-0.14902729
3	0x3dc0aaac	0.09407553
4	0xbe703bfb	-0.2346038
5	0xbe9f388a	-0.31097823
6	0x3e34ac15	0.17643769
7	0xbec179d1	-0.3778825
8	0x3db5c142	0.088747516
9	0x3ead2e6f	0.3382449
10	0xbdd1cfba	-0.10244699
11	0xbe2a65af	-0.16640352
12	0x3e63cb39	0.22245492
13	0xbc41a806	-0.011819845
14	0xbe956b27	-0.29183313
15	0x3d2739ba	0.040826537
16	0x3e815475	0.25259748
17	0x3ef70e43	0.48253068
18	0xbde3ae9c	-0.111172885
19	0xbec62e1d	-0.38707057
20	0x3dcac0dd	0.09900067
21	0x3e8b5b25	0.27217975
22	0xbe3d6af9	-0.18497838
23	0x3e875abe	0.26436418
24	0x3e9212cc	0.28529966

layer1.1.weight f4 [25, 25, 2, 1]
0	0x3d9434cf	0.07236635
1	0xbe702a76	-0.23453698
2	0xbddaa418	-0.1067583
3	0x3ebaa113	0.36451015
4	0x3d9aee44	0.07564977
5	0x3b855699	0.004069161
6	0xbe21763d	-0.1576776
7	0x3ea9989f	0.33124253
8	0x3db35080	0.087555885
9	0xbabaa762	-0.0014240558
10	0xbe33fa9b	-0.17576067
11	0x3f8a5d7a	1.0809777
12	0xbd8e2726	-0.06941061
13	0xbd009767	-0.03139439
14	0x3d9543ed	0.072883464
15	0xbeaeb29f	-0.34120652
16	0xbd830da7	-0.06399088
17	0xbd39cb24	-0.045359746
18	0x3db367dd	0.08760045
19	0x3d8d2dcd	0.068935014
20	0xbdf3d0c9	-0.11905057
21	0x3e859e35	0.26097265
22	0xbd6b3e39	-0.057432387
23	0xbf0446d7	-0.51670593
24	0xbd8b1706	-0.06791501
25	0xbe745f59	-0.23864497
26	0xbd30e0e8	-0.043183237
27	0x3daf9ba7	0.0857461
28	0x3de68475	0.11255733
29	0xbf1e8296	-0.6191801
30	0xbe4c0a3e	-0.19925782
31	0xbe3eab56	-0.18620047
32	0xbd3cee64	-0.046125785
33	0xbf348483	-0.70514697
34	0xbe4c12e5	-0.19929083
35	0x3e9df4e9	0.30850914
36	0xbcaf5050	-0.0214006
37	0xbe1bcdb5	-0.1521519
38	0xbe1987b6	-0.14993176
39	0xbe1a1c05	-0.15049751
40	0x3dd0f8b9	0.1020369
41	0x3e0bdc70	0.13658309
42	0xbcba001d	-0.022705132
43	0x3e914e1f	0.28379914
44	0x3d16fe55	0.036863644
45	0xbdf4d1f0	-0.11954105
46	0x3e7385fa	0.23781577
47	0xbe80ddf9	-0.25169352
48	0xbe1b7e89	-0.15184988
49	0x3f08165c	0.5315912
50	0x3c815b89	0.015790718
51	0x3cc54ad6	0.024083536
52	0xbcb0c934	-0.021580316
53	0xbe3112e7	-0.17292367
54	0x3d97c331	0.07410277
55	0xbd11e521	-0.035618905
56	0x3d2ea0e3	0.042633902
57	0xbe29d177	-0.16583811
58	0xbdda7423	-0.106666826
59	0x3bb51eeb	0.0055273673
60	0x3e1afdc5	0.15135868
61	0xbf904f2d	-1.1274163
62	0xbc297861	-0.010343642
63	0xbdcc1efb	-0.099668466
64	0xbcdb8ba5	-0.026799986
65	0x3c27d5e0	0.010243863
66	0xbe3feabe	-0.18741891
67	0x3e17fff8	0.14843738
68	0x3d95a3ff	0.073066704
69	0xbe0b413e	-0.13599107
70	0xbd672c6d	-0.056438852
71	0xbdcdb25b	-0.10043784
72	0xbe057233	-0.13031845
73	0x3f401b08	0.75041246
74	0x3e04fc7a	0.12986937
75	0x3d8aece2	0.06783463
76	0x3e01025f	0.12598561
77	0xbede5ef2	-0.43431813
78	0x3daf3909	0.085558005
79	0xbd3e6f23	-0.046492707
80	0x3e475caa	0.19468942
81	0x3eca15da	0.39469796
82	0xbde44344	-0.111456424
83	0x3f1ac0ee	0.6045064
84	0xbda06595	-0.07831875
85	0x3e7bb104	0.24579245
86	0xbe3a8d50	-0.18217969
87	0x3e9dcece	0.30821842
88	0xbbe96921	-0.007123128
89	0xbe2622f9	-0.16224279
90	0xbd704440	-0.05865884
91	0xbdb8de18	-0.09026736
92	0x3e239aea	0.15977064
93	0xbda53fc7	-0.08068805
94	0xbdf8837b	-0.12134453
95	0x3c0877bf	0.008329331
96	0xbd591eec	-0.053008005
97	0x3f259010	0.64672947
98	0x3e2daa98	0.16959608
99	0x3dff22d3	0.12457814
100	0x3af0e4a1	0.0018378684
101	0x3e81b8ce	0.25336307
102	0xbcb69cbf	-0.02229154
103	0x3c9abd87	0.018889202
104	0xbe0f0ceb	-0.13969772
105	0x3dee354e	0.11631261
106	0xbdf8d053	-0.1214911
107	0x3e04ba46	0.12961683
108	0x3de6c776	0.11268513
109	0xbe9d9648	-0.30778718
110	0xbf08bbd0	-0.5341158
111	0x3d351a46	0.04421451
112	0x3e1a2d16	0.15056261
113	0xbe2ec44f	-0.17067073
114	0x3e632283	0.22181134
115	0xbdff35d6	-0.1246144
116	0x3e78ddbd	0.24303336
117	0xbe6eae65	-0.23308714
118	0xbe0d8832	-0.13821486
119	0xbe12b8ad	-0.1432826
120	0xbd628c25	-0.055309433
121	0x3dbdb5ac	0.09263167
122	0x3eccab95	0.39974657
123	0xbe99ce89	-0.30040386
124	0x3e8661d2	0.26246506
125	0xbe8b1470	-0.2716403
126	0xbeb7a2ab	-0.35866293
127	0x3eb7b05c	0.3587674
128	0x3db05c94	0.08611408
129	0x3d8530df	0.06503462
130	0xbda6b8a3	-0.081406854
131	0x3e5bcec5	0.21465595
132	0x3ed3db01	0.41378024
133	0xbee15841	-0.44012645
134	0xbd408702	-0.047003753
135	0x3e5fe0f4	0.21863157
136	0x3d33ea3a	0.043924548
137	0x3e6ff1f0	0.23432136
138	0x3c38c252	0.011276798
139	0x3dd8f8cb	0.105943285
140	0x3e28f002	0.16497806
141	0xbeaf30c2	-0.34216887
142	0xbe6f4df8	-0.23369586
143	0x3ed0a63c	0.40751827
144	0x3d564e30	0.05232066
145	0xbe62e4f9	-0.22157659
146	0x3ea9d551	0.3317056
147	0xbecf9bad	-0.4054846
148	0xbe29fb16	-0.16599688
149	0x3cd869fa	0.026417721
150	0xbe8e8b75	-0.27840772
151	0x3e143dd1	0.14476706
152	0x3eab165f	0.33415505
153	0xbe8db30c	-0.27675664
154	0xbe311090	-0.17291474
155	0x3d972988	0.07380968
156	0x3e63b0ec	0.22235459
157	0xbd469884	-0.048485294
158	0x3da5c9d8	0.08095139
159	0xbe3773ea	-0.17915311
160	0x3eb82aa9	0.35970047
161	0xbdadc4e7	-0.08484822
162	0x3d5d7df8	0.05407521
163	0xbe48dc95	-0.19615395
164	0xbdc068ba	-0.09394975
165	0x3c215651	0.00984724
166	0x3c1c6758	0.009546123
167	0xbd5b974c	-0.053611085
168	0x3e2e1239	0.16999139
169	0xbd00878a	-0.03137926
170	0x3e87bc58	0.26510882
171	0x3d8035a1	0.06260229
172	0xbe0ea129	-0.13928665
173	0x3cbb0b5b	0.022832563
174	0x3d46e432	0.048557468
175	0xbe5f26a0	-0.21792078
176	0x3dab4735	0.08363191
177	0xbba048ef	-0.004891507
178	0xbea15b30	-0.31514883
179	0x3e94c181	0.29053882
180	0xbdf74d02	-0.12075235
181	0xbdab9f7e	-0.0838003
182	0x3c254610	0.010087505
183	0xbd9d08dc	-0.076677054
184	0x3ea0400f	0.31298873
185	0xbdec8fbd	-0.115508534
186	0xbd8a0cba	-0.06740709
187	0x3cd1299e	0.02553254
188	0xbea01bda	-0.3127125
189	0x3de4da25	0.1117442
190	0x3ebf41a1	0.37354758
191	0xbe0b0b27	-0.13578473
192	0xbd2980e5	-0.04138269
193	0x3e06aba4	0.13151413
194	0xbd814c50	-0.063133836
195	0x3d8c77a4	0.06858757
196	0x3e4b0741	0.19826986
197	0xbe0d4aa0	-0.13797998
198	0x3f033a40	0.5126076
199	0xbe7ba32c	-0.24573964
200	0xbe1849d0	-0.14871907
201	0xbe942918	-0.28937602
202	0xbcc6f656	-0.024287384
203	0xbce81da1	-0.02833444
204	0x3dacdc98	0.084405124
205	0xbddb9046	-0.10720877
206	0x3d2b5de5	0.04183759
207	0xbe300f7d	-0.17193408
208	0x3da9f051	0.0829779
209	0x3e83bd5b	0.25730404
210	0x3df615f1	0.12015904
211	0xbf37a1b4	-0.71731114
212	0x3d6fea2c	0.058572933
213	0x3e09163d	0.1338739
214	0xbc8c606e	-0.017135825
215	0x3de0c65f	0.10975336
216	0x3d3a787e	0.045525067
217	0x3ecda82f	0.40167376
218	0x3df0cd04	0.117578536
219	0x3c05828c	0.008148801
220	0xbd59db60	-0.053187728
221	0xbd07f5c2	-0.033193357
222	0xbd2e2512	-0.04251582
223	0x3e9c9192	0.3057981
224	0xbc538d35	-0.012912084
225	0x3df06995	0.11738888
226	0xbdd9d93f	-0.106371395
227	0xbea4d3d2	-0.32192856
228	0xbe1dce3d	-0.15410705
229	0xbe8b269a	-0.27177888
230	0x3d0cab26	0.034342907
231	0x3da7ef26	0.08199911
232	0xbb5afc5b	-0.0033414576
233	0x3eae086d	0.33990803
234	0x3c963302	0.01833487
235	0x3ddacb94	0.10683361
236	0x3d3c65e6	0.045995615
237	0x3d042d75	0.032269914
238	0x3b9082dd	0.0044101314
239	0xbdc0ca92	-0.09413637
240	0xbdd108e9	-0.102067776
241	0x3e11c479	0.14235105
242	0xbab426af	-0.0013744439
243	0xbe65787c	-0.22409242
244	0xbcbf5173	-0.023354268
245	0x3dbf1b83	0.09331419
246	0x3dabc86b	0.08387836
247	0x3f465f59	0.7748924
248	0x3d4d9111	0.050187174
249	0xbd5011f4	-0.05079837
250	0xbe6bc348	-0.23023713
251	0x3e77fa02	0.24216464
252	0x3d6f4dc7	0.058423784
253	0xbe3cde05	-0.18444069
254	0x3950c909	0.00019911317
255	0x3c53dd97	0.012931249

layer1.1.bias f4 [25]
0	0x3e1d1462	0.15339807
1	0x3d1c0953	0.03809483
2	0xbdaaaeee	-0.083341464
3	0x3d9b443a	0.075813726
4	0xbd701b42	-0.058619745
5	0x3e21ac74	0.15788442
6	0x3ddb0f61	0.10696293
7	0xbd98fe98	-0.07470435
8	0x3df338fa	0.11876102
9	0x3d809316	0.062780544
10	0x3e3e2fc9	0.18572916
11	0xbe3dd7f4	-0.18539411
12	0xbd77ed27	-0.0605289
13	0xbdf5aadb	-0.11995479
14	0xbde63d65	-0.11242179
15	0x3d7ec64b	0.062200826
16	0xbd83c6ae	-0.064343795
17	0xbd04e895	-0.03244837
18	0xbd0db321	-0.03459466
19	0xbdbf40e7	-0.09338551
20	0xbd9bcc34	-0.07607308
21	0xbe71f241	-0.23627569
22	0x3dc56f52	0.09640373
23	0xbe19690e	-0.14981481
24	0x3dc05bb9	0.09392495

layer1.2.weight f4 [25]
0	0x3f721972	0.94570076
1	0x3f9bfb38	1.2186041
2	0x3f861ca0	1.0477486
3	0x3f80a9dc	1.0051837
4	0x3f8804c5	1.0626456
5	0x3f67ca8e	0.9054345
6	0x3f8cb583	1.0992893
7	0x3f80f376	1.0074298
8	0x3f7f8ddd	0.9982584
9	0x3f5e9a15	0.8695386
10	0x3f9c18a7	1.2195023
11	0x3f602343	0.87553805
12	0x3f6de957	0.92934173
13	0x3f8cc438	1.0997381
14	0x3f81990e	1.0124834
15	0x3f916563	1.1359066
16	0x3f6d4893	0.92688864
17	0x3f874b5a	1.056987
18	0x3f823da7	1.0175065
19	0x3f60179d	0.8753603
20	0x3f6f4fcf	0.93481153
21	0x3f7e20e5	0.99268943
22	0x3f7b0ce8	0.9806657
23	0x3f8fd789	1.1237651
24	0x3f7b4cf5	0.981643

layer1.2.bias f4 [25]
0	0xbed994aa	-0.42496234
1	0xbe9d3869	-0.307071
2	0xbea54494	-0.32278883
3	0xbe937799	-0.28802183
4	0xbee4ce96	-0.44688863
5	0xbea5e354	-0.324
6	0xbe3518ed	-0.1768529
7	0xbe8ef0c0	-0.27918053
8	0xbe8c876a	-0.27447063
9	0xbe91c7b4	-0.28472674
10	0xbf2edf3c	-0.6830938
11	0xbec4ff6d	-0.38476124
12	0xbe8b7706	-0.27239245
13	0xbe827d4c	-0.2548622
14	0xbec5f617	-0.38664314
15	0xbef06080	-0.46948624
16	0xbe9b0f88	-0.30285287
17	0xbf0f5190	-0.5598383
18	0xbea823e6	-0.32839888
19	0xbf03d24a	-0.5149275
20	0xbe88fabe	-0.267538
21	0xbf0905f2	-0.53524697
22	0xbf0abb31	-0.5419188
23	0xbea23348	-0.3167975
24	0xbee09cbb	-0.43869576

layer1.2.running_mean f4 [25]
0	0x3ed4ab91	0.41537145
1	0x3f4284c1	0.75983816
2	0xbe17d8bd	-0.14828773
3	0x3eba15b1	0.36344674
4	0x3f172a9e	0.59049404
5	0x3e90d60a	0.282883
6	0xbd23fa24	-0.040033475
7	0xbf52a30e	-0.8228005
8	0x3e86a7c8	0.26299882
9	0xbf083fcb	-0.5322234
10	0x3f349b6c	0.70549655
11	0xbf268540	-0.65047073
12	0xbf368c45	-0.71307784
13	0x3d605eb9	0.054777835
14	0x3dec3f88	0.11535555
15	0xbe82796e	-0.25483268
16	0xbf2fec89	-0.687203
17	0xbf1ceb3b	-0.61296433
18	0xbec6ac71	-0.38803437
19	0xbf219c16	-0.63128793
20	0x3ec0741c	0.37588584
21	0xbf4f40c2	-0.8095819
22	0x3eb6e04d	0.35718003
23	0xbf24f046	-0.6442913
24	0x3e1b4582	0.15163234

layer1.2.running_var f4 [25]
0	0x429751a9	75.65949
1	0x41c7ff02	24.999516
2	0x41ecd12b	29.602133
3	0x4209c83d	34.445545
4	0x421fe96d	39.977955
5	0x420ecbcf	35.69903
6	0x42331cf2	44.778267
7	0x42972673	75.575096
8	0x423ba467	46.91055
9	0x420a05f7	34.505825
10	0x422ba760	42.913452
11	0x42a2db4b	81.42831
12	0x426a414f	58.563778
13	0x428ace78	69.40326
14	0x425a287e	54.539543
15	0x41d331ad	26.399256
16	0x42c0302c	96.094086
17	0x423061e3	44.095592
18	0x424e5e8b	51.592327
19	0x42560f3a	53.51487
20	0x41c6010e	24.750515
21	0x4292935e	73.28783
22	0x41d5f937	26.746687
23	0x41f02dad	30.022303
24	0x422126c4	40.287857

layer2.0.weight f4 [50, 25, 1, 5]
0	0xbdbc04ec	-0.09180626
1	0xbe484ad8	-0.195598
2	0x3d5fced3	0.054640602
3	0xbdac2279	-0.08405013
4	0xbe043746	-0.1291171
5	0x3e1842e7	0.14869271
6	0xbd5d4da5	-0.054029126
7	0xbe25ace4	-0.16179234
8	0x3e867655	0.26262155
9	0xbe349fde	-0.1763911
10	0xbea219b5	-0.31660238
11	0xbf0c84c5	-0.5489009
12	0xbf0af25f	-0.5427608
13	0xbebbe20a	-0.36695892
14	0xbe9b25dd	-0.30302325
15	0xbde73caa	-0.112908676
16	0xbe4c3b45	-0.19944485
17	0xbe809f99	-0.25121763
18	0xbdbbd88b	-0.09172162
19	0x3d770510	0.060307562
20	0x3e8c9536	0.2745759
21	0xbe55c4a0	-0.20875788
22	0x3db7382a	0.08946259
23	0x3dc5d796	0.096602604
24	0xbe188fd2	-0.14898613
25	0xbe86d00a	-0.26330596
26	0xbe78f943	-0.24313836
27	0xbe6e05f2	-0.23244455
28	0xbe3d03a1	-0.18458416
29	0xbb5475ce	-0.003241885
30	0xbe431e39	-0.19054498
31	0xbb3765bd	-0.0027984225
32	0xbd350210	-0.04419142
33	0x3e7ea796	0.24868616
34	0xbe16504f	-0.14679073
35	0xbe8c967d	-0.27458563
36	0x3da7dfd2	0.08196987
37	0x3be6a2cc	0.00703845
38	0xbdb56b15	-0.08858315
39	0xbd29c74f	-0.04144984
40	0x3d425e7b	0.047453385
41	0xbe895bfc	-0.2682799
42	0x3ca9fa8b	0.020749351
43	0xbe8aba56	-0.27095288
44	0xbd3eb8e4	-0.046563044
45	0xbe351bf0	-0.17686439
46	0xbdbc039d	-0.09180377
47	0xbe51e655	-0.20498021
48	0xbc08e6f0	-0.008355841
49	0xbe74c9f8	-0.2390517
50	0xbef79074	-0.48352396
51	0xbe6ab96a	-0.22922292
52	0xbe10aa27	-0.14127408
53	0xbd26ceb8	-0.040724486
54	0xbdb6ced6	-0.089261696
55	0xbe990006	-0.2988283
56	0xbe116c95	-0.14201577
57	0xbdde6a8f	-0.10860168
58	0xbd059434	-0.03261204
59	0xbd35d559	-0.044392917
60	0xbea51992	-0.3224607
61	0xbd8cb55b	-0.06870528
62	0x3d60b511	0.05486018
63	0x3ceb41eb	0.028717956
64	0x3d1468d0	0.03623277
65	0x3e23762a	0.15963045
66	0xbe99c0f3	-0.3003002
67	0x3e1af0c0	0.15130901
68	0xbd6fda5b	-0.05855785
69	0x3cbd98c5	0.023144135
70	0x3e8dc010	0.27685595
71	0xbdd323ed	-0.10309587
72	0x3cd4d73e	0.025981542
73	0x3d7fbfc8	0.062438756
74	0x3d95e70a	0.07319458
75	0xbec004d0	-0.37503672
76	0xbe8becd0	-0.2732911
77	0xbed8781c	-0.42279136
78	0xbecf4f5a	-0.40490228
79	0xbe750530	-0.2392776
80	0xbea54353	-0.32277927
81	0x3c33a4eb	0.0109646125
82	0x3e386386	0.18006715
83	0x3d8d432a	0.06897576
84	0xbd2b8f08	-0.041884452
85	0xbea14ad0	-0.3150239
86	0xbe7af624	-0.24507958
87	0xbd69602c	-0.056976482
88	0xbd16a33d	-0.03677677
89	0x3d960b27	0.07326346
90	0xbeb63a97	-0.35591576
91	0xbc830b4d	-0.0159966
92	0xbde027a5	-0.109450616
93	0xbdcf62b9	-0.10126252
94	0x3e342556	0.17592368
95	0xbe5c3465	-0.21504362
96	0xbdaffd9c	-0.08593294
97	0x3e4640ce	0.19360659
98	0xbb8f3e54	-0.0043714438
99	0x3dbda9dd	0.092609145
100	0x3dfc7a4b	0.12328013
101	0xbe7329f4	-0.23746473
102	0x3cf2c9f9	0.029637324
103	0xbe8002f5	-0.25002256
104	0xbd9b3c4c	-0.0757986
105	0xbea24fe8	-0.3170159
106	0xbe4afb85	-0.1982251
107	0xbe0a293e	-0.13492295
108	0xbe0c9207	-0.1372758
109	0xbe3ef435	-0.18647845
110	0x3e289942	0.16464713
111	0xbe902492	-0.281529
112	0x3df33717	0.11875742
113	0xbe7d4fd1	-0.24737479
114	0x3e2a7b3e	0.16648576
115	0xbec6e4d7	-0.38846466
116	0x3dcf8bef	0.10134112
117	0x3e7de094	0.24792701
118	0x3dcb99ab	0.09941419
119	0xbc0c6490	-0.008568898
120	0xbdc942d5	-0.098272
121	0xbe0dff9f	-0.13867043
122	0xbe4fd515	-0.20296128
123	0xbe2824ee	-0.16420338
124	0x3d4fb53c	0.050709948
125	0xbb74a579	-0.0037330075
126	0xbe41188b	-0.18857019
127	0x3ca5d0a7	0.020241095
128	0xbded4c5f	-0.11586832
129	0x3e5825ef	0.2110822
130	0xbdba2ff3	-0.09091177
131	0x3d962859	0.073319145
132	0xbd84a164	-0.06476095
133	0xbe1a33fe	-0.15058896
134	0xbe8ac8de	-0.27106375
135	0x3e3d1361	0.18464424
136	0x3de75775	0.11295978
137	0x3e0102b5	0.12598689
138	0x3e6934d7	0.22774063
139	0xbe0ec294	-0.13941413
140	0x3e6dcfe2	0.23223832
141	0xbd6f5760	-0.058432937
142	0xbc526395	-0.012841125
143	0x3df01617	0.11722963
144	0xbdae28bd	-0.08503864
145	0xbdd3f4a8	-0.10349399
146	0x3ebb576b	0.36590132
147	0xbe16eb58	-0.14738214
148	0xbdc51dba	-0.096248105
149	0xbcba2050	-0.022720486
150	0xbcce0fb2	-0.025153968
151	0xbddbacb5	-0.107263006
152	0x3d3b97a4	0.045798913
153	0x3dd622dc	0.10455868
154	0xbde99c96	-0.114068195
155	0xbd93bd11	-0.07213796
156	0x3d3443c4	0.04400994
157	0xbdcecb74	-0.10097399
158	0x3d89aa7c	0.067219704
159	0xbeb39795	-0.35076585
160	0xbd542520	-0.051793218
161	0xbe4e11fc	-0.20124048
162	0xbdf35361	-0.11881138
163	0x3d0291f9	0.03187749
164	0x3c8e200f	0.017349271
165	0x3e3775c0	0.17916012
166	0xbc033faf	-0.008010789
167	0xbe23a75c	-0.15981811
168	0xbd17543d	-0.03694557
169	0x3d8e194d	0.069384195
170	0x3db218fd	0.086961724
171	0xbe0b00fe	-0.13574597
172	0x3e31bf77	0.17358194
173	0x3c9e9895	0.019359866
174	0xbe07679d	-0.13223119
175	0x3d08bdd4	0.03338416
176	0x3dbfbc18	0.09362048
177	0x3d62d76b	0.05538122
178	0xbe981e4f	-0.29710624
179	0xbe94451c	-0.28958976
180	0xbe174fcb	-0.14776532
181	0xbe49505c	-0.19659561
182	0xbda42c8e	-0.08016311
183	0x3dd0e78e	0.102004156
184	0xbdbac86e	-0.0912026
185	0xbe30fff0	-0.17285132
186	0xbe27e623	-0.16396384
187	0x3dcade2c	0.09905657
188	0x3e182c20	0.14860582
189	0x3da7ec31	0.08199347
190	0xbdf75947	-0.12077575
191	0xbda842c5	-0.0821586
192	0xbd9b6b9a	-0.07588883
193	0xbdfe3165	-0.12411765
194	0x3e90b0e9	0.28259972
195	0xbe6c1fb0	-0.23058963
196	0x3dc601c8	0.096683085
197	0xbe8a5653	-0.27018985
198	0x3ad0c4ba	0.001592777
199	0xbd3d6175	-0.04623552
200	0x3b0929be	0.0020929421
201	0x3d3ff35b	0.04686294
202	0x3e5c5895	0.21518166
203	0xbd89250d	-0.0669652
204	0x3e76f865	0.24118192
205	0xbe46fa59	-0.19431438
206	0xbdb2eeab	-0.087369286
207	0x3c0fd84b	0.008779596
208	0xba15fec4	-0.0005721862
209	0xbe1a5e98	-0.15075147
210	0xbd3cc1a2	-0.0460831
211	0xbbd68996	-0.0065471632
212	0x3d6f18c1	0.058373217
213	0xbe80978d	-0.25115624
214	0xbdebf81c	-0.115219325
215	0x3e816b60	0.25277233
216	0x3b9c313a	0.0047666105
217	0x3d92f988	0.071765006
218	0xbce2c9ca	-0.027684111
219	0xbed71b16	-0.42012852
220	0xbc36988c	-0.011144768
221	0xbe345ef5	-0.17614348
222	0x3ad02e56	0.001588295
223	0x3d4c4fd7	0.04988083
224	0xbcb33a36	-0.021878343
225	0xbd707ef3	-0.05871482
226	0x3da58567	0.08082085
227	0xbd2dafda	-0.042404033
228	0xbdda6ea9	-0.10665638
229	0xbdf170e7	-0.117891125
230	0xbe12c012	-0.14331082
231	0x3c8c9108	0.017159
232	0xbe35a275	-0.17737754
233	0x3dc8fd6e	0.09813963
234	0xbe356070	-0.17712569
235	0xbe0d85e7	-0.13820611
236	0xbc2145f0	-0.009843335
237	0x3bdfc66a	0.0068290727
238	0xbd6d73ce	-0.057971768
239	0x3ba79cc6	0.0051151244
240	0x3d978069	0.07397539
241	0xbe7db63c	-0.24776548
242	0xbe5d1276	-0.21589074
243	0x3cdfb6fe	0.027308937
244	0xbec68b23	-0.38778028
245	0x3ce4654f	0.027880339
246	0xbdbcfd1f	-0.092279665
247	0xbd9c01df	-0.076175444
248	0x3df39b75	0.118948855
249	0xbcefbb30	-0.029264063
250	0xbdbcfbfc	-0.0922775
251	0xbdc2bf53	-0.095091484
252	0xbdaf1d0a	-0.08550461
253	0x3d916eab	0.07101186
254	0xbe926c3b	-0.28598198
255	0x3d7d3f86	0.06182816

layer2.0.bias f4 [50]
0	0xbdb21e23	-0.086971544
1	0xbd8bcb24	-0.068258554
2	0x3da3510d	0.079744436
3	0x3e3c4c39	0.18388452
4	0x3da320be	0.079652295
5	0x3d3dc031	0.046325866
6	0xbd859cec	-0.06524071
7	0xbe3d7bb3	-0.18504219
8	0xbd30c627	-0.043157723
9	0xbd9a696c	-0.07539639
10	0xbd445024	-0.04792799
11	0xbbd07cbb	-0.0063625253
12	0x3cee1a0e	0.029065158
13	0x3d958de9	0.07302458
14	0xbd870c70	-0.06594169
15	0x3d9d5ac6	0.07683329
16	0xbd2e1c1e	-0.042507283
17	0xbadc1e6d	-0.0016793736
18	0xbd98fea7	-0.07470446
19	0xbddd8a07	-0.10817342
20	0x3cb52eb0	0.022116989
21	0xbc525787	-0.012838251
22	0xbd22db85	-0.03976013
23	0x3e169347	0.1470462
24	0xbd199afb	-0.037501317
25	0x3d81413b	0.0631127
26	0x3c29932f	0.010350033
27	0xbcd18a16	-0.02557854
28	0x3d16346e	0.036671095
29	0x3cc63ed5	0.024199883
30	0x3d4a2270	0.04934925
31	0xbd350dd2	-0.044202633
32	0xbca90e90	-0.020636827
33	0x3c4cade8	0.012492634
34	0xb9984f59	-0.00029050818
35	0x3db06958	0.08613843
36	0xbddd7323	-0.10812976
37	0xbd584c72	-0.05280728
38	0x3d2e207b	0.042511445
39	0xbd28d851	-0.04122192
40	0x3d213706	0.039359115
41	0x3dce03cd	0.10059319
42	0x3d935e14	0.07195678
43	0x3d79b942	0.06096769
44	0x3d6579f8	0.05602452
45	0xbdd1b8d4	-0.10240331
46	0xbd19fc9d	-0.037594426
47	0xbcd89859	-0.026439833
48	0xbdad1cd8	-0.08452767
49	0x3c50e240	0.012749255

layer2.1.weight f4 [50]
0	0x3f9ef529	1.2418567
1	0x3f5b78cc	0.85731196
2	0x3f6254ad	0.88410455
3	0x3f74dec7	0.9565243
4	0x3f987be7	1.1912812
5	0x3f407465	0.75177604
6	0x3f824d75	1.0179888
7	0x3f665516	0.8997358
8	0x3f8d5789	1.1042339
9	0x3f97465a	1.1818345
10	0x3f518c30	0.81854534
11	0x3f8ee01b	1.1162142
12	0x3f61eb2b	0.8824946
13	0x3fa06350	1.2530308
14	0x3f8e6745	1.1125265
15	0x3f6b4270	0.9189825
16	0x3f9dd1da	1.2329667
17	0x3f4675a5	0.7752326
18	0x3f71ab51	0.94402033
19	0x3f8481d9	1.0352126
20	0x3f4e3fa3	0.8056585
21	0x3f83466b	1.0255865
22	0x3f82df63	1.0224422
23	0x3f8b9bd7	1.0906934
24	0x3f92eead	1.1479088
25	0x3f7a7b10	0.9784403
26	0x3f927e3c	1.1444774
27	0x3f88e110	1.0693684
28	0x3f871393	1.0552849
29	0x3f535318	0.82548666
30	0x3f901bed	1.1258522
31	0x3fa00b8c	1.2503524
32	0x3f93cb39	1.1546394
33	0x3f8e632c	1.1124015
34	0x3f499048	0.7873578
35	0x3f699054	0.9123585
36	0x3f89dbb8	1.0770178
37	0x3f58ddaf	0.8471326
38	0x3f8d7fc3	1.1054615
39	0x3f89654b	1.0734037
40	0x3fac8819	1.3479034
41	0x3f4c7dd6	0.7987951
42	0x3f84d48d	1.0377365
43	0x3f7f195e	0.9964808
44	0x3f850db0	1.0394802
45	0x3f817d6f	1.0116404
46	0x3f8b3373	1.0875076
47	0x3fa461e5	1.2842375
48	0x3f830397	1.023547
49	0x3f603ce9	0.8759294

layer2.1.bias f4 [50]
0	0xbf2f886a	-0.68567526
1	0xbeb830c4	-0.35974705
2	0xbedd4824	-0.432191
3	0xbc1a10af	-0.009403392
4	0xbecc5021	-0.39904884
5	0xbea840ee	-0.32862037
6	0xbe5f8032	-0.21826246
7	0xbf1ee5c8	-0.6206937
8	0xbf6cc1a2	-0.9248296
9	0xbf11e1d9	-0.5698524
10	0xbf8815b1	-1.063162
11	0xbf8b6ec6	-1.089318
12	0xbd901bbf	-0.07036542
13	0xbe6dd2bf	-0.23224925
14	0xbf01c4d9	-0.5069099
15	0xbfc754fb	-1.5572809
16	0xbe5dd2e4	-0.2166248
17	0xbec851fe	-0.39125055
18	0xbf0de12b	-0.55421704
19	0xbe8582f6	-0.26076478
20	0xbd1c3e72	-0.03814549
21	0xbeabff22	-0.33593088
22	0xbf97b33e	-1.1851575
23	0xbe781f7f	-0.24230765
24	0xbeefe0d6	-0.46851224
25	0xbe850ccb	-0.25986323
26	0xbf66f10c	-0.9021156
27	0xbf2afe03	-0.6679384
28	0xbf34566c	-0.7044437
29	0xbefde7af	-0.49590823
30	0xbe893388	-0.26797128
31	0xbef79fe1	-0.48364165
32	0xbf939f94	-1.1533074
33	0xbdad4678	-0.084607065
34	0xbe044ef5	-0.12920745
35	0xbf2e08c7	-0.67982143
36	0xbe8da78b	-0.27666888
37	0xbdc6bfcf	-0.09704553
38	0xbead6ab6	-0.33870476
39	0xbe94e5f9	-0.29081705
40	0xbec20a69	-0.37898567
41	0xbfbb60c6	-1.4638908
42	0xbf4aed81	-0.7926865
43	0xbec89fa1	-0.39184287
44	0xbf7dae91	-0.9909449
45	0xbf086d40	-0.532917
46	0xbf0f820b	-0.56057805
47	0xbed2f3ad	-0.41201535
48	0xbee72835	-0.45147863
49	0xbf2e54f1	-0.6809836

layer2.1.running_mean f4 [50]
0	0xbfa98b1d	-1.3245579
1	0xbf33f135	-0.7028993
2	0x3f131926	0.5746025
3	0x3c410efe	0.01178336
4	0xbf89548f	-1.072893
5	0xbf658a55	-0.896642
6	0xbfd0a511	-1.6300374
7	0x3e4c499c	0.19949955
8	0x3ec68099	0.38769987
9	0xbecba039	-0.39770678
10	0x3f4201d5	0.75784045
11	0x3f91029c	1.1328921
12	0x3ee3b6cb	0.44475397
13	0xbf17bd51	-0.5927325
14	0xbe450e5d	-0.1924376
15	0x3f8b8b53	1.0901893
16	0xbfa27b65	-1.2693907
17	0xbeb903ab	-0.3613561
18	0xbfc67416	-1.5504177
19	0xbfc4075f	-1.531475
20	0x3e46c11f	0.19409607
21	0x3e987ec1	0.29784206
22	0x3eba0bb4	0.36337054
23	0xbeb4dcf5	-0.35324827
24	0xbea7959b	-0.32731327
25	0xbe6b6999	-0.22989501
26	0x3f1f0b2e	0.62126434
27	0x3d5eb98a	0.054376163
28	0x3eeeef53	0.46666965
29	0xbf94cc70	-1.1624889
30	0x3f2adff4	0.66747975
31	0xbeade0ec	-0.33960664
32	0x3f1e932c	0.61943316
33	0x3fa1727b	1.2613062
34	0xbe234074	-0.15942556
35	0x3f56916e	0.8381566
36	0xbf5ee13e	-0.8706244
37	0xbceabbbb	-0.02865397
38	0xbf6fe19f	-0.93703645
39	0xbf3c78c4	-0.73621774
40	0xbf572f40	-0.8405647
41	0x3f795986	0.97402227
42	0x3f394253	0.7236683
43	0xbf846563	-1.0343441
44	0x3f1dd4a2	0.61652577
45	0xbed0a392	-0.40749794
46	0x3eedb06f	0.4642367
47	0x3cf2e3e3	0.02964968
48	0xbf6f1e3a	-0.934055
49	0x3ead0aa2	0.33797175

layer2.1.running_var f4 [50]
0	0x4194d967	18.606153
1	0x40c10f0e	6.0330877
2	0x40b75dea	5.730214
3	0x41189735	9.536916
4	0x41508ad2	13.033892
5	0x412c6911	10.775651
6	0x40fbe769	7.8719983
7	0x40c6b54f	6.2096324
8	0x4115747d	9.3409395
9	0x41987124	19.055244
10	0x4128b0f2	10.5432
11	0x4162b382	14.168825
12	0x409ed2f8	4.963253
13	0x411c32c2	9.762392
14	0x4125a430	10.352585
15	0x410d654c	8.837231
16	0x41003ad8	8.014366
17	0x40fef569	7.9674573
18	0x41252cbc	10.3234215
19	0x41004b10	8.018326
20	0x40ce0af9	6.4388394
21	0x41045024	8.269566
22	0x40e86045	7.2617517
23	0x411f17e4	9.943333
24	0x41815be1	16.169863
25	0x410e9f4e	8.913893
26	0x40fd1109	7.9083295
27	0x40be9ab4	5.9563847
28	0x40b9cc4b	5.806188
29	0x411c9188	9.78553
30	0x41242a29	10.260293
31	0x41a51050	20.632965
32	0x4138268c	11.509411
33	0x4140b681	12.044557
34	0x408bb255	4.365519
35	0x410fab35	8.979299
36	0x41112ff1	9.074204
37	0x41123070	9.136826
38	0x410f560e	8.958509
39	0x41163714	9.388447
40	0x41a044af	20.033537
41	0x40fa4eb1	7.822106
42	0x4125b159	10.355798
43	0x41339602	11.224123
44	0x41149d67	9.288428
45	0x40e1d617	7.057384
46	0x415de3c8	13.868111
47	0x4140bc73	12.046008
48	0x4133a133	11.226855
49	0x40d6ff5f	6.718673

layer3.0.weight f4 [100, 50, 1, 5]
0	0x3d81305c	0.06308052
1	0x3e4d3e2b	0.20043246
2	0x3e5ea157	0.21741234
3	0x3ea6c7ae	0.3257422
4	0x3e190ec9	0.14947046
5	0xbd96a91d	-0.073564745
6	0x3d553c39	0.052059386
7	0x3e1d6f2c	0.1537444
8	0xbd04ba3f	-0.03240418
9	0xbcb97fad	-0.022643888
10	0x3df06028	0.1173709
11	0x3e84c268	0.2592957
12	0x3d82801d	0.06372092
13	0x3e0eb1d5	0.13935025
14	0xbb0a6ec1	-0.0021123143
15	0xbde3f113	-0.11129966
16	0x3dc242ad	0.09485374
17	0x3e28ff2b	0.16503589
18	0xbe2595fc	-0.16170496
19	0x3d3d2a01	0.046182636
20	0xbcb8352b	-0.02248629
21	0x3c24f565	0.010068272
22	0xbd9f067b	-0.07764908
23	0xbe6127b7	-0.21987806
24	0xbd52fcd0	-0.051510632
25	0xbcafd5b4	-0.021464206
26	0xbd618670	-0.05505985
27	0x3dcdafc9	0.10043294
28	0xbc5a1735	-0.013311197
29	0xbd47dfec	-0.048797533
30	0x3e3bb95d	0.18332429
31	0x3e586e11	0.21135737
32	0x3dffbad0	0.124868035
33	0x3e625039	0.22100915
34	0xbdf4d277	-0.119542055
35	0x3e85bb3a	0.26119405
36	0x3db163ce	0.08661614
37	0x3e839f82	0.25707632
38	0xbd9215df	-0.07133078
39	0xbde35d3e	-0.11101769
40	0xbd0d13b2	-0.03444261
41	0xbd0b5d47	-0.034024503
42	0x3d6d5fbe	0.057952635
43	0x3e64c210	0.22339654
44	0xbe3ae9d5	-0.18253262
45	0x3c0b4c83	0.0085021285
46	0x3cc0a51b	0.023516228
47	0xbdb6b86c	-0.089218944
48	0x3e96af37	0.29430553
49	0x3e071772	0.13192537
50	0xbd824469	-0.063607045
51	0x3e1727e3	0.1476131
52	0x3dcce53c	0.100046605
53	0xbd900588	-0.07032305
54	0x3e7f0685	0.24904831
55	0x3e184a3a	0.14872065
56	0x3d2e6aea	0.04258243
57	0x3dea11b8	0.11429161
58	0x3d943e52	0.07238449
59	0x3ec29f02	0.38011938
60	0x3db25b4a	0.08708818
61	0x3dd09c00	0.10186005
62	0x3e6b5783	0.22982602
63	0xbce4cb4d	-0.027928973
64	0xbc827be0	-0.015928209
65	0xbd77350d	-0.060353328
66	0xbdc636ed	-0.09678445
67	0xbd91c64c	-0.071179
68	0xbe55159e	-0.20809028
69	0xbdede5ce	-0.116160974
70	0x3de0dd58	0.10979718
71	0xbce9920b	-0.028512022
72	0xbe8053a1	-0.25063804
73	0xbdaacbaa	-0.08339627
74	0xbe1cd254	-0.15314609
75	0x3d8fd6ff	0.07023429
76	0x3e23fe13	0.1601489
77	0x3e02fe1e	0.1279225
78	0x3e88d1b0	0.2672248
79	0x3e0057f0	0.12533545
80	0xbd1553ec	-0.036456987
81	0x3d62b29c	0.055346116
82	0x3e68435f	0.2268195
83	0x3eaf591a	0.34247667
84	0xbd9ef584	-0.07761672
85	0x3df46bbb	0.119346105
86	0x3d29ccc4	0.041455045
87	0x3cb43e59	0.022002386
88	0xbcb34bb0	-0.021886677
89	0xbdc366ec	-0.09541115
90	0x3e6acba0	0.2292924
91	0xbd71f7c8	-0.059074193
92	0x3e1a9719	0.15096702
93	0x3ce3db94	0.027814664
94	0x3d3db9f3	0.046319913
95	0xbc959cb2	-0.018263195
96	0x3d3fa48f	0.046787795
97	0x3ca67c32	0.020322893
98	0x3e27d2f4	0.16389066
99	0xbd7cfffd	-0.061767567
100	0x3c0bb1df	0.0085262945
101	0xbd9af048	-0.07565361
102	0xbc6c5079	-0.014423483
103	0x3d0bbf58	0.034118026
104	0xbdb9e86b	-0.09077533
105	0x3c40e332	0.011772918
106	0xbcfeb97d	-0.031094307
107	0xbdf43909	-0.11924941
108	0xbdf53136	-0.11972277
109	0xbe85e302	-0.26149756
110	0x3e7c4c66	0.24638519
111	0x3e1c88ec	0.15286607
112	0x3d1df69e	0.03856527
113	0xbbb05ec7	-0.005382392
114	0x3e227d96	0.1586822
115	0xbdf77fa8	-0.12084895
116	0x3c59878a	0.013276944
117	0xbdb9e201	-0.0907631
118	0x3cdb9693	0.026805198
119	0xbd9f3eb6	-0.07775633
120	0x3e0abe6f	0.13549207
121	0x3d81005b	0.06298896
122	0x3e061266	0.13092956
123	0xbd40c408	-0.04706195
124	0x3c83e17c	0.01609873
125	0x3e2d28fd	0.16910167
126	0xbc6eeb4b	-0.014582465
127	0xbdd617eb	-0.10453781
128	0xbd7cc31c	-0.06170951
129	0xbda3ab9f	-0.079917185
130	0x3db35641	0.08756686
131	0xbdd1706e	-0.102265224
132	0x3dee8ead	0.11648307
133	0x3d71858d	0.058965255
134	0xbd442e1f	-0.047895547
135	0x3d7f4b7a	0.06232784
136	0x3e7ce77a	0.24697676
137	0x3e963626	0.29338187
138	0x3dfaf84f	0.12254392
139	0xbdb8e828	-0.09028655
140	0x3d8756e1	0.06608368
141	0x3b9f3883	0.0048590316
142	0x3caac423	0.020845478
143	0xbd40777f	-0.04698896
144	0xbe18afd8	-0.14910829
145	0xbd349704	-0.044089332
146	0xbdbf8552	-0.09351601
147	0x3d00a39d	0.031406034
148	0x3da87bd3	0.082267426
149	0xbd800ee5	-0.06252841
150	0x3d0e473e	0.03473591
151	0xbe4e752d	-0.20161887
152	0xbe3aaa9c	-0.18229145
153	0xbe92b965	-0.2865707
154	0xbd5cc66d	-0.05390017
155	0x3e848625	0.25883594
156	0x3e936fb6	0.28796166
157	0xbd097e8f	-0.03356796
158	0xbb041431	-0.0020153637
159	0x3dc68553	0.09693398
160	0x3e6fc365	0.23414381
161	0x3d9017f4	0.07035819
162	0x3d1afb89	0.03783754
163	0x3bd8ec9a	0.006620002
164	0x3e1d7284	0.15375715
165	0xbdbdbe6d	-0.092648365
166	0xbe7646cd	-0.24050446
167	0xbe0c1b45	-0.13682278
168	0xbe880ea2	-0.26573664
169	0xbe994188	-0.2993281
170	0x3d32910e	0.043595366
171	0x3e7eea3b	0.2489404
172	0xbd7c1722	-0.0615455
173	0x3c9070ab	0.01763185
174	0xbcfa5304	-0.030557163
175	0x3df8a226	0.12140302
176	0x3db71d07	0.089410834
177	0xbdfb77a7	-0.12278681
178	0xbddcd092	-0.10781969
179	0x3e2c750d	0.16841526
180	0xbe1394c9	-0.14412226
181	0xbd01dc32	-0.031704135
182	0xbe6bc2d1	-0.23023535
183	0xbd5a35c9	-0.05327395
184	0xbe84ddc7	-0.25950453
185	0x3dbf1b34	0.093313605
186	0xbded0bd0	-0.11574519
187	0x3dc4079e	0.09571765
188	0xbe6e47fc	-0.23269647
189	0xbe1cb04b	-0.15301625
190	0x3e02686e	0.1273515
191	0xbe1388d2	-0.14407662
192	0x3e4b5d1b	0.19859736
193	0xbdac843c	-0.08423659
194	0xbd48853e	-0.048955195
195	0x3db625a5	0.08893899
196	0xbdb838d6	-0.089952156
197	0xbd27a52e	-0.040929012
198	0x3c1cac5b	0.009562577
199	0xbe1573be	-0.14594933
200	0x3deb23b4	0.11481419
201	0x3e1468f7	0.14493166
202	0x3e528651	0.2055905
203	0x3e0bfcc9	0.13670649
204	0x3e0ff307	0.14057551
205	0x3e9f7084	0.3114053
206	0x3d8a2793	0.067458294
207	0x3db67575	0.08909122
208	0xbd9554f2	-0.07291593
209	0xbc0252d9	-0.007954323
210	0x3d530996	0.051522814
211	0x3dfee926	0.12446813
212	0x3e33d242	0.17560676
213	0x3e3f962d	0.18709631
214	0x3e7cc595	0.24684747
215	0xbd41a012	-0.047271796
216	0x3d2ede71	0.042692605
217	0x3d61add5	0.05509742
218	0xbdfe1fe8	-0.124084294
219	0xbc543fe5	-0.012954687
220	0x3e202b02	0.15641406
221	0x3cef3d02	0.029203895
222	0x3ddf2638	0.108959615
223	0x3e54a030	0.20764232
224	0xbc97efc6	-0.01854695
225	0xbb9c1e17	-0.004764329
226	0xbdf71c21	-0.12065912
227	0xbd90d85b	-0.070725165
228	0xbddade74	-0.10686961
229	0xbe5669f8	-0.20938861
230	0x3e14b4a7	0.14522038
231	0x3e39508b	0.18097131
232	0xbc6b3abb	-0.014357264
233	0x3da410d5	0.08011023
234	0x3edc4615	0.43022218
235	0xbe1dea08	-0.15421307
236	0xbe7c9ddd	-0.24669595
237	0xbe4ee91e	-0.20206115
238	0xbd989b57	-0.07451504
239	0xbe31cd0a	-0.17363372
240	0x3d8fe588	0.070262015
241	0xbd677eb6	-0.056517325
242	0xbc6c1d7f	-0.014411329
243	0x3e05ecb7	0.13078581
244	0xbdc2547c	-0.0948877
245	0xbd3f62ee	-0.046725206
246	0xbdb481c2	-0.08813812
247	0x3d518cac	0.051159546
248	0x3db597ed	0.08866868
249	0x3d87d060	0.06631541
250	0x3d68ab3c	0.056803927
251	0x3d41afd2	0.047286816
252	0xbdac999d	-0.08427737
253	0xbd974e76	-0.07388012
254	0xbe99876d	-0.29986134
255	0xbe115498	-0.14192426

layer3.0.bias f4 [100]
0	0x3d4075c9	0.04698733
1	0x3bc542e8	0.0060199387
2	0xbaace6ef	-0.0013191382
3	0xbd927f33	-0.071531676
4	0x3b8366c8	0.004010055
5	0xbc6a0a05	-0.014284615
6	0xbdf578c0	-0.11985922
7	0xbd88cc33	-0.06679573
8	0x3d6d07a7	0.057868626
9	0xbd640946	-0.055672906
10	0xbd206026	-0.039154194
11	0xbda5c666	-0.08094482
12	0xbd243209	-0.04008678
13	0xbc952fde	-0.018211301
14	0xbbbbea43	-0.0057347133
15	0x3d82bea4	0.06384018
16	0x3c9c2bcc	0.019063853
17	0x3cc41971	0.023937913
18	0x3d593953	0.053033184
19	0x3d3a0a95	0.045420248
20	0x3a9785c0	0.0011560246
21	0x3db136d7	0.08653038
22	0x3c8971c3	0.016777879
23	0xbd563bd8	-0.052303165
24	0xbd8639c7	-0.06553989
25	0x3d1d6e1c	0.038435087
26	0xbc50ce0d	-0.012744439
27	0x3d897c9b	0.0671322
28	0xbb6720b4	-0.0035267295
29	0x3d805339	0.062658735
30	0xbd52f29b	-0.051500898
31	0x3d1eed78	0.038800687
32	0x3cfc5ce8	0.03080602
33	0xbd83918a	-0.06424244
34	0xbd2a740d	-0.04161458
35	0xbd70aa51	-0.058756176
36	0xbd4a91e8	-0.049455553
37	0x3d0678de	0.03283011
38	0xbbcf6e0f	-0.0063302587
39	0x3dd851c3	0.1056247
40	0xbbd3bbb7	-0.0064615863
41	0xbd6713d4	-0.056415394
42	0x3c03e382	0.008049848
43	0x3c3d8f7b	0.011569853
44	0xbd645b96	-0.055751406
45	0xbd5010ea	-0.05079738
46	0xbb74d02b	-0.0037355523
47	0x3d231d80	0.039823055
48	0x3d0de40e	0.034641318
49	0xbda37384	-0.07981017
50	0x3d9cb558	0.07651776
51	0xbd3362c2	-0.043795355
52	0x3d4ea47c	0.050449833
53	0x3d2e7a69	0.04259721
54	0x3d478a4a	0.048715867
55	0x3d53ce9f	0.05171072
56	0x3bf8f4fe	0.0075975647
57	0xbda0a540	-0.07844019
58	0x3cb36594	0.021899022
59	0x3d863ef2	0.065549746
60	0x3dc055cd	0.09391365
61	0xbda8fc7a	-0.08251281
62	0x3d4232d7	0.047411766
63	0xbd8fc5e4	-0.070201665
64	0xbc98e703	-0.018664842
65	0x3d0d1f90	0.03445393
66	0x3db5172c	0.0884231
67	0x3ce7e67b	0.028308144
68	0xbd1a69ec	-0.03769867
69	0xbdd1363c	-0.102154225
70	0xbc341491	-0.010991232
71	0x3c85b578	0.016321883
72	0x3c43399e	0.0119155925
73	0x3d377bed	0.04479592
74	0xbb42b71d	-0.0029711195
75	0x3c7ea4ca	0.015542218
76	0x3bea12eb	0.0071433685
77	0x3c1ddc49	0.00963504
78	0x3d78d93c	0.060754046
79	0xbd17afef	-0.037033018
80	0xbd4f6193	-0.050630163
81	0x3b08721f	0.0020819975
82	0x3db14b44	0.08656934
83	0x3c3fd1c4	0.011707727
84	0x3db7650a	0.089548185
85	0xbd2c4771	-0.04206032
86	0xbc1d1095	-0.009586473
87	0xbd0436bc	-0.03227876
88	0xbcf11f8f	-0.029433994
89	0xbd478107	-0.048707034
90	0xbdab1fd9	-0.08355684
91	0x3d364f33	0.044509124
92	0xbd3f78e2	-0.046746142
93	0xbacc554c	-0.0015589385
94	0xbb6ad6a3	-0.00358335
95	0x3d250e41	0.040296797
96	0x3ddd5bf9	0.10808558
97	0xbd5ebfb6	-0.05438205
98	0x3c8fc849	0.017551558
99	0x3d704b87	0.05866578

layer3.1.weight f4 [100]
0	0x3fa0d3fb	1.2564691
1	0x3fa6210f	1.2978839
2	0x3fa0a54c	1.2550445
3	0x3f8703ea	1.054807
4	0x3f4902db	0.7851998
5	0x3f874ce8	1.0570345
6	0x3f850b23	1.0394024
7	0x3f98f878	1.1950827
8	0x3fa57364	1.292584
9	0x3f737b99	0.9511047
10	0x3f6db2ab	0.9285075
11	0x3fbfc10b	1.4980787
12	0x3f8556fd	1.0417172
13	0x3f7bd388	0.98369646
14	0x3f81cf26	1.0141342
15	0x3f7c6f09	0.98606926
16	0x3f91ad64	1.138104
17	0x3f63a22e	0.8891934
18	0x3f3b2a29	0.73111206
19	0x3f84f8c1	1.0388414
20	0x3f5583a7	0.8340401
21	0x3f6bd336	0.9211916
22	0x3f55d9ac	0.83535266
23	0x3f87df1a	1.061496
24	0x3f8ff521	1.1246682
25	0x3f76b1fb	0.96365327
26	0x3f82be7c	1.0214381
27	0x3f9869e5	1.1907316
28	0x3f801f08	1.000947
29	0x3fa0ace2	1.255276
30	0x3f67a5ef	0.9048757
31	0x3f76553b	0.962238
32	0x3f8a39c5	1.079888
33	0x3f89ce3c	1.0766063
34	0x3f8a75a7	1.0817155
35	0x3f0b4364	0.54399705
36	0x3f849013	1.0356468
37	0x3f9f44ea	1.2442906
38	0x3f962f27	1.173314
39	0x3f6c9075	0.92407924
40	0x3f56a693	0.8384792
41	0x3f5d0db9	0.86349064
42	0x3f552568	0.832602
43	0x3f2a2d3b	0.66475266
44	0x3f8a43be	1.0801923
45	0x3f884d53	1.0648597
46	0x3f8cfef2	1.1015303
47	0x3f85b788	1.0446634
48	0x3fa33458	1.2750349
49	0x3f7bb61c	0.9832475
50	0x3fb34242	1.4004595
51	0x3f3f62d4	0.74760175
52	0x3f328b44	0.6974375
53	0x3faa3d9c	1.3300052
54	0x3f852a05	1.0403448
55	0x3f76f64a	0.9646956
56	0x3f7f6d8c	0.9977653
57	0x3f89856b	1.0743841
58	0x3fa520e4	1.2900662
59	0x3f4896fb	0.7835538
60	0x3f821ef6	1.0165699
61	0x3f78e2d1	0.97221094
62	0x3f702066	0.93799436
63	0x3f90acde	1.1302755
64	0x3f7a8bb4	0.9786942
65	0x3fd03c2d	1.6268364
66	0x3f7bb50d	0.98323137
67	0x3f656dc3	0.8962061
68	0x3f6c1ed0	0.92234516
69	0x3f3b6ac8	0.7320981
70	0x3f6bc619	0.9209915
71	0x3f990023	1.1953167
72	0x3f592111	0.8481608
73	0x3f5620d0	0.8364382
74	0x3f79a197	0.9751219
75	0x3f4453e3	0.766905
76	0x3f4fc502	0.81159985
77	0x3f5aca1c	0.85464644
78	0x3f93faeb	1.1560949
79	0x3f8887db	1.066646
80	0x3fa215cb	1.2662901
81	0x3fb4d150	1.4126377
82	0x3f5f15e7	0.87142795
83	0x3f4891d6	0.7834753
84	0x3fcff803	1.6247562
85	0x3f8b8cc5	1.0902334
86	0x3f742c14	0.9537976
87	0x3f523302	0.8210908
88	0x3f358ca4	0.70917726
89	0x3f930f60	1.1489067
90	0x3f8ea4b8	1.1144018
91	0x3f61ae93	0.88157004
92	0x3fa66ffc	1.3002925
93	0x3f5abf33	0.85447997
94	0x3f81d291	1.0142385
95	0x3f3bdeb5	0.733867
96	0x3f9061fd	1.1279904
97	0x3f70fb0d	0.94133073
98	0x3f608867	0.87708133
99	0x3f6f7fe5	0.93554527

layer3.1.bias f4 [100]
0	0xbc9ca58b	-0.019121906
1	0xbe3e6062	-0.18591455
2	0xbd45fea4	-0.048338547
3	0xbddb923d	-0.10721252
4	0xbe0b6490	-0.1361258
5	0xbeaaf411	-0.33389333
6	0xbe096cbd	-0.13420387
7	0xbcd57b99	-0.026059913
8	0xbd05f313	-0.032702517
9	0xbe811024	-0.25207627
10	0x3c8b7cd5	0.017027298
11	0xbe77cfa3	-0.24200301
12	0xbddba6d8	-0.10725182
13	0xbe9207c9	-0.28521565
14	0xbda05430	-0.078285575
15	0xbe87629a	-0.26442415
16	0x3dcefc7f	0.101067536
17	0xbdceda77	-0.101002626
18	0xbddc8fe8	-0.107696354
19	0xbe1fc1e7	-0.15601312
20	0xbe1c8a72	-0.15287188
21	0xbd4f28fd	-0.0505762
22	0xbdad4217	-0.08459871
23	0xbb5bad7d	-0.0033520155
24	0xbe56df08	-0.20983517
25	0xbdb905cb	-0.09034308
26	0xbe3b967c	-0.18319124
27	0xbe9b088b	-0.30279955
28	0x3c675003	0.014118197
29	0xbef36fe1	-0.47546294
30	0xbe660e97	-0.22466503
31	0xbd65869a	-0.05603657
32	0xbe11cdee	-0.14238712
33	0xbd007250	-0.031359017
34	0xbdd5df55	-0.10442988
35	0xbe469943	-0.19394402
36	0xbe5bee57	-0.21477638
37	0xbda57a07	-0.080799155
38	0xbe14f3d0	-0.14546132
39	0xbddbd37f	-0.10733699
40	0xbe43b7b0	-0.1911304
41	0xbddff7ba	-0.10935922
42	0xbead27da	-0.33819467
43	0xbe6a5c6b	-0.22886817
44	0xbecdeda0	-0.40220356
45	0xbe46845b	-0.19386427
46	0xbe0cc8c6	-0.13748464
47	0x3d8b3e61	0.06799007
48	0xbdded15f	-0.10879778
49	0xbe9cb54c	-0.3060707
50	0x3b06db9c	0.0020577675
51	0xbe1817e5	-0.14852865
52	0xbeac506a	-0.336551
53	0x3e5213a5	0.20515306
54	0xbde53421	-0.111915834
55	0xbdcbc46c	-0.09949574
56	0xbe3a264c	-0.18178672
57	0x3ca713fa	0.020395268
58	0xbe873e82	-0.26414877
59	0xbe1740aa	-0.14770761
60	0xbd1c0972	-0.038094945
61	0xbe134007	-0.14379893
62	0xbea18c2c	-0.31552255
63	0xbe4b4349	-0.19849886
64	0xbe9f853f	-0.31156346
65	0xbd1a9393	-0.037738394
66	0xbe3606c4	-0.17776018
67	0xbe97fcf6	-0.2968518
68	0xbe8492b4	-0.25893176
69	0xbdfb6a69	-0.122761555
70	0xbe460d5a	-0.1934103
71	0xbe84bb54	-0.2592417
72	0xbe49b0c2	-0.19696334
73	0xbe8330b4	-0.25623095
74	0xbe0d70c9	-0.13812555
75	0xbe0c6b3f	-0.13712786
76	0xbea3804a	-0.31933814
77	0xbb7bc10d	-0.0038414628
78	0xbec19ffc	-0.3781737
79	0xbdb74053	-0.08947816
80	0xbc11d3ac	-0.008900564
81	0xbd2f2370	-0.042758405
82	0xbe4f46da	-0.20241871
83	0xbe55633f	-0.2083864
84	0xbeb8400d	-0.35986367
85	0xbdc07526	-0.09397344
86	0xbd799af2	-0.060938783
87	0x3d814fe5	0.06314067
88	0xbe1df8ff	-0.15427016
89	0xbdd97fb8	-0.106200635
90	0xbe84488d	-0.25836602
91	0x3c59be5a	0.013290012
92	0xbdffc58a	-0.124888495
93	0xbe8ae435	-0.27127233
94	0xbdf83bb7	-0.12120765
95	0xbe4cbb3d	-0.199933
96	0xbb566dd1	-0.0032719264
97	0xbd006018	-0.031341642
98	0xbdc8ac71	-0.097985156
99	0xbe04ff5d	-0.12988038

layer3.1.running_mean f4 [100]
0	0xc00a0f23	-2.1571739
1	0xbfce7973	-1.6130813
2	0xc02ff76c	-2.7494764
3	0xc0533bb8	-3.30052
4	0x3f261fee	0.6489247
5	0xbf57433b	-0.8408696
6	0xbfb9c745	-1.4513937
7	0xc02846ce	-2.6293216
8	0x40035991	2.0523417
9	0x40082259	2.1270964
10	0x3fcdf8ca	1.6091549
11	0xbc41f7e3	-0.011838886
12	0x40137ef0	2.3046227
13	0xbf5e0823	-0.86731166
14	0x3fa15029	1.2602588
15	0xbfcd7ccf	-1.6053714
16	0x3f5c5184	0.8606188
17	0x3e9cd849	0.30633762
18	0x40123af7	2.284849
19	0xbf66e2bf	-0.9018974
20	0x3fffea95	1.9993464
21	0x401d2610	2.4554482
22	0x4020f0f6	2.514707
23	0x3f86387c	1.0485988
24	0x3f048bab	0.51775616
25	0xc0461295	-3.0948842
26	0x3f4ac84e	0.7921189
27	0xbd3c4d7c	-0.045972332
28	0xbfb6c4a6	-1.4278762
29	0xc07bcee5	-3.9345028
30	0x3fbc0574	1.4689164
31	0x400f3916	2.2378592
32	0xbec53ae4	-0.38521492
33	0x3fa028e7	1.2512482
34	0xbfc6fbf3	-1.5545639
35	0x3f9ab21e	1.2085607
36	0xbfd550e6	-1.6665313
37	0xc08159bc	-4.042204
38	0x3ff323e6	1.899533
39	0x3fb66672	1.4250014
40	0x3f12607b	0.5717847
41	0x3f954706	1.16623
42	0xbe774205	-0.24146278
43	0x3f5777b4	0.8416703
44	0x3f5b2ae3	0.85612315
45	0x404c513f	3.1924589
46	0x4020e072	2.513699
47	0x3fefd2d7	1.8736218
48	0xbcd04530	-0.025423616
49	0x3f96f16d	1.1792427
50	0xbfff3c01	-1.9940187
51	0x3e742cfe	0.23845288
52	0xc008cc0b	-2.1374538
53	0x3f8b0529	1.086095
54	0x3feff162	1.8745539
55	0xbfa34bdd	-1.2757527
56	0xbf9c8382	-1.2227633
57	0x3f07a7a0	0.5299015
58	0xbefc55c1	-0.49284175
59	0x401f2259	2.4864714
60	0xc03ba774	-2.9320955
61	0xbfaa72ed	-1.3316323
62	0xbfcdca18	-1.6077299
63	0xbfbf6493	-1.4952568
64	0xbff00ec7	-1.875451
65	0x3ff31271	1.8990003
66	0xbd13c6d0	-0.036078274
67	0xc024921c	-2.5714178
68	0x3f0bb0db	0.54566735
69	0x3f8514e9	1.0397006
70	0x3fb2aa55	1.3958231
71	0xc0907894	-4.514719
72	0x3ffbdbf3	1.9676498
73	0x400e1190	2.219822
74	0x3f83721b	1.0269197
75	0x3f27ecda	0.6559578
76	0x3f0ac26b	0.5420291
77	0x3ece6be0	0.40316677
78	0xbf99408c	-1.1972823
79	0x3d49183a	0.04909537
80	0x3d3de4a2	0.04636062
81	0xc03814de	-2.8762736
82	0x3fea4526	1.8302352
83	0xbeca2305	-0.39479843
84	0xc08c0124	-4.375139
85	0x3fbeaa4c	1.489572
86	0xbf193ee0	-0.59861565
87	0xbf56f398	-0.83965445
88	0x3f0154fe	0.5052031
89	0xc0149f73	-2.322232
90	0xc0321955	-2.7827961
91	0x3f5d317c	0.8640363
92	0x3e865748	0.26238465
93	0x4028fbf2	2.6403775
94	0x3fe1ed40	1.7650528
95	0x403db693	2.9642684
96	0xc03af480	-2.921173
97	0xbf876287	-1.0576943
98	0x3fec6f28	1.8471422
99	0x3fa49eb9	1.2860938

layer3.1.running_var f4 [100]
0	0x4176ddc9	15.429147
1	0x418a2a19	17.270555
2	0x414594e8	12.348854
3	0x4136456f	11.391952
4	0x413e7895	11.904439
5	0x41361117	11.379172
6	0x41661bd0	14.38179
7	0x413cad83	11.792361
8	0x4192c903	18.34815
9	0x418cdee2	17.60883
10	0x415ca349	13.789865
11	0x419f7023	19.929754
12	0x40cf09c3	6.4699416
13	0x41896037	17.17198
14	0x418b752c	17.432213
15	0x4144eaeb	12.307353
16	0x41889367	17.071974
17	0x413f8b10	11.971451
18	0x41250782	10.314333
19	0x410c7b73	8.780139
20	0x4164e95d	14.306973
21	0x418342a9	16.407549
22	0x418afb01	17.37256
23	0x418d1e16	17.63969
24	0x41359320	11.348419
25	0x413bbcdb	11.733607
26	0x418f7057	17.929853
27	0x41387cc9	11.530465
28	0x41347d75	11.280629
29	0x4114de2e	9.304243
30	0x4187bcab	16.967123
31	0x419a23cc	19.267479
32	0x418fe9df	17.989195
33	0x412a1de3	10.632297
34	0x41738623	15.220248
35	0x417769c4	15.463322
36	0x412c40e6	10.765844
37	0x4140cb9f	12.049712
38	0x417c9db1	15.788499
39	0x41512729	13.072061
40	0x40dc2e13	6.8806243
41	0x40e086d1	7.016457
42	0x4139b639	11.606988
43	0x41a19703	20.198736
44	0x418184a1	16.18976
45	0x4188ffd8	17.124924
46	0x4168d051	14.5508585
47	0x417908b0	15.564621
48	0x4148d405	12.551763
49	0x4180fa88	16.12233
50	0x41ecee69	29.616411
51	0x4145430a	12.328867
52	0x412fdda6	10.991613
53	0x4193f256	18.493328
54	0x41a85233	21.040136
55	0x416e597d	14.896848
56	0x414af807	12.685554
57	0x4125d8cf	10.365432
58	0x4146a609	12.415536
59	0x40fed3d9	7.9633603
60	0x4124d1bf	10.301208
61	0x417e201f	15.882842
62	0x417de622	15.868685
63	0x410f60aa	8.9611
64	0x416a974e	14.66194
65	0x41b2da9b	22.35674
66	0x41334056	11.203207
67	0x40bc1c3f	5.878448
68	0x4172b41d	15.168973
69	0x41101415	9.004903
70	0x4130ec5c	11.057705
71	0x413de333	11.867969
72	0x4177b2d5	15.48116
73	0x41634c94	14.206196
74	0x4192d7a3	18.355291
75	0x4129e72e	10.61894
76	0x414857e9	12.521462
77	0x4176cb32	15.424608
78	0x414ae469	12.680764
79	0x4146e175	12.430043
80	0x4147cfc0	12.48822
81	0x412665c8	10.399849
82	0x418129e3	16.145452
83	0x415e4906	13.892828
84	0x41748af4	15.283924
85	0x410a7530	8.65361
86	0x413c3969	11.764016
87	0x40efaf29	7.490132
88	0x41644369	14.266458
89	0x413cb151	11.79329
90	0x4108598a	8.52186
91	0x416e89d9	14.908654
92	0x41457400	12.34082
93	0x41052cca	8.323435
94	0x41605b05	14.022222
95	0x41a96959	21.17644
96	0x4175a03e	15.351622
97	0x41910bf8	18.130844
98	0x4149d8e9	12.615457
99	0x41621a7e	14.131468
