Lab2/eeg_net_elu.pth (torch_old, 75012 bytes, 17 tensors)

layer1.0.weight f4 [16, 1, 1, 51]
0	0x3e08b4c1	0.13350202
1	0x3c1248fa	0.008928532
2	0x3d071194	0.03297575
3	0xbc865117	-0.016396089
4	0x3de92bf8	0.113853395
5	0x3e051f6c	0.13000268
6	0x3e0deab3	0.13859062
7	0x3e19d42d	0.15022345
8	0x3d6caa1e	0.057779424
9	0x3e16abf8	0.14714038
10	0xbcf6a0bb	-0.03010594
11	0xbca3bcd3	-0.0199875
12	0x3c969e45	0.018386016
13	0xbe0cdacc	-0.1375534
14	0xbe2c7b27	-0.16843854
15	0x3c6ae76b	0.014337401
16	0xbe138afa	-0.14408484
17	0x3d6a6f84	0.057235256
18	0x3ab68bb6	0.0013927135
19	0x3e09d596	0.13460383
20	0x3da26fe7	0.079315
21	0x3e0ad234	0.13556749
22	0x3bc571f6	0.006025548
23	0x3e3dced9	0.18535937
24	0xbd1927c3	-0.037391435
25	0xbe154767	-0.14578019
26	0x3cf385b9	0.02972685
27	0xbdbad8f4	-0.09123412
28	0xbe189bed	-0.14903231
29	0xbd59a787	-0.053138282
30	0xbdf9b3d8	-0.121925056
31	0xbdff54d5	-0.12467352
32	0x3d9acbc4	0.075583965
33	0x3d914aeb	0.070943676
34	0xbd02a8d2	-0.03189928
35	0x3d89e1f9	0.06732554
36	0x3dfd6b01	0.12373925
37	0xb921015d	-0.00015354664
38	0xbd476152	-0.048676796
39	0x3cc037da	0.023464132
40	0x3cf46737	0.029834373
41	0xbdb86925	-0.0900443
42	0xbd94e248	-0.07269722
43	0xbe0e2fd0	-0.13885427
44	0xbddb6ff0	-0.1071471
45	0x3e0daa49	0.1383449
46	0x3df69681	0.12040425
47	0x3db422d4	0.087957054
48	0x3e4cd6cb	0.20003812
49	0x3d86fb8a	0.06590946
50	0x3ea94b4a	0.33065253
51	0x3e9d725a	0.30751306
52	0x3ebdd9ab	0.3708013
53	0x3e69f0dc	0.22845787
54	0x3d1276d8	0.03575787
55	0x3dcaca65	0.09901885
56	0xbda617f9	-0.08110041
57	0xbdcaf0ac	-0.09909186
58	0x3dee31ab	0.11630567
59	0x3c1ade65	0.009452437
60	0x3dda948a	0.10672863
61	0xbc951b1d	-0.018201405
62	0x3d9e765a	0.077374175
63	0x3db86572	0.09003724
64	0x3dc3d11f	0.09561371
65	0xbca8d8c3	-0.020611173
66	0x3d1b1f73	0.03787179
67	0x3d42fa5a	0.047602035
68	0xbd3a87e9	-0.04553977
69	0xbca05397	-0.019571109
70	0xbd93f74d	-0.07224903
71	0x3cd5ae10	0.026083976
72	0xbd17918c	-0.03700404
73	0x3b5499a9	0.0032440221
74	0x3e23af99	0.15984954
75	0x3e19d2bb	0.15021794
76	0x3daf0501	0.08545876
77	0x3d6a31e6	0.057176493
78	0x3d911f73	0.070860766
79	0xbdb8e9ef	-0.09028994
80	0xbdddb8c1	-0.10826255
81	0x3d87721c	0.066135615
82	0xbbb2437a	-0.0054401727
83	0xbc85073a	-0.016238797
84	0x3cc35f2c	0.023849092
85	0xbd5bc0e3	-0.053650748
86	0xbc8f5b12	-0.01749948
87	0xbbed12ac	-0.007234892
88	0x3d823d41	0.063593395
89	0x3aecdbb1	0.0018070844
90	0x3de071b9	0.10959191
91	0xbcd709c7	-0.02624978
92	0xbd8dfd3a	-0.06933065
93	0xbe2ac937	-0.1667832
94	0xbbe40c55	-0.006959478
95	0xbdff3423	-0.12461116
96	0x3d299603	0.041402828
97	0x3d8a7f44	0.06762555
98	0x3db83830	0.08995092
99	0x3daa813b	0.0832543
100	0xbc1cc497	-0.009568355
101	0x3e59b93a	0.21262065
102	0x3d828d63	0.063746236
103	0x3caa1229	0.020760613
104	0xbe2ba552	-0.16762283
105	0xbb4f81b9	-0.0031663014
106	0xbe0bb813	-0.13644437
107	0xbe20f571	-0.15718628
108	0x3cf97665	0.030451963
109	0xbd72daac	-0.059290573
110	0x3d4577b2	0.048209853
111	0x3e1ba07e	0.15197942
112	0x3d4db7cf	0.05022412
113	0x3e8b63c2	0.27224547
114	0x3d5ab7b3	0.053397845
115	0x3e7d93b9	0.24763383
116	0x3dd1b683	0.102398895
117	0xbc896237	-0.016770465
118	0x3dc4d931	0.096117385
119	0xbdbfa025	-0.09356717
120	0xbe05edcb	-0.13078992
121	0xbdbe15bc	-0.09281489
122	0xbe093ad6	-0.1340135
123	0xbe13ca37	-0.14432608
124	0xbe54d818	-0.20785558
125	0xbdce691d	-0.100786425
126	0xbd1dcfaf	-0.03852814
127	0xbdd69d0a	-0.104791716
128	0xbcb92298	-0.022599503
129	0x3e0ec6f4	0.13943082
130	0x3e29b3ac	0.16572446
131	0xbb3c36cf	-0.0028719192
132	0x3de30dca	0.110866144
133	0x3dee4716	0.11634652
134	0xbcab1ff0	-0.020889252
135	0xbd447b1f	-0.04796898
136	0x3c973f7e	0.018462893
137	0x3d4e6069	0.050384913
138	0xbd76ee82	-0.060286053
139	0x3cacd9d0	0.021099955
140	0xbdc059b0	-0.093921065
141	0x3d0450f8	0.03230378
142	0xbd5f78fd	-0.054558743
143	0x3d67ab61	0.056559924
144	0xbd9d4794	-0.07679668
145	0x3e42a9ce	0.19010088
146	0x3d945147	0.07242065
147	0x3c8eb478	0.017420039
148	0x3dfa0770	0.1220845
149	0x3d64fff7	0.05590817
150	0x3df0e53c	0.11762473
151	0xbbc0079b	-0.0058602816
152	0xbd612977	-0.054971185
153	0x3d04d527	0.03242984
154	0x3da60e1f	0.08108162
155	0x3d59f7e0	0.053214908
156	0x3c95e296	0.018296521
157	0xbd5f1ef6	-0.054472886
158	0xbcd35e01	-0.02580166
159	0x3df18db0	0.11794603
160	0x3d9314a6	0.07181673
161	0xbce31536	-0.027720075
162	0xbdaa1aab	-0.08305868
163	0xbd6a1d43	-0.057156812
164	0xbd6b954f	-0.05751544
165	0x3e5a1687	0.21297656
166	0x3dbfebe9	0.09371168
167	0xbd2594d2	-0.04042513
168	0xbe3259ee	-0.17417118
169	0xbd25fffc	-0.04052733
170	0x3dde5f74	0.1085805
171	0x3e0eee47	0.13958083
172	0x3e100f06	0.14068231
173	0xbdfd425f	-0.12366175
174	0xbe08ee88	-0.13372242
175	0xbd8928a4	-0.06697205
176	0x3e262208	0.1622392
177	0x3e52eeb8	0.20598876
178	0x3dabcd25	0.083887376
179	0xbd96de7c	-0.07366654
180	0xbdc4a2d3	-0.09601369
181	0xbdfa2ce6	-0.12215595
182	0x3e10373e	0.14083573
183	0x3e31af5c	0.1735205
184	0x3d0d3965	0.034478564
185	0xbd7c1b60	-0.061549544
186	0xbcfe947a	-0.031076659
187	0xbe3ea196	-0.18616328
188	0x3dc17463	0.09446027
189	0x3e28cc68	0.16484225
190	0x3e163949	0.1467029
191	0xbd6b582e	-0.05745714
192	0xbd86b104	-0.06576732
193	0xbe1fade3	-0.15593676
194	0x3c0dffc7	0.008666939
195	0x3e0e70d4	0.13910228
196	0x3d83727f	0.06418323
197	0x3d5b2faf	0.05351227
198	0xbdefbf2c	-0.11706385
199	0xbd620ea0	-0.05518973
200	0xbd83f78e	-0.06443702
201	0x3e21b6e6	0.15792426
202	0x3dd1673f	0.10224771
203	0xbd44873e	-0.04798054
204	0x3dbd6477	0.09247678
205	0x3e26307f	0.16229437
206	0x3dc1f6c9	0.09470899
207	0xbe411a2a	-0.18857637
208	0x3cd30cb3	0.025762891
209	0xbe1b96e2	-0.15194276
210	0x3d9704da	0.07373972
211	0xbd6d313e	-0.05790829
212	0xbd77ac2e	-0.060466938
213	0xbdf6b816	-0.1204683
214	0xbd0e4f8c	-0.03474383
215	0x3dccea75	0.10005657
216	0x3d22af76	0.039718114
217	0xbd763494	-0.060108736
218	0x3da58ad4	0.0808312
219	0xbe311779	-0.1729411
220	0x3c80fc4c	0.015745305
221	0x3debbc49	0.11510522
222	0x3dcc038d	0.09961615
223	0xbd6bf709	-0.057608638
224	0xbdbeb288	-0.09311396
225	0x3c12f0a3	0.008968505
226	0x3dbd71eb	0.09250244
227	0x3e238580	0.15968895
228	0x3b8c361c	0.0042789113
229	0xbe10dc73	-0.14146595
230	0xbe0bc806	-0.13650522
231	0xbbd9d0c9	-0.0066472036
232	0x3e718906	0.23587427
233	0x3d933834	0.07188454
234	0xbdd6f6ef	-0.104963176
235	0xbe028902	-0.12747577
236	0xbdd42b9d	-0.10359881
237	0xbc87fdc7	-0.016600503
238	0x3e48ce0c	0.1960985
239	0xbcdf0426	-0.027223658
240	0xbdca3170	-0.09872711
241	0xbe420e8d	-0.18950863
242	0xbbc52ac0	-0.006017059
243	0x3e46d650	0.19417691
244	0x3e46b8e9	0.19406475
245	0x3d6c1a16	0.057642065
246	0x3d00e5b6	0.03146907
247	0xbdb8ad9e	-0.0901749
248	0xbaa975f6	-0.0012928832
249	0x3e029095	0.12750466
250	0x3d5fed08	0.05466941
251	0xbdf513df	-0.11966681
252	0xbe41dbe7	-0.18931542
253	0xbdc6c1ff	-0.097049706
254	0x3de65d81	0.11248303
255	0x3e820f54	0.2540232

layer1.1.weight f4 [16]
0	0x3f18cdfe	0.5968932
1	0x3f28c0ff	0.6591949
2	0x3f220e38	0.63302946
3	0x3f663e72	0.89939034
4	0x3edf0240	0.43556404
5	0x3f0a59ef	0.5404348
6	0x3ee35615	0.44401613
7	0x3f1761bc	0.59133506
8	0x3f0253f8	0.50909376
9	0x3f255f16	0.64598215
10	0x3f2ae485	0.66754943
11	0x3f00e9b0	0.5035658
12	0x3f6f92e1	0.93583494
13	0x3f22d113	0.6360027
14	0x3f18b157	0.596456
15	0x3f099c6c	0.53754306

layer1.1.bias f4 [16]
0	0xbad32677	-0.0016109486
1	0xbaf7685b	-0.0018875705
2	0xba617dac	-0.00086017954
3	0xba25bfd5	-0.00063228357
4	0xbb4ad048	-0.00309469
5	0xbaf89647	-0.0018965685
6	0xbb5157ec	-0.0031943275
7	0x3bd5d379	0.0065254536
8	0xbb1bc0b4	-0.0023765983
9	0x3aeda04d	0.0018129438
10	0x3aa1c294	0.0012341314
11	0xba9c9ea5	-0.0011949135
12	0x3b732b93	0.003710483
13	0xbb78db22	-0.003797241
14	0xba801c79	-0.000977411
15	0xbbdf8ba5	-0.006822067

layer1.1.running_mean f4 [16]
0	0xbd81c9d3	-0.06337323
1	0xbd89a23d	-0.067203976
2	0xbcf232e6	-0.029565286
3	0xbcfcef96	-0.030875962
4	0xba3c91c5	-0.0007193352
5	0x39963b42	0.0002865438
6	0xbcf69150	-0.030098587
7	0x3b230c77	0.0024879256
8	0xba41dcfb	-0.00073952944
9	0xbe051836	-0.12997517
10	0x3ccef44f	0.02526298
11	0xbbfb9842	-0.0076780627
12	0xbb6288f7	-0.00345665
13	0xb9efe7cd	-0.00045758337
14	0x3c19785a	0.009367073
15	0x3c85d1ef	0.016335456

layer1.1.running_var f4 [16]
0	0x42379a32	45.90058
1	0x426c168e	59.022026
2	0x41f8b6bc	31.089226
3	0x414d593e	12.834288
4	0x412bdea8	10.741859
5	0x419071d7	18.055586
6	0x4188e627	17.11238
7	0x411616da	9.380579
8	0x417ef688	15.935188
9	0x4325edab	165.92839
10	0x41b73552	22.901035
11	0x41f90819	31.128954
12	0x41424257	12.141196
13	0x40514c8b	3.2702968
14	0x41dfaa9a	27.958302
15	0x415a2ce6	13.635962

layer2.0.weight f4 [32, 1, 2, 1]
0	0xbef8f410	-0.48623705
1	0x3e9dc579	0.30814722
2	0xbe685bcd	-0.22691269
3	0xbf48cb42	-0.78435147
4	0x3ea27788	0.3173182
5	0x3e9c14cb	0.30484614
6	0xbf083a5b	-0.53214043
7	0x3f391ce2	0.72309697
8	0xbeb02baf	-0.34408328
9	0x3e7233cf	0.23652576
10	0x3ea0658b	0.3132747
11	0xbecf8916	-0.40534276
12	0xbed83d67	-0.42234346
13	0x3f124802	0.57141125
14	0xbe86dbdc	-0.26339614
15	0x3ec2436c	0.37942064
16	0xbc979db8	-0.018507823
17	0x3f2c7941	0.6737252
18	0x3df1cc31	0.118065245
19	0x3f4bf590	0.79671574
20	0xbc922731	-0.017840954
21	0x3f600dcd	0.8752106
22	0x3edb4c64	0.4283172
23	0xbed9b5b8	-0.42521453
24	0x3d196159	0.037446354
25	0xbeea3c43	-0.457491
26	0x3f0e7548	0.55647707
27	0xbe114303	-0.14185719
28	0xbe391fee	-0.18078586
29	0x3f0455dd	0.51693517
30	0xbf19e907	-0.60121197
31	0x3dc801cc	0.09765968
32	0xbe9e8ee8	-0.30968404
33	0x3e013772	0.12618807
34	0x3edbe3d9	0.4294727
35	0xbf1e7659	-0.61899334
36	0x3e8c50ad	0.274053
37	0xbec796f6	-0.38982362
38	0xbe9c8d21	-0.30576423
39	0x3e092612	0.13393429
40	0xbe4db8e2	-0.20090058
41	0x3e6d5b41	0.23179342
42	0xbed78580	-0.4209404
43	0x3e20d046	0.1570445
44	0xbe8c3f9d	-0.27392283
45	0x3ee76910	0.45197344
46	0x3f364383	0.71196765
47	0x3de12df6	0.109950945
48	0xbf02b649	-0.51059395
49	0x3e1af3f3	0.15132122
50	0xbd7e2b25	-0.062052865
51	0x3e973e8b	0.29539904
52	0x3df387f2	0.11891164
53	0xbf0dc051	-0.55371577
54	0xbd8e51c3	-0.069491886
55	0x3ea7ca57	0.3277156
56	0xbe1ad248	-0.15119278
57	0xbdd5d442	-0.104408756
58	0x3e037a2b	0.12839572
59	0x3ea4fa5b	0.32222256
60	0x3ca11207	0.019661916
61	0xbf4f9605	-0.81088287
62	0x3d62f3fb	0.05540846
63	0xbef2813e	-0.4736423

layer2.1.weight f4 [32]
0	0x3f9ae1bb	1.2100137
1	0x3f7fe3b2	0.9995681
2	0x3f86f0e3	1.0542263
3	0x3f8e0cf7	1.1097707
4	0x3f9ef0fe	1.2417295
5	0x3fa1df87	1.264634
6	0x3f99e2b3	1.2022308
7	0x3f9e5732	1.237036
8	0x3fb0ecec	1.3822303
9	0x3faf37ad	1.3688866
10	0x3f9c6458	1.2218122
11	0x3fbced34	1.4759889
12	0x3f8517cb	1.0397886
13	0x3f87adae	1.0599878
14	0x3fc15f3e	1.5107191
15	0x3fbd913a	1.4809945
16	0x3f8f6244	1.1201863
17	0x3f8a757f	1.0817107
18	0x3f54f2b7	0.83182853
19	0x3f4a3272	0.78983223
20	0x3fa2863b	1.2697214
21	0x3f901191	1.1255361
22	0x3faf06f3	1.3673996
23	0x3fade4fe	1.3585508
24	0x3fefed0b	1.8744215
25	0x3fa3aebc	1.27877
26	0x3fc754f6	1.5572803
27	0x3fbbed75	1.4681841
28	0x3f9cf1b4	1.2261262
29	0x3fa7e29e	1.3116033
30	0x3f9781d9	1.1836501
31	0x3f9ddc74	1.2332902

layer2.1.bias f4 [32]
0	0xbec879d9	-0.39155462
1	0xbe6f0457	-0.233415
2	0xbede99bd	-0.43476668
3	0xbe488e42	-0.19585517
4	0xbeccd314	-0.4000479
5	0xbea10012	-0.31445366
6	0xbebf291a	-0.37336046
7	0xbec3fb4b	-0.3827766
8	0xbef44f44	-0.47716725
9	0xbec8995f	-0.39179513
10	0xbe647e5f	-0.22313832
11	0xbe852d63	-0.2601119
12	0xbeb4d044	-0.35315144
13	0xbebb7342	-0.36611372
14	0xbf180b91	-0.5939265
15	0xbef262a2	-0.47340876
16	0xbecded8a	-0.4022029
17	0xbe99de1c	-0.30052269
18	0x3c976558	0.018480942
19	0xbef6f994	-0.48237288
20	0xbeba8cfc	-0.36435688
21	0xbedc3d4b	-0.43015513
22	0xbe1876f8	-0.14889133
23	0xbe85d093	-0.26135692
24	0xbf23942b	-0.6389796
25	0xbe7735ba	-0.24141589
26	0xbec73a81	-0.38911822
27	0xbec86138	-0.39136672
28	0xbe7025ef	-0.2345197
29	0xbeb3a6d5	-0.3508822
30	0xbeac2efc	-0.33629596
31	0xbec80778	-0.39068198

layer2.1.running_mean f4 [32]
0	0xba99876e	-0.0011713335
1	0x3b2ca266	0.0026341914
2	0xba5fa689	-0.00085315906
3	0xbb6f0f26	-0.0036477535
4	0xb943c2b5	-0.00018669183
5	0x3a19aafa	0.00058619643
6	0xbb59c7a4	-0.0033230567
7	0xbb0df6ae	-0.0021661925
8	0xba105e12	-0.00055071816
9	0xba492485	-0.00076729833
10	0xba6edbb4	-0.0009111718
11	0x38985db5	7.265379e-05
12	0x3ad82500	0.0016490519
13	0xb8c30a46	-9.300238e-05
14	0x3ae2553e	0.0017267836
15	0xbb20ca16	-0.0024534515
16	0x39da5c37	0.00041648906
17	0x39c38f84	0.00037300226
18	0x3b101869	0.0021987206
19	0xbaf3b946	-0.0018594644
20	0x3993b888	0.0002817551
21	0xb9248a95	-0.00015691885
22	0xb98a3b1a	-0.00026365445
23	0xba8a2060	-0.0010538213
24	0xbab46a38	-0.0013764566
25	0x3a1cf7d7	0.0005987859
26	0x3abb9676	0.0014311809
27	0xba60bc92	-0.0008573021
28	0x39cc4fb4	0.00038969296
29	0xba13bd03	-0.000563577
30	0x3baabac6	0.0052102534
31	0x3b31fb23	0.0027157746

layer2.1.running_var f4 [32]
0	0x3d2b5790	0.041831553
1	0x3ea8acf6	0.3294446
2	0x3e109460	0.141191
3	0x3e04bdcf	0.12963031
4	0x3cbcc3bd	0.023042554
5	0x3d056574	0.032567456
6	0x3e5bf311	0.21479441
7	0x3dbe774b	0.09300097
8	0x3dacc868	0.08436662
9	0x3e12f96e	0.14352962
10	0x3e5afe80	0.21386147
11	0x3d06813e	0.0328381
12	0x3d21b12a	0.039475597
13	0x3d34cf7b	0.04414318
14	0x3d9732fd	0.07382772
15	0x3ddbf880	0.10740757
16	0x3c795d5d	0.015220013
17	0x3d615c30	0.055019557
18	0x3d160a6c	0.036631033
19	0x3cab3cd2	0.020903025
20	0x3c447e65	0.011993025
21	0x3d413626	0.04717078
22	0x3cedb980	0.029019117
23	0x3e1a09e8	0.15042841
24	0x3e16ec4c	0.14738578
25	0x3d8cdc98	0.068780124
26	0x3de28f95	0.11062542
27	0x3d20ab41	0.03922582
28	0x3ca25991	0.0198181
29	0x3d83beca	0.064328745
30	0x3e4e0b93	0.20121603
31	0x3d7e570b	0.06209473

layer3.0.weight f4 [32, 32, 1, 15]
0	0xbd8830ac	-0.066499084
1	0xbc636c1f	-0.013880759
2	0x3c1b7213	0.009487647
3	0xbdb713ba	-0.089393094
4	0x3cb35417	0.021890683
5	0xbcaa0345	-0.020753512
6	0xbce478b7	-0.027889593
7	0x3b35143f	0.0027630476
8	0x3da952fc	0.08267781
9	0xbd4ab86a	-0.049492277
10	0xbc550c17	-0.013003371
11	0x3dbabff5	0.09118644
12	0xbd5328bc	-0.05155252
13	0xbdc25350	-0.09488547
14	0xb9dc275f	-0.00041991004
15	0xbd1622b3	-0.036654186
16	0x3d9df423	0.07712581
17	0x3dda9e1b	0.106746875
18	0xbcd82928	-0.026386812
19	0xbc41c9c2	-0.011827888
20	0x3d0fb4fe	0.035084717
21	0xbdde207b	-0.10846039
22	0xbd180148	-0.037110597
23	0x3dc6c60b	0.097057424
24	0xbd294dd7	-0.041334
25	0xbd24230a	-0.04007248
26	0x3d225955	0.039635975
27	0x3db81ead	0.08990226
28	0x3dce2b20	0.10066819
29	0x3e0e6761	0.13906623
30	0x3d949f33	0.07256927
31	0xbaf7009b	-0.0018844785
32	0x3b81548f	0.0039468477
33	0x3e2086f1	0.15676476
34	0x3d2c7836	0.04210683
35	0x3db1727a	0.08664413
36	0x3b847628	0.0040424056
37	0xbddfd883	-0.10929968
38	0xbe02c3b9	-0.12769975
39	0x3c85e4a8	0.016344383
40	0xbd948019	-0.07250995
41	0xbdd81275	-0.105503954
42	0x3cc1a995	0.023640433
43	0xbca9d186	-0.020729791
44	0xbd801214	-0.06253448
45	0xbe0992a6	-0.13434848
46	0xbc4a380d	-0.012342465
47	0xbd723fa6	-0.05914273
48	0xbe1e3e99	-0.15453567
49	0x3cec9ac3	0.02888239
50	0xbc9cda68	-0.019147113
51	0xbdd3c388	-0.10340029
52	0x3cda9297	0.026681228
53	0xbd1c369e	-0.038138025
54	0xbdd48c15	-0.10378281
55	0x3d12a70c	0.03580384
56	0x3d014e58	0.031568855
57	0xbdaef421	-0.08542658
58	0x3cb7c927	0.022434784
59	0x3c66d707	0.014089352
60	0xbd9dd695	-0.07706944
61	0xbe3dfdcd	-0.18553849
62	0xbdc77754	-0.09739557
63	0xbd3031db	-0.043016296
64	0xbcd5e891	-0.026111873
65	0xbcd4965a	-0.0259506
66	0xba22316e	-0.0006187175
67	0xbd9fb600	-0.077983856
68	0xbd5ddc64	-0.05416526
69	0xbd87eddb	-0.06637164
70	0xbce6f303	-0.028192049
71	0xbde8eb8c	-0.11373052
72	0xbe0c4995	-0.13699944
73	0xbd6992bb	-0.0570247
74	0xbde1dbff	-0.11028289
75	0x3d93160b	0.07181939
76	0x3d8b9030	0.06814611
77	0xbd036130	-0.032075107
78	0x3c7f8d9c	0.015597727
79	0xbd9acb7d	-0.075583436
80	0xbe137dab	-0.14403407
81	0xbcea314c	-0.02858796
82	0x3c70e3b3	0.014702725
83	0xbd3fef22	-0.046858914
84	0xbd25e20d	-0.040498782
85	0x3d220262	0.039553054
86	0x3ba54054	0.005043069
87	0x3dfdab29	0.12386162
88	0x3df0f2df	0.11765074
89	0xbc0263a1	-0.007958324
90	0x3c8a918e	0.016915109
91	0x3d0404e1	0.032231215
92	0xbc5cc6dc	-0.013475146
93	0xbc9d00dd	-0.01916545
94	0xbc4a97c1	-0.0123652825
95	0xbd17eaf7	-0.037089314
96	0xbcaacce2	-0.020849649
97	0x3c3f2413	0.011666316
98	0x3d0964c6	0.03354337
99	0x3c28bb70	0.010298595
100	0x3d91c7ad	0.07118163
101	0x3d7ed1a5	0.06221165
102	0xbc7917ab	-0.015203397
103	0x3d63e116	0.05563458
104	0x3bc0977c	0.0058774333
105	0x3dac00ae	0.08398567
106	0x3c0315db	0.008000816
107	0xbb630dc0	-0.0034645647
108	0xbd964cc2	-0.07338859
109	0xbb5a3f44	-0.003330187
110	0xbd4b0f11	-0.049574915
111	0xbd0a5efe	-0.033781998
112	0x3d088dc7	0.033338334
113	0x3cad68e9	0.02116819
114	0x3d2a73cb	0.041614335
115	0x3da0859c	0.07837984
116	0xbba09d1b	-0.004901541
117	0x3ce57b56	0.028012913
118	0x3d8928a5	0.066972055
119	0xbd058dbc	-0.03260587
120	0xbd07643e	-0.033054583
121	0xbbba545d	-0.0056863264
122	0x3decad80	0.1155653
123	0xbbdd3c4d	-0.006751573
124	0x3d013624	0.031545773
125	0x3ca559c7	0.02018441
126	0x3cf47732	0.029841993
127	0xbc3d23b0	-0.011544153
128	0x3d5b563e	0.053549044
129	0xbd931d19	-0.07183284
130	0xbdbb5931	-0.09147871
131	0xbc30e667	-0.01079712
132	0x3deffe4b	0.117184244
133	0xbcdc8d8c	-0.026922964
134	0xbdf308e0	-0.11866927
135	0x3c311b87	0.010809786
136	0x3c03412b	0.008011143
137	0x3d1dac37	0.038494315
138	0xbda01ea2	-0.07818343
139	0xbcd2ad03	-0.025717264
140	0xbab0c883	-0.0013487492
141	0xbc8ee922	-0.01744515
142	0xbcbf3862	-0.023342315
143	0x3dc82bf6	0.0977401
144	0xbdece72a	-0.115675285
145	0xbd0919e6	-0.033471964
146	0x3db5dea4	0.08880356
147	0x3e12a99d	0.14322515
148	0x3d0ac526	0.03387942
149	0x3c4b0144	0.0123904385
150	0xbe22c4f4	-0.15895444
151	0xbd2dcbdc	-0.042430744
152	0x3cae6a21	0.02129084
153	0xbccf5487	-0.02530886
154	0x3a434d62	0.00074501906
155	0x3c375ab9	0.011191064
156	0xbc2380db	-0.009979452
157	0x3d1b2423	0.03787626
158	0x3dabaa1c	0.08382055
159	0xbdd19ebc	-0.10235354
160	0xbce1a4c2	-0.027544383
161	0xbdb9ea59	-0.090779014
162	0x3e2075ae	0.15669891
163	0x3d84a9e4	0.064777166
164	0xbd46f19c	-0.04857026
165	0xbd028a2a	-0.031870045
166	0xbdd59cff	-0.10430335
167	0x3d928035	0.0715336
168	0x3bb3a8ce	0.0054827696
169	0x3cd40bb0	0.02588448
170	0x3da35d73	0.079768084
171	0xbe14e6c4	-0.14541155
172	0xbe5afe29	-0.21386017
173	0x3d257e64	0.04040374
174	0xbd2954b8	-0.04134056
175	0xbd7e4d7e	-0.06208562
176	0x3e10abcd	0.14128037
177	0xbcae2af1	-0.02126071
178	0xbe69259c	-0.22768253
179	0x3d4a1304	0.04933454
180	0x3cdb0985	0.026737938
181	0x3d17d40a	0.03706745
182	0x3cdc1ed6	0.026870172
183	0x3d262425	0.040561814
184	0x3cd786c2	0.026309375
185	0x3cef183c	0.02918636
186	0x3c9a6577	0.01884721
187	0xbd8a76a1	-0.06760908
188	0xbc1a441d	-0.0094156535
189	0x3d67968b	0.056540053
190	0xbcd3558f	-0.025797633
191	0xbdf85a71	-0.12126625
192	0xbd29b40e	-0.04143148
193	0x3d67f140	0.05662656
194	0x3ad31ae8	0.0016106041
195	0xbca2cbb7	-0.01987253
196	0xbce8d55d	-0.028422052
197	0xbc462f7f	-0.012096285
198	0xbd7134ec	-0.05888836
199	0xbd6d72ad	-0.05797069
200	0x3d4a7cd2	0.049435444
201	0xbd1e9af6	-0.038722
202	0xbda4305e	-0.08017038
203	0x3d56728f	0.052355345
204	0x3c902d3c	0.017599694
205	0xbbf7db50	-0.007563986
206	0x3d382fa4	0.04496731
207	0xbb0f2188	-0.0021840055
208	0x3ceae0b3	0.028671598
209	0xbda3591e	-0.07975982
210	0x3e8536bd	0.26018324
211	0x3e897cf3	0.2685314
212	0x3dbe765b	0.09299918
213	0x3da8eea5	0.08248643
214	0x3d37529c	0.044756517
215	0xbd7475d9	-0.0596827
216	0xbc375853	-0.011190492
217	0xbdb5da54	-0.088795334
218	0x3aaab0b3	0.0013022631
219	0xbdabbc4f	-0.083855264
220	0x3ce4b070	0.027916163
221	0xbd95ce0b	-0.0731469
222	0x3d22a086	0.03970387
223	0xbd226210	-0.0396443
224	0xbe6274b8	-0.22114837
225	0xbe51dd55	-0.20494588
226	0xbdc0fdd8	-0.09423417
227	0xbd20ec2a	-0.039287724
228	0x3c6ab3fb	0.014325137
229	0xbdad4043	-0.084595226
230	0xbcb040e0	-0.02151531
231	0x3d0c2c17	0.034221735
232	0x3db75f7e	0.089537606
233	0x3dc2139f	0.09476399
234	0xbb9d2490	-0.0047956184
235	0x3c266c1a	0.010157609
236	0x3da7fbf7	0.08202355
237	0xbe3063e1	-0.17225601
238	0xbd8b8451	-0.06812347
239	0xbde9e824	-0.114212304
240	0xbd818abd	-0.0632529
241	0xbd9f68ee	-0.077836856
242	0xbd61ea9c	-0.05515538
243	0xbd8464ee	-0.06464563
244	0x39df9bb0	0.0004264987
245	0xbd7f15d3	-0.062276673
246	0xbd65704d	-0.0560153
247	0xbc8ce8f9	-0.017200934
248	0xbd658a9a	-0.056040384
249	0x3d1b9f9a	0.037994005
250	0xbc9fcc85	-0.019506702
251	0xbc0282b6	-0.007965734
252	0xbbb325b5	-0.0054671415
253	0xbc1c76d7	-0.009549818
254	0x3d832b9d	0.06404803
255	0x3d9a3ebb	0.07531496

layer3.1.weight f4 [32]
0	0x3f99d95b	1.2019457
1	0x3f8d158b	1.1022199
2	0x3f923d4f	1.142496
3	0x3f7ba98c	0.98305583
4	0x3f92dc64	1.1473508
5	0x3f82b630	1.0211849
6	0x3f980766	1.1877258
7	0x3f904e03	1.1273807
8	0x3f8fc389	1.1231548
9	0x3f99730b	1.1988233
10	0x3f8bf574	1.0934281
11	0x3f985ffc	1.1904292
12	0x3f937d1b	1.1522554
13	0x3f8a2009	1.0791026
14	0x3f9b807a	1.2148583
15	0x3f927119	1.1440765
16	0x3f8e39d0	1.1111393
17	0x3f8d4132	1.1035521
18	0x3f944760	1.1584282
19	0x3f909a9c	1.1297183
20	0x3f8e1fe6	1.1103485
21	0x3fa1199c	1.258594
22	0x3f9d1dd2	1.2274725
23	0x3f9e6d69	1.2377139
24	0x3f9b09ca	1.2112362
25	0x3f9edfee	1.2412088
26	0x3f8f2b0b	1.1185011
27	0x3f837b8c	1.0272079
28	0x3f875047	1.0571374
29	0x3f90a7c5	1.1301199
30	0x3f9d24fb	1.227691
31	0x3f8de1c6	1.1084526

layer3.1.bias f4 [32]
0	0xbe91cb52	-0.28475434
1	0xbe8ac79e	-0.2710542
2	0xbe8bce5e	-0.27305883
3	0xbe4b85fa	-0.19875327
4	0xbe8e2ace	-0.27767032
5	0xbe614ce1	-0.22001983
6	0xbe747427	-0.23872434
7	0xbe854585	-0.26029602
8	0xbe740957	-0.23831688
9	0xbe764d46	-0.24052915
10	0xbe76c93b	-0.24100201
11	0xbe906a09	-0.28205898
12	0xbe5a41da	-0.21314183
13	0xbe984ac7	-0.2974455
14	0xbe565f3d	-0.20934768
15	0xbe75a25d	-0.23987718
16	0xbe7afe1c	-0.24510998
17	0xbe82949d	-0.25504008
18	0xbe4451df	-0.19171856
19	0xbe831db7	-0.25608608
20	0xbe97be20	-0.2963724
21	0xbe955cd4	-0.29172385
22	0xbe062510	-0.13100076
23	0xbe626412	-0.22108486
24	0xbe8fa1f5	-0.2805325
25	0xbea4a273	-0.3215519
26	0xbe7f5a1a	-0.24936715
27	0xbe68b020	-0.22723436
28	0xbe777a16	-0.24167666
29	0xbe74c758	-0.23904169
30	0xbe2ec1a7	-0.1706606
31	0xbe6307ee	-0.22170994

layer3.1.running_mean f4 [32]
0	0x3cc6308e	0.024193075
1	0x3e9fabfc	0.311859
2	0x3bcc602f	0.006237052
3	0x3e6f21be	0.23352715
4	0xbd2018b8	-0.039086074
5	0x3dcb3ff1	0.09924305
6	0xbe168585	-0.14699371
7	0xbbb47dc9	-0.005508159
8	0xbe7b102c	-0.24517888
9	0x3d9de232	0.07709159
10	0x3d038ab1	0.03211469
11	0xbdd64206	-0.10461812
12	0x3c9dea50	0.019276768
13	0x3da73268	0.08163911
14	0xbc7fc9e7	-0.015612102
15	0xbe1a7443	-0.15083413
16	0x3d9ef056	0.07760684
17	0xbd48d18e	-0.049027972
18	0x3ced8c41	0.028997542
19	0x3e070d35	0.13188632
20	0xbd424da8	-0.04743734
21	0x3ddafc0d	0.10692606
22	0xbe6dc035	-0.23217852
23	0xbde8d657	-0.11369007
24	0xbc8eafa3	-0.017417734
25	0x3cb49ccc	0.022047423
26	0xbe00c2a4	-0.1257425
27	0x3e419dfb	0.18907921
28	0x3d4507d5	0.048103172
29	0x3e46f231	0.19428326
30	0xbddc0169	-0.107424565
31	0xbec88a2a	-0.3916791

layer3.1.running_var f4 [32]
0	0x40a3bab9	5.1165433
1	0x40862623	4.1921554
2	0x406f35b2	3.7376523
3	0x40a9aebd	5.3025804
4	0x40ade297	5.43391
5	0x40872ba0	4.2240753
6	0x40bc2770	5.879814
7	0x408ea889	4.458073
8	0x40c3ca17	6.118419
9	0x40abb504	5.3658466
10	0x4038f12e	2.8897204
11	0x4093c60e	4.6179266
12	0x40a513a1	5.158646
13	0x4093845d	4.6099076
14	0x40a06c37	5.01321
15	0x40a444a9	5.1333814
16	0x409e47bd	4.946257
17	0x40b49a83	5.6438613
18	0x40747f8f	3.8202856
19	0x4077b469	3.8703864
20	0x40a4e97a	5.1535006
21	0x408e3285	4.443667
22	0x41135dfc	9.210445
23	0x40a590fc	5.1739483
24	0x40baf9d9	5.842999
25	0x40cded7a	6.435239
26	0x407244bb	3.785445
27	0x408f92bd	4.4866624
28	0x4035ecb7	2.842573
29	0x408761dc	4.2306957
30	0x408f6bba	4.4819
31	0x409ae30e	4.8402166

fc.weight f4 [2, 736]
0	0x3e4f018c	0.20215434
1	0xbe7ecbba	-0.24882403
2	0xbdad51e5	-0.08462886
3	0xbd55277c	-0.05203961
4	0x3c8b88f2	0.017033074
5	0x3cdaba1f	0.026700078
6	0x3c4e8a71	0.012606249
7	0x3e1230a1	0.14276363
8	0xbd7a8560	-0.061162353
9	0x3e202877	0.15640436
10	0x3dd6da06	0.104908034
11	0x3deae425	0.11469296
12	0x3d51ef07	0.051253345
13	0x3e2e3cb5	0.17015345
14	0x3d9eafed	0.07748399
15	0xbda1d29b	-0.07901498
16	0x3d9a997f	0.07548808
17	0x3d856629	0.06513626
18	0xbd07db36	-0.03316804
19	0x3dadbcb5	0.08483259
20	0x3dc413e9	0.0957411
21	0x3d2b2e9b	0.041792493
22	0x3c50fe42	0.012755932
23	0xbda33fc5	-0.079711474
24	0xbdb75a66	-0.08952789
25	0xbd6d59b6	-0.057946883
26	0xbd31a2d7	-0.043368187
27	0xbdd184f8	-0.1023044
28	0xbdad2c9f	-0.084557764
29	0xbbacd4a0	-0.0052743703
30	0xbda21627	-0.079143815
31	0xbaac6038	-0.0013151234
32	0x3c9c7283	0.019097572
33	0x3e020459	0.12696971
34	0x3d881944	0.06645444
35	0x3dd77cf1	0.105218776
36	0x3d086f97	0.033309545
37	0x3cefcb01	0.029271604
38	0x3d1a44c9	0.037663255
39	0x3d19709f	0.03746092
40	0x3d6f3716	0.058402143
41	0x3cc27254	0.023736157
42	0xbd3bdba4	-0.045863762
43	0x3c79e61b	0.015252615
44	0x3c08ed63	0.008357379
45	0xbd2a32e3	-0.041552436
46	0x3e2b469d	0.16726156
47	0x3dd1a1a9	0.10235912
48	0x3d2b681f	0.041847344
49	0xbcdfbf31	-0.027312847
50	0x3d4371e2	0.04771603
51	0xbd4f97c5	-0.050681848
52	0x3dfaad80	0.12240124
53	0xbd8480f0	-0.064699054
54	0xbc6d1d94	-0.014472384
55	0x3a741f93	0.0009312566
56	0x3d107ddf	0.03527629
57	0x3cd28aa3	0.025700873
58	0x3ca9370b	0.02065613
59	0xbddc07eb	-0.10743698
60	0xbc02bd7a	-0.007979745
61	0xbc3fb650	-0.0117011815
62	0xbd096f10	-0.033553183
63	0x3d0241e1	0.03180111
64	0xbe0eecf8	-0.13957584
65	0xbbc254e8	-0.005930532
66	0x3c986383	0.018602138
67	0xbd9e1097	-0.07718008
68	0xbd9674c5	-0.07346491
69	0x3e790fab	0.24322383
70	0x3de1ce69	0.11025698
71	0x3d3724b1	0.044712726
72	0x3d152145	0.03640868
73	0x3bf90722	0.0075997273
74	0xbd035d39	-0.032071326
75	0xbc126c76	-0.008936992
76	0xbd35162f	-0.04421061
77	0xbd529f2b	-0.051421326
78	0xbda8ba1c	-0.082386225
79	0xbcc993d4	-0.024606623
80	0xbd21a7cd	-0.039466668
81	0xbc38fcdf	-0.011290758
82	0x3c4e6e5a	0.012599552
83	0x39b86cb7	0.00035176214
84	0xbd36304e	-0.04447966
85	0x3ca2aeab	0.019858679
86	0x3ca25a4d	0.01981845
87	0x3c03543b	0.008015688
88	0x3c460bd7	0.012087784
89	0x3d04a950	0.03238803
90	0x3dc3ac4e	0.09554349
91	0xbc964629	-0.018344002
92	0x3d37f9a7	0.04491582
93	0x3dca68a9	0.098832436
94	0x3d9ad566	0.07560234
95	0x3d76adaa	0.060224213
96	0x3e136ce8	0.14397013
97	0xbdcad9f1	-0.0990485
98	0xbce3d5e3	-0.02781195
99	0xbd612d6f	-0.05497497
100	0x3cdee01e	0.027206477
101	0xbe7272c5	-0.23676594
102	0xbc3ece69	-0.011645892
103	0xbceb337b	-0.028711071
104	0x3cb57dfc	0.0221548
105	0xbd0fea4c	-0.035135552
106	0xbd5c15ad	-0.05373161
107	0xbd290053	-0.041260075
108	0xbd4165a9	-0.04721609
109	0x3d5859f8	0.052820176
110	0x3d83aa0b	0.064289175
111	0x3da5145b	0.08060523
112	0x3de0cd04	0.109766036
113	0xbcc01e10	-0.023451835
114	0x3d15ff0b	0.03662018
115	0xbd6931fb	-0.05693243
116	0x3d8548b5	0.065080084
117	0x3d029ae9	0.031886015
118	0x3e014fcd	0.12628098
119	0x3e225a09	0.15854658
120	0x3d9615bb	0.073283635
121	0x3e05cd6c	0.13066643
122	0x3cf7779e	0.030208405
123	0x3d102080	0.035187244
124	0x3d4f17de	0.05055987
125	0x3d79bd89	0.06097177
126	0x3a217fba	0.00061606953
127	0xbbe66770	-0.0070313737
128	0xbd906f6a	-0.070525005
129	0x3db9c1ff	0.09070205
130	0x3da4063c	0.080090016
131	0x3dbaca7c	0.09120652
132	0x3ceabb5c	0.028653793
133	0xbc196489	-0.009362348
134	0x3debf8b8	0.11522049
135	0x3dbf8054	0.093506485
136	0x3b8bdbb4	0.004268134
137	0x3be22c43	0.006902249
138	0xbda1b649	-0.07896096
139	0xbd97d531	-0.0741371
140	0xbdbbd1ce	-0.091708764
141	0xbcbc70b8	-0.023002967
142	0xbe4bc408	-0.19898999
143	0xbddbbaed	-0.10729013
144	0xbe66c31e	-0.22535369
145	0xbd4baa84	-0.049723163
146	0xbc7895c2	-0.015172424
147	0xbe066aa8	-0.13126624
148	0xbe39bbc3	-0.18138032
149	0x3c1e4fdc	0.009662595
150	0xbe0e8650	-0.13918424
151	0x3e23397d	0.15939899
152	0x3d312aa2	0.04325355
153	0x3d8174e0	0.0632112
154	0xbcf0a84e	-0.029377129
155	0x38dbe4fd	0.00010485386
156	0xbd65b722	-0.056082852
157	0xbd1cf150	-0.03831607
158	0xbcaad633	-0.020854091
159	0xbd945b50	-0.07243979
160	0x3d246417	0.040134516
161	0x3dc3148e	0.09525405
162	0xbd9db8e4	-0.07701281
163	0x3d05ac37	0.03263494
164	0xbd97f038	-0.07418865
165	0xbddfee83	-0.109341644
166	0xbdacfeb0	-0.08447015
167	0xbcb0c8dc	-0.021580152
168	0xbd29df59	-0.041472767
169	0xbd4a3d13	-0.04937465
170	0xbe0152a3	-0.1262918
171	0x3c439709	0.011937865
172	0xbcc134e8	-0.023584798
173	0x3c92fbf0	0.017942399
174	0x3d147eb4	0.036253646
175	0xbe061ec6	-0.13097677
176	0x3b4e0dbd	0.0031441294
177	0xbe020b88	-0.12699711
178	0xbccd12c9	-0.025033372
179	0xbce4f229	-0.027947502
180	0xbe3926b1	-0.18081166
181	0x3d63e85e	0.055641524
182	0x3cfe66a9	0.031054812
183	0x3cc532c4	0.024072058
184	0x3dd34422	0.1031573
185	0x3d754938	0.05988428
186	0x3d71bb39	0.05901644
187	0x3e805e42	0.25071913
188	0x3dff7b20	0.12474656
189	0xbd1e7f84	-0.038695827
190	0xbd1923c7	-0.037387636
191	0x3d8d4fb6	0.06899969
192	0xbc827fb1	-0.015930029
193	0xbc7a2843	-0.015268388
194	0xbd76bf9b	-0.060241323
195	0xbd06d667	-0.032919314
196	0xbd911061	-0.07083202
197	0x3d9ba9c5	0.0760074
198	0x3ca76c46	0.020437371
199	0xbd264870	-0.040596426
200	0xbd4215c1	-0.047384027
201	0xbd25fa97	-0.040522184
202	0x3cb6f818	0.022335097
203	0xbca8f14d	-0.020622874
204	0xbd3a1678	-0.045431584
205	0xba8f58e2	-0.0010936523
206	0xbd6ba23b	-0.057527762
207	0xbc9f7860	-0.019466579
208	0x3bcb46d2	0.006203511
209	0xbd02d387	-0.03194001
210	0xbe2c4498	-0.16823041
211	0xbddc1ab2	-0.10747279
212	0xbdf6939b	-0.12039872
213	0xbcf6a68b	-0.03010871
214	0xbe0f06c4	-0.13967425
215	0xbdbdfec2	-0.09277107
216	0x3d334655	0.043768246
217	0xbc64621b	-0.013939406
218	0x3e012d72	0.12614992
219	0xbe09247c	-0.13392824
220	0x3da8c900	0.08241463
221	0x3d6bd6e7	0.057577994
222	0x3da5c0f1	0.08093441
223	0x3d61a36f	0.055087503
224	0xbd797ff6	-0.06091305
225	0xbd8a73ce	-0.06760369
226	0xbd0f31b8	-0.034959525
227	0xbdd15b7e	-0.10222529
228	0xbc1a40f0	-0.009414896
229	0xbdd9da8d	-0.106373884
230	0xbdf5ecf2	-0.12008084
231	0xbe00dfd4	-0.12585384
232	0xbdca78bd	-0.0988631
233	0xbc3f8d90	-0.011691466
234	0xbbbbb75a	-0.0057286443
235	0x3c4fdd99	0.01268711
236	0xbbb3344f	-0.005468882
237	0x3ceb3dab	0.028715929
238	0x3d83c74e	0.06434499
239	0x3c882ae8	0.016622022
240	0x3d80b44d	0.0628439
241	0x3d76b750	0.060233414
242	0x3ca52540	0.020159364
243	0xbc5b23c2	-0.013375225
244	0xbcacfbf2	-0.02111623
245	0x3c05ca3f	0.008165895
246	0x3d201c59	0.039089534
247	0x3cb0a8a2	0.021564785
248	0xbb041c3b	-0.0020158428
249	0x3c2e33f1	0.010632501
250	0x3c6a72f2	0.014309632
251	0x3d1dbbaf	0.038509067
252	0x3d10af00	0.035323143
253	0x3e315f7b	0.17321579
254	0x3d562315	0.05227955
255	0x3d72b0f9	0.059250806

fc.bias f4 [2]
0	0x3ad72389	0.0016413789
1	0xbbd830c2	-0.0065976093
