Lab2/eeg_net_relu.pth (torch_old, 75072 bytes, 17 tensors)

layer1.0.weight f4 [16, 1, 1, 51]
0.046824247 -0.027269209 0.15480712 0.041194934 -0.0036208548 -0.15268417 0.0017769493 -0.104892045
0.002670059 -0.012668813 0.02826148 0.00028514548 0.035391163 0.2020098 0.016487136 -0.18872283
-0.2587503 0.0692484 0.037137948 -0.07289072 -0.11238159 0.08460016 0.17150617 0.0755227
-0.015835844 0.056251135 -0.18587399 -0.057221346 -0.08108437 -0.100298636 0.018770982 0.122755446
0.16967063 -0.13334593 0.04312933 0.078896195 -0.07271853 -0.0055684447 -0.09398314 -0.18869527
0.08609564 0.130347 -0.008808781 0.08519596 -0.0031119103 -0.0033825806 -0.09293112 0.13697861
-0.01991681 -0.25515726 0.09494068 -0.018742453 -0.024875302 0.03799989 -0.12283062 -0.053690244
-0.17383179 -0.046440516 -0.15226299 -0.009703673 0.08764384 -0.1609342 -0.08278097 -0.08456206
-0.16082452 -0.043193564 -0.08682283 -0.062928036 0.14885111 0.18409659 0.022480031 0.16431205
0.02006172 -0.11370962 -0.022877457 -0.16301484 -0.082459785 -0.04929989 0.044255495 -0.0462781
0.06713979 -0.11185934 0.09169622 -0.028621588 0.12099159 0.0818683 0.13990332 0.057278186
0.11775717 0.029554788 -0.08267114 -0.17555499 -0.19148377 -0.1112276 -0.09891586 0.15080136
0.07773596 0.048158307 0.12964043 -0.13611 0.029818093 -0.11339604 -0.11452407 -0.04717473
-0.11358114 0.06715708 -0.046598773 -0.035671182 -0.12863638 -0.05852077 0.10052724 0.16719282
-0.021507194 -0.044117235 0.006410877 -0.14060763 0.08530744 -0.09271194 0.005382135 0.040107507
-0.1154034 0.005367694 0.05766337 -0.021497136 0.052500233 -0.17163385 0.09287017 0.09884676
-0.017313477 -0.06631132 -0.14500481 -0.12212238 -0.026826117 0.12311493 0.11890444 0.008466507
-0.25201654 -0.11222564 -0.068134226 0.112995 0.09998163 -0.10825016 -0.16617058 -0.21450965
-0.02445154 0.04317366 0.12606046 -0.071307756 -0.21071239 -0.18951885 0.084355794 0.07814871
0.07174473 -0.24351512 0.018002 -0.13095112 0.0029593636 -0.054950044 0.15456298 0.06184743
0.014063466 0.012255674 0.1617885 0.09623852 -0.21585374 -0.0029753754 0.15991035 -0.16585061
-0.05566789 0.096024334 -0.14491604 0.027819512 -0.043207366 -0.013292663 0.21527995 -0.108573504
0.13276103 0.12206367 0.10676825 -0.12948392 0.06761725 -0.14780433 -0.17005372 0.07768324
-0.16219112 -0.07942231 0.12230297 -0.031056376 0.044501703 0.08556342 -0.079837754 0.15129742
-0.02353356 -0.12339123 0.071862824 -0.0012646868 0.0087721655 -0.14331263 0.014287258 -0.12790887
0.12435548 -0.13827558 -0.020636164 0.11806119 -0.2578307 -0.06277507 -0.25535947 -0.065011404
-0.024046415 -0.059690297 -0.05827388 0.006966634 -0.14376587 0.056100152 0.16260573 -0.059063558
0.013932807 0.057863615 -0.027493792 0.056372307 0.056100316 0.058973927 0.031755798 -0.16428626
0.042679068 -0.045468025 -0.032767545 -0.08905815 -0.011239439 -0.1327911 -0.0023787527 0.21400437
0.021740766 -0.03017455 -0.085487336 0.010135683 0.11996988 0.17895392 -0.01301051 0.036447026
0.11569446 0.094041675 0.029283622 -0.021708343 -0.17917855 -0.101521656 -0.12732574 -0.06991685
-0.06187337 0.0018846294 -0.043145075 -0.06857822 -0.05128531 -0.19552054 -0.2807599 -0.055240635
00000000: c8ca 3f3d ad63 dfbc c285 1e3e 05bc 283d
00000010: dd4b 6dbb 3d59 1cbe 86e8 e83a a4d1 d6bd
00000020: 28fc 2e3b da90 4fbc 9f84 e73c 947f 9539
00000030: 53f6 103d a8db 4e3e 0810 873c 8f40 41be
00000040: eb7a 84be 1bd2 8d3d f61d 183d bb47 95bd
00000050: 5228 e6bd d942 ad3d 509f 2f3e a5ab 9a3d
00000060: 2cba 81bc 9767 663d c055 3ebe ee60 6abd
00000070: 900f a6bd 5f69 cdbd 9ac5 993c 3567 fb3d
00000080: 23be 2d3e d68b 08be 61a8 303d 5494 a13d
00000090: 74ed 94bd 8077 b6bb 3c7a c0bd 5539 41be
000000a0: e952 b03d af79 053e b552 10bc 387b ae3d
000000b0: 31f1 4bbb 49ae 5dbb ac52 bebd 1f44 0c3e
000000c0: 9428 a3bc f9a3 82be 4270 c23d c689 99bc
000000d0: 4ac7 cbbc c6a5 1b3d 9f8e fbbd 4dea 5bbd
000000e0: f600 32be 6938 3ebd d4ea 1bbe 28fc 1ebc
000000f0: 9d7e b33d efcb 24be 1289 a9bd e02e adbd
00000100: 2faf 24be bceb 30bd 2bd0 b1bd 6ae0 80bd
00000110: 6d6c 183e d183 3c3e 0b28 b83c 6b41 283e
00000120: 7a58 a43c 97e0 e8bd 8169 bbbc 5ded 26be
00000130: ade0 a8bd aeee 49bd 4045 353d 1b8e 3dbd
00000140: 9680 893d 8216 e5bd 3acb bb3d d277 eabc
00000150: 70ca f73d 91aa a73d d142 0f3e 889c 6a3d
00000160: ac2a f13d e21c f23c 7d4f a9bd b0c4 33be
00000170: 5214 44be 4ccb e3bd 6694 cabd ac6b 1a3e
00000180: 0834 9f3d a541 453d 76c0 043e 6b60 0bbe
00000190: 1345 f43c 2f3c e8bd 988b eabd 4a3a 41bd
000001a0: 3b9d e8bd a789 893d 5bde 3ebd f21b 12bd
000001b0: 41b9 03be 7ab3 6fbd 3ae1 cd3d 9834 2b3e
000001c0: db2f b0bc 46b4 34bd 5612 d23b 72fb 0fbe
000001d0: abb5 ae3d c2df bdbd 9f5c b03b c547 243d
000001e0: 9e58 ecbd 7be3 af3b 6d30 6c3d c31a b0bc
000001f0: 7c0a 573d c9c0 2fbe b732 be3d 2c70 ca3d
00000200: fed4 8dbc 3bce 87bd 247c 14be 4c1b fabd
00000210: 72c2 dbbc ae23 fc3d 2c84 f33d 1bb7 0a3c
00000220: 5008 81be 8ed6 e5bd f589 8bbd ec69 e73d
00000230: 2bc3 cc3d 43b2 ddbd 9f28 2abe 6ba8 5bbe
00000240: 994e c8bc ddd6 303d fe15 013e cd09 92bd
00000250: fdc4 57be 3b11 42be bbc2 ac3d 6e0c a03d
00000260: e7ee 923d 075c 79be ee78 933c 0d18 06be
00000270: e2f1 413b 4c13 61bd c245 1e3e bb53 7d3d
00000280: 746a 663c 06cc 483c e2ab 253e b418 c53d
00000290: c308 5dbe 84fe 42bb 8abf 233e bed4 29be
000002a0: 0304 64bd 68a8 c43d df64 14be bfe5 e33c
000002b0: 35fa 30bd 78c9 59bc 5972 5c3e c95b debd
000002c0: 82f2 073e 84fc f93d 50a9 da3d 6f97 04be
000002d0: ea7a 8a3d 055a 17be 9022 2ebe 6418 9f3d
000002e0: 6e15 26be 2aa8 a2bd fb79 fa3d f169 febc
000002f0: 6b47 363d e03b af3d fa81 a3bd b6ed 1a3e
00000300: 74c9 c0bc 8bb4 fcbd d12c 933d d9c3 a5ba
00000310: 21b9 0f3c 8cc0 12be 1a15 6a3c 8bfa 02be
00000320: 16ae fe3d 1d98 0dbe 2c0d a9bc 11ca f13d
00000330: 6302 84be 3790 80bd 7abe 82be b324 85bd
00000340: fdfc c4bc d07d 74bd 98b0 6ebd 5d48 e43b
00000350: 5c37 13be 46c9 653d 1e82 263e a1ec 71bd
00000360: 6e46 643c 6602 6d3d a93a e1bc a6e6 663d
00000370: 72c9 653d a58e 713d 5e12 023d a83a 28be
00000380: 3fd0 2e3d ae3c 3abd 4337 06bd 1f64 b6bd
00000390: a025 38bc 64fa 07be d9e4 1bbb f623 5b3e
000003a0: b119 b23c 9e30 f7bc fc13 afbd 2310 263c
000003b0: c5b2 f53d b23f 373e 092a 55bc 7a49 153d
000003c0: 38f1 ec3d ec98 c03d 35e4 ef3c b2d5 b1bc
000003d0: 957a 37be 96ea cfbd ae61 02be 9130 8fbd
000003e0: ee6e 7dbd ab05 f73a e4b8 30bd bd72 8cbd
000003f0: 8c10 52bd 8936 48be c3bf 8fbe 0144 62bd

layer1.1.weight f4 [16]
0.3754545 0.118788585 0.7898987 0.2386039 0.48654172 0.29804537 0.38129535 0.4075266
0.3659371 0.28525317 0.20375326 0.4608845 0.22649196 0.6552452 0.12377299 0.24901073
00000000: 923b c03e 6e47 f33d cd36 4a3f 9554 743e
00000010: ff1b f93e 6799 983e 2539 c33e 54a7 d03e
00000020: 1c5c bb3e b40c 923e b2a4 503e 0ef9 eb3e
00000030: 82ed 673e 26be 273f b27c fd3d abfc 7e3e

layer1.1.bias f4 [16]
0.0021179807 0.00058497826 -0.0016062515 -0.003532767 -0.0007670649 -3.2052514e-05 -8.948032e-05 0.0030138842
-0.003170811 9.254629e-05 0.0012600155 -0.00028924865 -0.0010284706 -0.0010432568 0.001607341 0.0017458673
00000000: d2cd 0a3b 3a59 193a db88 d2ba ff85 67bb
00000010: db14 49ba 2070 06b8 62a7 bbb8 9684 453b
00000020: 62cd 4fbb 6915 c238 1b27 a53a 4ca6 97b9
00000030: bfcd 86ba e4bd 88ba 6aad d23a 96d5 e43a

layer1.1.running_mean f4 [16]
0.006293291 0.027215699 0.054170426 0.012470742 0.07922107 -0.005338491 0.028565202 0.0042053764
0.028482407 -0.116938695 0.007845287 -0.026649041 0.00082251494 0.0058952034 0.028284034 0.00020421324
00000000: f437 ce3b 75f3 de3c cfe1 5d3d 1552 4c3c
00000010: a83e a23d 82ee aebb 9201 ea3c 41cd 893b
00000020: f053 e93c 8e7d efbd 8589 003c 174f dabc
00000030: 0b9e 573a 8d2c c13b ebb3 e73c 1322 5639

layer1.1.running_var f4 [16]
11.729711 31.515202 24.151491 13.475056 31.313215 14.921069 31.882496 4.50462
19.58934 151.38367 39.35554 9.388437 2.7006187 13.351602 51.931606 3.732306
00000000: e5ac 3b41 221f fc41 4136 c141 d499 5741
00000010: 7781 fa41 b3bc 6e41 5a0f ff41 d925 9040
00000020: f8b6 9c41 3862 1743 136c 1d42 0a37 1641
00000030: f0d6 2c40 29a0 5541 f7b9 4f42 1ade 6e40

layer2.0.weight f4 [32, 1, 2, 1]
-0.5644939 0.1224653 0.08982038 -0.93555254 -0.32317373 -0.4079678 -0.18615307 -0.6232126
0.23448905 -0.5165331 0.19253694 -0.04104812 0.37384844 -0.37621224 -0.3569367 0.459667
-0.2518181 -0.14317422 -0.6338537 0.2887792 -0.42951113 0.42601374 -0.4888048 0.45784166
0.45484492 -0.60282916 0.80459565 0.31118336 0.28787008 -0.08795119 -0.65574104 0.112714
-0.47740644 0.39479586 0.30887717 0.1930938 0.45274633 0.84344846 0.40564433 -0.480855
-0.30647862 0.23240684 0.40434548 0.73772025 0.16094191 -0.36004174 -0.58985466 0.49972546
-0.683044 0.06619834 -0.14969702 0.49135795 -0.036903847 0.4210563 0.25999498 -0.042622115
-0.6644748 0.28409448 -0.23183793 0.6490411 0.10073082 -0.6262871 -0.046709288 0.4993273
00000000: ac82 10bf 16cf fa3d bff3 b73d 5f80 6fbf
00000010: 0777 a5be 28e1 d0be e99e 3ebe dc8a 1fbf
00000020: e61d 703e 833b 04bf 6728 453e 1322 28bd
00000030: 1069 bf3e e49e c0be 68c0 b6be 7959 eb3e
00000040: 4dee 80be 439c 12be 3c44 22bf deda 933e
00000050: e2e8 dbbe 791e da3e 9f44 fabe 396a ea3e
00000060: 6fe1 e83e 0353 1abf fbf9 4d3f 6d53 9f3e
00000070: b563 933e c11f b4bd a5de 27bf 99d6 e63d
00000080: 9e6e f4be af22 ca3e 2625 9e3e 62ba 453e
00000090: 5ece e73e 3dec 573f 9db0 cf3e a032 f6be
000000a0: c4ea 9cbe 0ffc 6d3e 5f06 cf3e 3cdb 3c3f
000000b0: f5cd 243e 6457 b8be b700 17bf 04dc ff3e
000000c0: f9db 2ebf ff92 873d 2d4a 19be 4593 fb3e
000000d0: 7d28 17bd b194 d73e 101e 853e 8794 2ebd
000000e0: 051b 2abf d574 913e ec66 6dbe 8f27 263f
000000f0: f64b ce3d 5a54 20bf 3d52 3fbd d4a7 ff3e

layer2.1.weight f4 [32]
1.0240167 1.0976973 0.68830115 0.72638184 0.8773237 0.83471334 0.9397239 0.84711945
0.8845218 0.8161401 0.7857862 0.7950339 0.8407659 0.74583197 0.96878403 0.94578624
0.9138725 0.86763656 0.81973857 0.6873232 0.91446006 0.8758353 0.8936319 0.8853133
0.9012601 1.0386434 1.0894226 0.9505436 0.69144315 0.86578226 1.0344994 1.0690572
00000000: fb12 833f 5881 8c3f 8134 303f 29f4 393f
00000010: 4998 603f c6af 553f bf91 703f d2dc 583f
00000020: 0570 623f 8fee 503f 4929 493f 5787 4b3f
00000030: 6f3c 573f d8ee 3e3f 3b02 783f 0c1f 723f
00000040: 8cf3 693f 6e1d 5e3f 63da 513f 6af4 2f3f
00000050: 0e1a 6a3f be36 603f 0fc5 643f e4a3 623f
00000060: fbb8 663f 44f2 843f 3372 8b3f d356 733f
00000070: 6b02 313f e8a3 5d3f 7a6a 843f ded6 883f

layer2.1.bias f4 [32]
-0.49440274 -0.8385924 -0.38067412 -0.4277036 -0.16490422 -0.52420765 -0.5772882 -0.5296793
-0.3671031 -0.42608514 -0.4233335 -0.39752394 -0.19864216 -0.1313646 -0.45243084 -0.4087399
-0.48921022 -0.46003416 -0.6556674 -0.1344699 -0.56144917 -0.29329497 -0.39955738 -0.18911633
-0.45100656 -0.57324857 -0.5718593 -0.691146 -0.14710316 -0.40893748 -0.5187819 -0.731803
00000000: 5b22 fdbe fead 56bf b8e7 c2be f7fb dabe
00000010: a7dc 28be 7932 06bf 29c9 13bf 1099 07bf
00000020: f0f4 bbbe d527 dabe 2bbf d8be 4288 cbbe
00000030: da68 4bbe 7184 06be 04a5 e7be 5b46 d1be
00000040: c379 fabe 9989 ebbe d2d9 27bf 7ab2 09be
00000050: 22bb 0fbf c22a 96be c992 ccbe b6a7 41be
00000060: 55ea e6be 6bc0 12bf 5f65 12bf f2ee 30bf
00000070: 36a2 16be 4160 d1be e4ce 04bf 7157 3bbf

layer2.1.running_mean f4 [32]
0.00015685368 -0.00025473544 -0.0005375816 -0.00071405165 -0.002401797 -0.0008367253 -0.00024622615 8.6372136e-05
0.0011416235 0.0025668845 0.00044396688 0.0005034939 -0.0010916744 -0.0009868131 0.0005408803 -0.0014331175
0.0003064788 -0.00079430814 -0.0016686311 0.0014664246 -8.956064e-05 0.001912836 0.0009174346 -0.0014153197
0.0015549392 -0.0006220594 -2.7288326e-05 -8.6319356e-05 0.00058809516 -6.358476e-05 -0.0021945296 0.0018624992
00000000: 1779 2439 038e 85b9 7eec 0cba 322f 3bba
00000010: 7867 1dbb af57 5bba ea17 81b9 b022 b538
00000020: 87a2 953a 2d39 283b 3ac4 e839 e7fc 033a
00000030: 8416 8fba f457 81ba ddc9 0d3a 72d7 bbba
00000040: e3ae a039 1e39 50ba f8b5 daba 0b35 c03a
00000050: 81d2 bbb8 20b8 fa3a fe7f 703a 4082 b9ba
00000060: 1acf cb3a b311 23ba 3ce9 e4b7 5a06 b5b8
00000070: 662a 1a3a cf58 85b8 19d2 0fbb 1a1f f43a

layer2.1.running_var f4 [32]
0.030503314 0.1218199 0.006442608 0.008388526 0.1178614 0.016484195 0.0048791966 0.006195761
0.030473068 0.053687867 0.009718076 0.01188599 0.028995592 0.15847449 0.011233681 0.060905103
0.014344059 0.0296341 0.11815188 0.01117867 0.0017249153 0.04934459 0.021168092 0.062372666
0.021357598 0.009830029 0.070172496 0.023214545 0.0035129895 0.0044453335 0.022286063 0.014592077
00000000: 16e2 f93c b67c f93d 831c d33b 0770 093c
00000010: 5161 f13d dd09 873c abe1 9f3b cf05 cb3b
00000020: a8a2 f93c cfe7 5b3d 9138 1f3c 75bd 423c
00000030: 2a88 ed3c 2347 223e 790d 383c a177 793d
00000040: 5803 6b3c 36c3 f23c 9df9 f13d be26 373c
00000050: 8e16 e23a 8e1d 4a3d b568 ad3c 7b7a 7f3d
00000060: 21f6 ae3c 210e 213c 99b6 8f3d 6e2c be3c
00000070: 2f3a 663b 29aa 913b 4391 b63c 9b13 6f3c

layer3.0.weight f4 [32, 32, 1, 15]
0.09947984 0.030669853 0.11433964 0.09546726 0.09028849 0.13231854 0.10365545 0.03580918
0.07113952 0.11234378 0.15335119 0.03699417 0.0989421 0.064396374 0.031802885 -0.062243145
-0.1204482 -0.068892635 -0.041995224 -0.10045624 -0.1277527 -0.074871734 -0.15456212 -0.18609083
-0.15458356 -0.12932338 -0.16754732 -0.2139231 -0.13495229 -0.24998444 -0.02161494 -0.04808865
-0.04683409 0.038436763 -0.06804358 -0.052065894 0.037521306 0.07785446 -0.12169873 -0.077800035
0.048378665 0.075030185 -0.11538 -0.03508112 0.06728906 -0.0013825556 -0.03849304 0.04188317
0.019221416 -0.08556615 -0.082934335 0.06571226 0.086109795 -0.09905122 -0.08750466 0.051920213
0.0036912786 -0.13298765 -0.04202401 0.025488855 0.033959053 0.016352452 0.074672304 0.069869556
-0.010230896 0.0684238 0.080196984 -0.000174522 0.021914806 0.081032395 0.0113930525 -0.0036300272
0.059815753 0.057135683 -0.02661704 -0.116171114 -0.06846638 -0.049944106 -0.05896628 -0.053597435
-0.017991548 -0.07218575 -0.03364071 -0.016009526 -0.040786013 -0.07319045 -0.037856124 -0.04378681
-0.0645658 0.0040951017 -0.029481633 0.030437727 0.06505803 0.009306841 0.013449859 0.09306212
0.049242873 -0.04262332 0.058644176 0.044321608 -0.07489827 -0.068959795 -0.023588624 -0.119948834
-0.14926969 0.07377185 0.055665117 0.07562878 0.08087576 -0.0065866844 0.018324763 0.032830354
-0.04444577 -0.037777342 0.016878664 -0.01681284 -0.08483223 -0.13411689 -0.084397234 0.02220632
0.006988645 0.0004434894 -0.022413611 -0.04633011 -0.09542115 -0.09607912 -0.061280925 -0.04723763
-0.059210606 0.08495063 0.036648493 0.021567415 0.017767264 0.07114673 -0.012602522 0.010868829
-0.055240512 0.019981235 -0.020840669 -0.09091129 -0.07519773 -0.00089492387 -0.017722698 -0.02174856
0.05564471 0.024084583 0.012459069 -0.006315806 -0.028948374 -0.06609184 -0.03724255 -0.0005305833
-0.02114088 -0.029630093 -0.019277224 -0.015309413 -0.010937148 0.023779517 0.013740025 0.014290609
0.08443773 0.053880554 0.016568346 0.011150819 0.03856254 -0.017964417 0.018054482 -0.0175068
-0.06459042 -0.0365987 -0.0013248567 -0.004784611 0.017213043 0.009339121 -0.012587112 0.01993326
0.04315009 0.07113984 0.07313771 0.00010834926 -0.040060796 -0.0031940707 -0.053070854 -0.054501064
-0.041058704 -0.04633024 -0.04940157 -0.058699686 -0.0516852 -0.07920075 -0.09102797 -0.06365614
-0.07134907 -0.008330997 -0.022618193 -0.0763345 -0.04188593 -0.07731397 -0.06893682 -0.020343577
-0.017399246 0.012922933 -0.0038436428 -0.047540646 -0.03833741 -0.00413155 -0.04427906 0.07313427
0.119332075 -0.05242582 0.009670454 -0.026530417 -0.077637866 -0.012033166 -0.05791099 -0.07739161
-0.033434674 0.115860164 0.05726857 -0.03061222 -0.01526262 -0.04996977 -0.009780296 0.019323042
0.0011876933 0.0008308344 0.016769161 0.01703109 -0.043902833 -0.07485337 -0.02079403 0.0010601624
-0.024996927 0.01356247 0.022246182 -0.08277749 -0.029093849 0.052679766 0.0007718636 -0.011561979
-0.15929234 -0.12940526 -0.0959895 -0.09823682 -0.073861904 -0.06308392 -0.033733577 0.023253057
-0.007828627 -0.120728984 -0.07187156 -0.05309927 -0.06522607 -0.11441173 -0.12927665 0.04362518
00000000: 16bc cb3d 583f fb3c e72a ea3d 5784 c33d
00000010: 2ce9 b83d 837e 073e 4f49 d43d a6ac 123d
00000020: 99b1 913d 7f14 e63d 1808 1d3e 3387 173d
00000030: 28a2 ca3d 3fe2 833d be43 023d abf2 7ebd
00000040: 8cad f6bd 9517 8dbd 2f03 2cbd 00bc cdbd
00000050: 9bd1 02be 5a56 99bd 8845 1ebe 988e 3ebe
00000060: 274b 1ebe 596d 04be 8691 2bbe a80e 5bbe
00000070: ef30 0abe ecfb 7fbe d111 b1bc 9bf8 44bd
00000080: 1ad5 3fbd de6f 1d3d 6f5a 8bbd 0c43 55bd
00000090: f1af 193d 2972 9f3d 2f3d f9bd a055 9fbd
000000a0: b528 463d 6da9 993d 594c ecbd 38b1 0fbd
000000b0: d9ce 893d de36 b5ba e1aa 1dbd b08d 2b3d
000000c0: 3b76 9d3c 4e3d afbd 7ad9 a9bd 2694 863d
000000d0: 555a b03d 5edb cabd a535 b3bd 4aaa 543d
000000e0: 61e9 713b ea2d 08be 5e21 2cbd 01ce d03c
000000f0: a618 0b3d 94f5 853c cbed 983d c517 8f3d
00000100: 7d9f 27bc c721 8c3d 513e a43d e5ff 36b9
00000110: ae86 b33c 50f4 a53d eda9 3a3c c0e5 6dbb
00000120: 5d01 753d 1b07 6a3d fb0b dabc 1feb edbd
00000130: 1a38 8cbd 3192 4cbd a086 71bd fc88 5bbd
00000140: 0363 93bc 1fd6 93bd d7ca 09bd 6926 83bc
00000150: 3c0f 27bd e0e4 95bd 060f 1bbd cc59 33bd
00000160: 133b 84bd 3430 863b 7783 f1bc 8a58 f93c
00000170: 253d 853d b87b 183c cc5c 5c3c 5a97 be3d
00000180: e5b2 493d ca95 2ebd e034 703d 938a 353d
00000190: 4464 99bd cb3a 8dbd ee3c c1bc bca7 f5bd
000001a0: 27da 18be b215 973d 1b01 643d 43e3 9a3d
000001b0: 31a2 a53d 1dd5 d7bb d01d 963c 1f79 063d
000001c0: c50c 36bd 6abc 1abd 2045 8a3c 15bb 89bc
000001d0: 85bc adbd f055 09be 75d8 acbd 07ea b53c
000001e0: 0101 e53b 2484 e839 c09c b7bc a4c4 3dbd
000001f0: 2a6c c3bd 21c5 c4bd b501 7bbd 3f7c 41bd
00000200: d286 72bd 99fa ad3d bb1c 163d 26ae b03c
00000210: a78c 913c 60b5 913d cf7a 4ebc 2c13 323c
00000220: e043 62bd b0af a33c 0dba aabc b32f babd
00000230: 4401 9abd 5399 6aba 312f 91bc 092a b2bc
00000240: b5eb 633d 084d c53c 1f21 4c3c d2f4 cebb
00000250: 2425 edbc 295b 87bd a58b 18bd d816 0bba
00000260: a42f adbc cfba f2bc 45eb 9dbc 55d4 7abc
00000270: b931 33bc 43cd c23c d81d 613c 2923 6a3c
00000280: b0ed ac3d dbb1 5c3d 57ba 873c edb1 363c
00000290: c1f3 1d3d 1d2a 93bc fee6 933c 6c6a 8fbc
000002a0: fb47 84bd 85e8 15bd d0a6 adba 3ac8 9cbb
000002b0: 5e02 8d3c 1d03 193c 2d3a 4ebc 134b a33c
000002c0: 26be 303d c4b1 913d 39c9 953d 9139 e338
000002d0: ca16 24bd 9d53 51bb d360 59bd 823c 5fbd
000002e0: 2c2d 28bd c7c4 3dbd 4d59 4abd 156f 70bd
000002f0: dcb3 53bd 0134 a2bd df6c babd 265e 82bd
00000300: 761f 92bd bc7e 08bc ca49 b9bc 4355 9cbd
00000310: 9590 2bbd c956 9ebd bf2e 8dbd 93a7 a6bc
00000320: dd88 8ebc b6ba 533c a0e5 7bbb fbb9 42bd
00000330: b007 1dbd f461 87bb f65d 35bd 6cc7 953d
00000340: 6064 f43d 75bc 56bd d370 1e3c 5156 d9bc
00000350: 9a00 9fbd c226 45bc 1334 6dbd 7e7f 9ebd
00000360: ccf2 08bd 1848 ed3d 7392 6a3d 7ac6 fabc
00000370: 1110 7abc 1aad 4cbd 893d 20bc 5b4b 9e3c
00000380: 60ac 9b3a 5acc 593a 7b5f 893c c984 8b3c
00000390: 75d3 33bd b94c 99bd 3e58 aabc 26f5 8a3a
000003a0: 5bc6 ccbc 1f35 5e3c a03d b63c 3f87 a9bd
000003b0: 3956 eebc bdc6 573d e456 4a3a 746e 3dbc
000003c0: 881d 23be d082 04be 2596 c4bd 6330 c9bd
000003d0: e944 97bd 2432 81bd 382c 0abd 327d be3c
000003e0: a443 00bc c240 f7bd 6531 93bd 9f7e 59bd
000003f0: 3f95 85bd b250 eabd 1961 04be 51b0 323d

layer3.1.weight f4 [32]
0.9597631 1.0427675 0.9481654 1.0214187 0.98511165 0.9857508 1.0118334 1.0465873
0.97474176 0.9575784 1.00994 0.97319585 0.96194494 0.9763729 0.9976876 1.0159317
0.9923371 1.0146213 1.003645 1.0406 1.0221888 1.0864708 1.0644171 0.9845315
1.0696676 0.99127775 0.9862433 1.0159357 0.9599683 1.0261673 0.97324234 1.0422219
00000000: 09b3 753f 6879 853f f8ba 723f d9bd 823f
00000010: 4730 7c3f 2a5a 7c3f c283 813f 93f6 853f
00000020: ad88 793f dc23 753f b745 813f 5d23 793f
00000030: 0642 763f 93f3 793f 7468 7f3f 0d0a 823f
00000040: ce09 7e3f 1cdf 813f 7077 803f 6132 853f
00000050: 15d7 823f 7a11 8b3f d23e 883f 420a 7c3f
00000060: deea 883f 61c4 7d3f 717a 7c3f 2e0a 823f
00000070: 7cc0 753f 7359 833f 6926 793f 8767 853f

layer3.1.bias f4 [32]
-0.28225377 -0.48422012 -0.4072146 -0.3154176 -0.33050513 -0.4121778 -0.4698954 -0.48560295
-0.2707179 -0.24585833 -0.43051285 -0.33622396 -0.32324854 -0.3871161 -0.43179455 -0.42499286
-0.37951437 -0.5302043 -0.4609058 -0.43658057 -0.53211534 -0.48182625 -0.20601167 -0.43669665
-0.14008068 -0.38260686 -0.2860257 -0.24343383 -0.4069642 -0.4742846 -0.3302361 -0.45068303
00000000: 9183 90be b3eb f7be 6f7e d0be 6a7e a1be
00000010: f837 a9be f808 d3be 2196 f0be f3a0 f8be
00000020: 899b 8abe 49c2 7bbe 2e6c dcbe 8c25 acbe
00000030: d580 a5be 1534 c6be 2d14 ddbe aa98 d9be
00000040: b54f c2be 78bb 07bf d8fb ebbe 7d87 dfbe
00000050: b638 08bf eeb1 f6be b9f4 52be b496 dfbe
00000060: 4f71 0fbe 0ce5 c3be f671 92be b846 79be
00000070: 9d5d d0be 6ed5 f2be b514 a9be edbf e6be

layer3.1.running_mean f4 [32]
-0.29326376 -0.6396236 0.113431476 -0.43984598 -0.44709617 -0.9764862 -0.61753976 -0.63780653
-0.47609663 -0.2138615 -0.61100155 -0.66326535 -0.2865943 -0.41221842 -0.888344 -1.0631534
-0.045773197 -0.44259837 -0.4709893 -0.7172798 -0.6908788 -0.7807215 -0.0027464135 -0.52256197
-0.08538098 -0.6289807 -0.37828502 -0.49299622 -0.16377081 0.041103665 -0.19363078 -0.512308
00000000: ab26 96be 5fbe 23bf c34e e83d 7e33 e1be
00000010: cae9 e4be 00fb 79bf 1617 1ebf 4a47 23bf
00000020: f0c2 f3be 82fe 5abe 996a 1cbf c2cb 29bf
00000030: 7dbc 92be 4b0e d3be 836a 63bf 6915 88bf
00000040: ad7c 3bbd 419c e2be 8225 f1be a69f 37bf
00000050: 6fdd 30bf 5ddd 47bf 2cfd 33bb 9fc6 05bf
00000060: 39dc aebd e104 21bf 93ae c1be 006a fcbe
00000070: 89b3 27be 515c 283d 2647 46be 9e26 03bf

layer3.1.running_var f4 [32]
0.6605675 1.0970346 0.6735316 0.9161993 0.62490135 1.3222456 0.87833154 0.96928847
0.8657072 0.6220921 1.0306888 0.48461518 0.64153796 0.9172749 0.85720706 0.9858283
0.60431254 0.80011237 1.109783 1.0368917 0.81361276 1.4410516 0.5781879 0.81722534
0.727051 0.542475 0.864578 0.52626944 0.66186845 0.59144616 0.7470545 1.10472
00000000: f41a 293f a16b 8c3f 916c 2c3f 0a8c 6a3f
00000010: 89f9 1f3f 583f a93f 56da 603f 4a23 783f
00000020: fd9e 5d3f 6e41 1f3f 9ced 833f 7b1f f83e
00000030: d53b 243f 87d2 6a3f ec71 5b3f 3e5f 7c3f
00000040: 3ab4 1a3f 2ad4 4c3f 5f0d 8e3f deb8 843f
00000050: ed48 503f 6174 b83f 1f04 143f ae35 513f
00000060: 0420 3a3f a4df 0a3f fc54 5d3f 98b9 063f
00000070: 3670 293f 0469 173f f73e 3f3f 7767 8d3f

fc.weight f4 [2, 736]
0.04486708 0.028335853 0.020621248 0.026282633 0.06474705 0.14077218 0.09760181 -0.018105539
0.10373561 0.0059678187 0.09023487 0.060682002 0.04731357 -0.06119052 0.028238267 0.04389979
0.0018190304 0.012757317 0.12883443 0.0619053 0.12185338 0.026763583 0.026272971 0.1381402
0.1530445 0.15061483 0.07730058 0.06303141 0.058986574 -0.021325607 -0.015363413 0.029571427
-0.13663623 -0.11375595 -0.096452355 -0.032332905 -0.0069173826 -0.19073607 -0.18251237 -0.09549901
0.008245788 -0.011400662 -0.048182864 -0.028400661 -0.012231932 0.020407777 -0.17456615 -0.07630095
-0.022247624 0.063483156 0.10447989 0.10377419 0.06282519 0.072386816 0.07097219 0.08280408
0.028426474 0.13027205 0.03184383 0.03211416 0.06368474 0.05440655 0.019679517 -0.033992186
0.039940555 0.1378121 0.012235918 0.022483371 0.08893508 0.17271492 0.23438609 0.10292018
0.12393559 0.0639332 0.09837642 0.075201444 0.04492722 0.008965566 0.034563534 0.03069482
0.03479163 -0.02075131 -0.10492147 0.05876797 -0.015209692 -0.028339125 -0.089481 -0.03421223
-0.040545534 -0.029487 -0.014601768 -0.069889024 -0.10669029 -0.14725074 -0.10675188 -0.17517138
-0.08352107 -0.12714092 -0.010656373 -0.00737164 0.0027586003 -0.0826128 -0.04066015 -0.06298046
-0.020996979 -0.04094655 -0.06164057 -0.023525905 -0.061148994 -0.018763287 -0.02437539 -0.123423554
0.013811256 -0.018681083 -0.033428166 0.15187253 0.16078484 0.1257462 0.0621972 -0.0044330577
0.015739955 -0.0106861675 0.01346346 0.06715264 0.08644845 0.050069313 0.06979117 0.040412296
0.18010268 -0.11686702 -0.04917872 0.0077475267 -0.026625471 -0.088601515 -0.08402828 -0.055908997
-7.377507e-05 -0.05965531 -0.27875453 -0.18602683 -0.018349268 -0.017154742 -0.00022964996 -0.00015853051
0.031260923 -0.014509039 0.14531991 0.07315848 0.12050455 0.11883243 0.01320038 -0.1388571
0.017243484 0.029152807 0.062082566 0.0764096 -0.0110473335 -0.0034562459 0.00694471 -0.05536797
-0.0661811 0.17276797 0.06621762 0.17708288 0.03810354 0.022369651 0.034927133 -0.024825294
-0.101645574 -0.13135798 -0.13629739 -0.14641541 -0.026411707 0.049717043 -0.11749471 -0.20063205
0.014591915 -0.034623016 -0.03403108 -0.038384117 0.0692011 0.039725825 -0.12003024 -0.03588445
0.14608233 0.11946556 0.051497784 0.070765674 0.102078654 0.12390848 0.061787046 -0.018871294
0.06479506 0.06348208 0.021470357 0.045724668 0.01132306 -0.13145292 -0.03346232 0.050580796
0.07543628 -0.012112252 -0.008907926 0.027477497 0.050860915 -0.0436578 -0.055241898 0.06681184
0.079872094 0.06805701 0.069964156 0.1260373 0.09160452 0.059219614 0.075480804 0.06525827
0.0988385 0.09568808 0.087821946 -0.0065334537 0.08344348 0.022821408 0.046848807 -0.01859109
0.018392753 0.03425621 -0.03307415 -0.028392885 0.028808687 0.025815431 0.1288882 0.2568821
0.0828463 0.06787183 0.07321805 -0.035724994 -0.005028706 -0.049684953 -0.01980675 -0.12757225
-0.08124069 -0.0876084 -0.029617278 -0.06409375 0.067790344 -0.13769053 -0.12131249 0.0035441732
0.033336125 -0.014368002 -0.028523348 -0.028687213 -0.058915786 -0.021959277 -0.12150768 -0.18505844
00000000: 8bc6 373d 9720 e83c e4ed a83c ad4e d73c
00000010: 1a9a 843d 9526 103e 75e3 c73d 1152 94bc
00000020: 5673 d43d b18d c33b 0fcd b83d b18d 783d
00000030: e0cb 413d e9a2 7abd f053 e73c 44d0 333d
00000040: 886c ee3a 1104 513c 2ced 033e 6990 7d3d
00000050: 448e f93d 4d3f db3c 6a3a d73c a074 0d3e
00000060: b3b7 1c3e c63a 1a3e c44f 9e3d 9d16 813d
00000070: e89b 713d 0ab3 aebc d3b6 7bbc c73f f23c
00000080: 5eea 0bbe e1f8 e8bd d088 c5bd 826f 04bd
00000090: 36ab e2bb 5150 43be 86e4 3abe fc94 c3bd
000000a0: 5719 073c d8c9 3abc 655b 45bd 81a8 e8bc
000000b0: 7168 48bc 362e a73c 78c1 32be ac43 9cbd
000000c0: a640 b6bc 7503 823d 8df9 d53d 9087 d43d
000000d0: 7eaa 803d 8a3f 943d de59 913d 2f95 a93d
000000e0: a3de e83c 0966 053e ad6e 023d 238a 033d
000000f0: 256d 823d 67d9 5e3d f036 a13c 643b 0bbd
00000100: b598 233d 9d1e 0d3e 2979 483c 0c2f b83c
00000110: 9823 b63d 2edc 303e e802 703e d1c7 d23d
00000120: f1d1 fd3d 69ef 823d 9479 c93d 3703 9a3d
00000130: 9b05 383d 4fe4 123c 7e92 0d3d b473 fb3c
00000140: ab81 0e3d a7fe a9bc 11e1 d6bd afb6 703d
00000150: 1232 79bc 7427 e8bc d141 b7bd 2022 0cbd
00000160: 1313 26bd b98e f1bc 413c 6fbc fa21 8fbd
00000170: 7080 dabd e6c8 16be bba0 dabd 2060 33be
00000180: 180d abbd 3b31 02be 1198 2ebc cc8d f1bb
00000190: a2c9 343b e630 a9bd 428b 26bd e6fb 80bd
000001a0: db01 acbc 92b7 27bd d37a 7cbd 66b9 c0bc
000001b0: 5e77 7abd 77b5 99bc e6ae c7bc 7dc5 fcbd
000001c0: 9b48 623c 1209 99bc f9eb 08bd 7984 1b3e
000001d0: c8a4 243e 9dc3 003e 7ec2 7e3d 2f43 91bb
000001e0: 14f1 803c 0915 2fbc d895 5c3c 5387 893d
000001f0: e30b b13d 7b15 4d3d acee 8e3d 5d87 253d
00000200: d66c 383e fa57 efbd a06f 49bd f7de fd3b
00000210: a91d dabc b674 b5bd 0517 acbd d500 65bd
00000220: b0b7 9ab8 2059 74bd eab8 8ebe d17d 3ebe
00000230: 3451 96bc 1a88 8cbc 31ce 70b9 363b 26b9
00000240: 740b 003d 52b7 6dbc bece 143e 1dd4 953d
00000250: 17cb f63d 6b5e f33d 6846 583c 8e30 0ebe
00000260: 3542 8d3c ded1 ee3c 4a4a 7e3d a37c 9c3d
00000270: e0ff 34bc 2f82 62bb 7390 e33b 86c9 62bd
00000280: f589 87bd 16ea 303e 1b9d 873d 3755 353e
00000290: 7512 1c3d 8f40 b73c c10f 0f3d 6a5e cbbc
000002a0: 8e2b d0bd b582 06be 8b91 0bbe eced 15be
000002b0: 5d5d d8bc 19a4 4b3d 11a1 f0bd 7d72 4dbe
000002c0: ed12 6f3c ddd0 0dbd 2c64 0bbd aa38 1dbd
000002d0: 4eb9 8d3d 8cb7 223d 6ad2 f5bd 93fb 12bd
000002e0: 9b96 153e 5caa f43d 57ef 523d 98ed 903d
000002f0: 9d0e d13d bbc3 fd3d 6a14 7d3d f997 9abc
00000300: 46b3 843d e502 823d 9ae2 af3c ca49 3b3d
00000310: 5b84 393c 989b 06be c90f 09bd cf2d 4f3d
00000320: 567e 9a3d 7872 46bc 8df2 11bc 7d18 e13c
00000330: 8953 503d 85d2 32bd 5445 62bd a5d4 883d
00000340: fb93 a33d 7961 8b3d 5e49 8f3d ec0f 013e
00000350: 279b bb3d 4490 723d ae95 9a3d 21a6 853d
00000360: d76b ca3d 1df8 c33d fedb b33d 9516 d6bb
00000370: 6ae4 aa3d f6f3 ba3c 89e4 3f3d 574c 98bc
00000380: 66ac 963c 3d50 0c3d c378 07bd 3298 e8bc
00000390: 3200 ec3c e27a d33c 45fb 033e 0d86 833e
000003a0: 52ab a93d 6300 8b3d 58f3 953d 5f54 12bd
000003b0: d8c7 a4bb 7382 4bbd c441 a2bc 4da2 02be
000003c0: 8561 a6bd 086c b3bd ef9f f2bc 9643 83bd
000003d0: aad5 8a3d bffe 0cbe af72 f8bd 5c45 683b
000003e0: 768b 083d c567 6bbc cca9 e9bc 7201 ebbc
000003f0: ae51 71bd f1e3 b3bc 05d9 f8bd f67f 3dbe

fc.bias f4 [2]
0.036499728 -0.04642087
00000000: bd80 153d cf23 3ebd
