Lab2/eeg_net_leakyrelu.pth (torch_old, 75064 bytes, 17 tensors)

layer1.0.weight f4 [16, 1, 1, 51]
0	0xbd263eff	-0.04058742
1	0xbdef20d4	-0.11676183
2	0x3dc95db6	0.09832327
3	0x3e025306	0.12726983
4	0x3a98e88b	0.0011665983
5	0xbe1023d9	-0.14076175
6	0xbdd08e07	-0.101833396
7	0x3e1d7d36	0.15379795
8	0x3c2b0067	0.010437108
9	0x3d828106	0.063722655
10	0xbdaf82f5	-0.085699
11	0xbb9e7bc3	-0.004836531
12	0x3d540de4	0.05177106
13	0xb9c90f8a	-0.00038349285
14	0x3ce7581d	0.028240258
15	0x3b5a5893	0.0033316955
16	0x3d37bfd9	0.044860695
17	0xbd4eae22	-0.050459035
18	0xbe50ad0d	-0.20378514
19	0x3d58a00d	0.05288701
20	0x3e606979	0.21915235
21	0x3c29a79f	0.010354905
22	0xbe2c3203	-0.16815953
23	0xbd9c7d30	-0.07641065
24	0x3ce414ff	0.027842043
25	0x3e851644	0.2599355
26	0x3d89e166	0.067324445
27	0xbe696020	-0.22790575
28	0xbe395af8	-0.18101108
29	0x3e12b22a	0.14325777
30	0x3e3dfabd	0.1855268
31	0xbda8e163	-0.08246114
32	0xbdaaad25	-0.08333806
33	0xbe25e2ab	-0.16199748
34	0x3dbc3b56	0.09191005
35	0x3e1e70f1	0.15472771
36	0xbcf6191a	-0.030041266
37	0xbe607548	-0.21919739
38	0x3d9a8a91	0.07545961
39	0x3df33e2a	0.11877091
40	0xbb8178ca	-0.0039511668
41	0x3d633aa3	0.055475842
42	0xbddc7be8	-0.10765821
43	0x3c10e799	0.00884428
44	0x3d47c6d6	0.04877361
45	0x3c519fe0	0.012794465
46	0xbe051d7b	-0.12999527
47	0xbd469f2f	-0.048491653
48	0xbc0d3f13	-0.008620995
49	0x3abb6fe0	0.0014300309
50	0x3dbdfe02	0.09276964
51	0x3e3dd4a5	0.18538149
52	0x3e10d8f8	0.14145267
53	0x3dd5aa54	0.10432878
54	0xbc552881	-0.013010145
55	0xbd1258df	-0.035729285
56	0xbb460430	-0.0030214898
57	0xbc00c378	-0.007859103
58	0x3c1e0acb	0.009646128
59	0x3c2e4d0b	0.010638486
60	0x3b7386b6	0.0037159151
61	0xbda24e1a	-0.07925053
62	0xbe22f858	-0.15915048
63	0x3dbf1d9a	0.09331818
64	0xbe052fd2	-0.13006523
65	0x3d8c4133	0.06848373
66	0x3c17712e	0.009243293
67	0x3b804a9b	0.0039151437
68	0x3cf0c515	0.029390851
69	0x3e00deb5	0.12584956
70	0x3e08794a	0.13327518
71	0x3e8a9970	0.2707019
72	0x3e5da857	0.21646248
73	0x3e6d33ce	0.23164293
74	0x3db7058f	0.08936607
75	0x3e803d00	0.2504654
76	0x3e28cc5e	0.1648421
77	0x3e2d0de9	0.16899838
78	0x3dcc048c	0.09961805
79	0x3d754637	0.059881415
80	0xbd3bfc35	-0.04589482
81	0xbdecd75c	-0.11564514
82	0xbd228b39	-0.039683554
83	0xbc69f52a	-0.014279643
84	0x3da18c8d	0.07888136
85	0xbd0d80f4	-0.034546807
86	0x3d8ecd36	0.06972735
87	0x3c8ce6b6	0.017199855
88	0x3de6576e	0.11247145
89	0x3d09989d	0.03359281
90	0x3e099889	0.13437094
91	0x3e38a5ec	0.18032044
92	0x3d8e87de	0.06959508
93	0xbb3e3181	-0.0029021206
94	0x3d5d035d	0.053958286
95	0xbb7611e1	-0.0037547278
96	0x3db73a38	0.08946651
97	0xbd3008e9	-0.042977247
98	0xbda2e920	-0.07954621
99	0xbdb90afb	-0.090352975
100	0xbdbb24e5	-0.091378964
101	0x3c8d1800	0.017223358
102	0xbe46c534	-0.19411165
103	0x3d67e010	0.056610167
104	0xbd10960c	-0.035299346
105	0xbe299a00	-0.16562653
106	0xbe0336dd	-0.12813897
107	0xbbd2ba02	-0.0064308653
108	0xbdf405d2	-0.11915173
109	0xbde9baca	-0.1141258
110	0x3d3b75a8	0.045766503
111	0x3dcf452d	0.10120616
112	0xbddda223	-0.10821941
113	0x3d9276c0	0.07151556
114	0x3d9fef6f	0.0780934
115	0x3e083f6f	0.13305448
116	0x3d82a7a2	0.0637963
117	0xbda642b4	-0.08118191
118	0x3d1f747b	0.038929444
119	0x3e07cdbf	0.1326208
120	0x3e01509c	0.12628406
121	0x3cd992e1	0.026559295
122	0xbb58ce92	-0.003308211
123	0xbe50b15f	-0.20380162
124	0xbc8da983	-0.017292744
125	0xbda951ab	-0.0826753
126	0xbda5d1d4	-0.08096662
127	0xbe81cbe9	-0.25350884
128	0x3cb55453	0.022134935
129	0xbdaa701c	-0.083221644
130	0xbdf721f3	-0.12067022
131	0xbdfdc14f	-0.12390386
132	0xbe27f909	-0.16403593
133	0xbb255351	-0.0025226662
134	0xbdbd416b	-0.09240993
135	0xbcad1403	-0.021127706
136	0xbd356db3	-0.04429407
137	0x3d3292e3	0.043597113
138	0x3d2fef64	0.04295291
139	0x3e005c45	0.12535198
140	0xbdee38ec	-0.11631951
141	0x3e29c05b	0.16577284
142	0xb77e9842	-1.517503e-05
143	0x3e618cfb	0.22026436
144	0x3d41a9f3	0.047281217
145	0x3d3df886	0.04637959
146	0x3de25f08	0.11053282
147	0x3dbde31e	0.09271835
148	0x3c324faf	0.010883256
149	0x3e5d362c	0.21602696
150	0xbdc95625	-0.09830884
151	0x3ddd6da4	0.10811928
152	0xbd894383	-0.0670233
153	0x3e9c640d	0.30545083
154	0x3e6b9379	0.23005475
155	0xbcd5895e	-0.026066478
156	0x3e0fc678	0.14040554
157	0x3c8e8baf	0.01740059
158	0x3e0c8070	0.1372087
159	0x3d9495d3	0.07255139
160	0xbb6281e4	-0.0034562284
161	0xbd81a564	-0.06330374
162	0xbc2556c6	-0.010091489
163	0x3d806e0e	0.06270991
164	0x3dc0ce87	0.09414392
165	0xbd484291	-0.048891608
166	0xbe048b49	-0.12943758
167	0xbc8a9d67	-0.016920758
168	0xbe3429de	-0.17594096
169	0x39e79043	0.00044167237
170	0xbc806727	-0.015674187
171	0xbe0c3845	-0.1369334
172	0xbdac3ab4	-0.08409634
173	0x3b203db8	0.002445085
174	0x3df5471c	0.11976454
175	0x3d95047c	0.07276246
176	0x3c5b768e	0.013394965
177	0x3e2661ac	0.16248196
178	0x3da1a515	0.07892815
179	0x3e2b1bcb	0.16709821
180	0x3bddf222	0.0067732492
181	0xbcd8edd4	-0.026480593
182	0xbd22e6ce	-0.039770894
183	0xbd336d55	-0.04380544
184	0x39ec7314	0.00045099168
185	0xbd13c4a6	-0.03607621
186	0x3d4923b3	0.04910631
187	0xbd90d29e	-0.07071422
188	0x3db08ac2	0.08620216
189	0xbd3b9cb3	-0.045803737
190	0xbe25d75a	-0.16195431
191	0xbe0e85e7	-0.13918267
192	0xbcc07b08	-0.023496166
193	0x3c491412	0.012272852
194	0x3d4650c8	0.048416883
195	0x3da7d2ba	0.0819449
196	0xbd975d04	-0.07390788
197	0xbca8dbc8	-0.020612612
198	0x3e09212e	0.13391563
199	0x3e6bcd9c	0.23027653
200	0xbcd7f076	-0.026359778
201	0x3de011b9	0.1094088
202	0x3e0a7f96	0.13525233
203	0x3e055020	0.13018847
204	0xbc833b5b	-0.016019514
205	0x3c06e1aa	0.008232513
206	0x3e27de98	0.16393507
207	0x3cf91e4f	0.03040996
208	0x3c98fe9b	0.018676093
209	0xbd9aa8e2	-0.07551743
210	0xbbb34103	-0.0054703965
211	0xbe0006f2	-0.1250265
212	0xbd631db5	-0.055448253
213	0xbe4de24a	-0.20105854
214	0xbe04d455	-0.12971623
215	0xbe24dc87	-0.1609975
216	0x3dad0fb2	0.08450259
217	0x3d43d1f8	0.047807664
218	0x3cfb410a	0.030670661
219	0x3d278c70	0.040905416
220	0x3d9454a1	0.07242704
221	0xbd7f70bb	-0.062363368
222	0x3d353b07	0.044245746
223	0xbdf766b4	-0.12080136
224	0xbe4a1694	-0.19735175
225	0xbe466792	-0.19375446
226	0xbdffb9dc	-0.12486622
227	0x3e04a955	0.1295522
228	0x3db4f6b5	0.08836118
229	0x3cb8b823	0.02254874
230	0x3d5e34dd	0.054249633
231	0xbcd457d4	-0.025920786
232	0x3c8a612e	0.016892042
233	0x3cfcfca1	0.030882182
234	0xbd8ea504	-0.06965068
235	0xbcdb9086	-0.026802313
236	0xbe2dc9ac	-0.16971463
237	0xbe02fea6	-0.12792453
238	0xbcd6928a	-0.026192922
239	0xbc575712	-0.013143318
240	0x3d5c7446	0.053821824
241	0x3e1f7c41	0.15574743
242	0x3e091a2b	0.13388889
243	0x3e215409	0.15754713
244	0x3e125618	0.14290655
245	0xbd2658a1	-0.040611867
246	0x3ab4eba0	0.0013803132
247	0xbe14c2dc	-0.14527458
248	0xbd9d3ede	-0.076780066
249	0xbdf716b6	-0.12064879
250	0xbd303209	-0.043016467
251	0xbd6f2dd5	-0.05839332
252	0x3e102ebb	0.14080326
253	0x3e1cfa00	0.15329742
254	0x3e884519	0.26615217
255	0xbc09be45	-0.00840718

layer1.1.weight f4 [16]
0	0x3e9e59c7	0.3092787
1	0x3f2c8c8d	0.67401963
2	0x3d9dedb0	0.07711351
3	0x3e9dab02	0.3079453
4	0x3ea4f6ca	0.32219535
5	0x3ea1635d	0.3152112
6	0x3ef6a88d	0.4817547
7	0x3e8fb85d	0.28070346
8	0x3ed02336	0.40651864
9	0x3e64f9cf	0.2236092
10	0x3ecf1046	0.40442103
11	0x3ef0a034	0.46997225
12	0x3f2b8bb5	0.6701005
13	0x3ef942a8	0.48683667
14	0x3f0d337c	0.55156684
15	0x3e64cef3	0.2234457

layer1.1.bias f4 [16]
0	0xbbba8362	-0.0056919316
1	0x392a6558	0.00016250217
2	0xba94bcc3	-0.0011347759
3	0xbb51fe13	-0.003204231
4	0x3aeca26b	0.0018053775
5	0x3b1dadf1	0.0024059976
6	0x3bb0a2e2	0.005390511
7	0x3b051f2e	0.0020312774
8	0xba985afb	-0.0011623794
9	0x3ba3f388	0.0050033964
10	0x39df064d	0.0004253857
11	0x3ad6b5e2	0.001638111
12	0xbabb9ebc	-0.0014314274
13	0xbb7ef28c	-0.0038901893
14	0xbb7b69df	-0.0038362665
15	0x3b8ce881	0.0043001776

layer1.1.running_mean f4 [16]
0	0x3b189ddc	0.002328745
1	0xbd9049df	-0.0704534
2	0xbc4c702b	-0.012477915
3	0xbd7b4876	-0.0613484
4	0xbc13d120	-0.009022027
5	0x3da5dbbd	0.080985524
6	0x3b0dcf0e	0.0021638307
7	0xbc21ac09	-0.0098676765
8	0x3cc79efb	0.0243678
9	0xbc34ff85	-0.011047249
10	0xbc8537d1	-0.016261967
11	0xbc7fc574	-0.015611041
12	0x3cfb3d39	0.030668842
13	0xba8d762e	-0.0010792667
14	0x3d304b46	0.043040536
15	0xbbe7c1a5	-0.007072645

layer1.1.running_var f4 [16]
0	0x409077e9	4.5146375
1	0x42bbc94b	93.89315
2	0x41dea504	27.830574
3	0x41ea2229	29.26668
4	0x425293fa	52.64451
5	0x427d61f5	63.34566
6	0x412c0556	10.751303
7	0x413db079	11.855584
8	0x41dc1fdc	27.515556
9	0x41e20588	28.2527
10	0x40aa99a0	5.331253
11	0x410ba8da	8.728724
12	0x41c74819	24.910204
13	0x40ee1bd0	7.440895
14	0x41613554	14.07552
15	0x4089a2e7	4.3011355

layer2.0.weight f4 [32, 1, 2, 1]
0	0x3d8caf83	0.06869414
1	0xbf03fb54	-0.5155537
2	0xbdd95cf9	-0.10613436
3	0x3eda6387	0.42654058
4	0xbe8ea52f	-0.278604
5	0x3d45b91e	0.048272245
6	0xbda4d6ad	-0.08048759
7	0x3e83ae40	0.2571888
8	0xbec2723c	-0.3797778
9	0xbf500fac	-0.81273913
10	0xbe9f758a	-0.31144363
11	0x3e9afabe	0.30269426
12	0x3ec4c629	0.38432434
13	0x3eab5f60	0.33471203
14	0xbea330a9	-0.31873062
15	0xbece685c	-0.40313995
16	0xbf0f2a37	-0.5592379
17	0xbd3b5d98	-0.045743555
18	0xbd4c73ec	-0.04991524
19	0x3eb0752a	0.3446439
20	0xbe848057	-0.25879166
21	0x3f0756b3	0.5286667
22	0xbf09dc69	-0.53851944
23	0xbe9486c6	-0.29009074
24	0x3f209e87	0.62741894
25	0xbdcacef9	-0.09902758
26	0xbed4dc81	-0.4157448
27	0x3e04e0ad	0.12976332
28	0xbf39870c	-0.7247169
29	0x3e80a623	0.25126752
30	0x3cb853ef	0.02250096
31	0x3f66ee2b	0.90207165
32	0xbe4a3090	-0.19745088
33	0x3f34db58	0.7064719
34	0xbeb90165	-0.36133876
35	0x3e9a9dbb	0.30198464
36	0x3ef84b64	0.48495018
37	0xbe079aca	-0.13242641
38	0x3f08c072	0.5341865
39	0xbf15d395	-0.58525974
40	0xbeca3b49	-0.39498356
41	0x3dcbbbf5	0.09947959
42	0x3ebd714c	0.370005
43	0x3d924d7d	0.07143686
44	0xbf092d36	-0.5358461
45	0x3f281c24	0.6566794
46	0xbe6bd8f6	-0.23031983
47	0x3f11320a	0.5671698
48	0x3e15fe04	0.1464768
49	0xbe572632	-0.21010664
50	0x3eef2fbc	0.46716106
51	0xbea18cc1	-0.315527
52	0xbdb92ba8	-0.0904153
53	0x3f071f84	0.52782464
54	0x3bc20391	0.0059208353
55	0x3f72822b	0.9472987
56	0xbed1a718	-0.40947795
57	0x3e1c1ec7	0.15246116
58	0x3e31e8ea	0.17374006
59	0xbefa20d2	-0.48853165
60	0x3ecbc4a2	0.39798456
61	0xbbc178c7	-0.0059042904
62	0xbec163e6	-0.3777153
63	0x3f25406c	0.64551425

layer2.1.weight f4 [32]
0	0x3f893041	1.0717851
1	0x3f8d7450	1.1051121
2	0x3f3d8503	0.74031085
3	0x3f4599d7	0.77187866
4	0x3f3d901a	0.74048007
5	0x3f2f98a8	0.6859231
6	0x3f65f593	0.8982784
7	0x3f46804d	0.7753952
8	0x3f35a311	0.70951945
9	0x3f507e24	0.81442475
10	0x3f2970a4	0.661875
11	0x3f50c810	0.8155527
12	0x3f82eb8e	1.0228136
13	0x3f889efd	1.0673519
14	0x3f640e19	0.8908401
15	0x3f67ce18	0.9054885
16	0x3f5dad41	0.8659249
17	0x3f717e9e	0.9433383
18	0x3f4dcd81	0.803917
19	0x3f5f552a	0.87239325
20	0x3f796a75	0.97428066
21	0x3f5611f9	0.83621174
22	0x3f7272b0	0.9470625
23	0x3f81b914	1.0134606
24	0x3f4f2f36	0.80931413
25	0x3f71c1b4	0.9443619
26	0x3f863218	1.0484037
27	0x3f6c8a64	0.9239867
28	0x3f7385fc	0.9512632
29	0x3f5078c5	0.8143428
30	0x3f4ee867	0.8082337
31	0x3f80e3b1	1.0069486

layer2.1.bias f4 [32]
0	0xbf24767b	-0.64243287
1	0xbf2c877d	-0.6739424
2	0xbed1e99a	-0.40998536
3	0xbde68b82	-0.11257078
4	0xbf0f8217	-0.56057876
5	0xbe4ba649	-0.19887652
6	0xbf2ee736	-0.6832155
7	0xbe02250b	-0.12709443
8	0xbef3adb2	-0.47593457
9	0xbe3a205e	-0.1817641
10	0xbdd373fe	-0.10324858
11	0xbe8e98dd	-0.27851
12	0xbed6fe6c	-0.41990983
13	0xbf168644	-0.58798623
14	0xbeafe225	-0.34352222
15	0xbeec0772	-0.4609943
16	0xbefe851c	-0.4971093
17	0xbf3cf022	-0.73803914
18	0xbedbd588	-0.4293635
19	0xbf0919d3	-0.5355503
20	0xbee39aa9	-0.44453934
21	0xbedb3fd8	-0.42822146
22	0xbe9badce	-0.3040604
23	0xbf2bb853	-0.6707813
24	0xbe8d6268	-0.2761414
25	0xbf0f519f	-0.5598392
26	0xbf38cc0e	-0.7218636
27	0xbf1f3186	-0.6218494
28	0xbf03f05c	-0.51538634
29	0xbe8c8ef2	-0.2745281
30	0xbe9e41c6	-0.30909556
31	0xbed9beef	-0.42528483

layer2.1.running_mean f4 [32]
0	0x3b3f0feb	0.0029153775
1	0xbb088b78	-0.0020835083
2	0xba7d85d5	-0.00096711266
3	0xba83b7b2	-0.0010049252
4	0xbb07ac08	-0.0020701904
5	0x38c01865	9.159817e-05
6	0xbaba6011	-0.0014219304
7	0x3acdd103	0.0015702549
8	0x3a06281b	0.00051176705
9	0xb82953c3	-4.037075e-05
10	0x3b131642	0.0022443687
11	0xbb17ff73	-0.002319303
12	0x3b382981	0.002810091
13	0xbac8534e	-0.0015283616
14	0xbab82e69	-0.0014051917
15	0x3b232879	0.002489595
16	0xb9b738fc	-0.00034946937
17	0x39899d0f	0.00026247694
18	0x3aa23c0e	0.0012377517
19	0xb9adcbb2	-0.00033148896
20	0xba601243	-0.0008547643
21	0x3a6f81fa	0.00091364945
22	0xbaa1dd5a	-0.0012349293
23	0xb9f538ee	-0.00046772457
24	0xba30b163	-0.00067403
25	0xbadb4b86	-0.0016730882
26	0xba8f7e81	-0.0010947735
27	0xbb1cd669	-0.002393151
28	0x3ade37af	0.0016953851
29	0xb93c63d8	-0.00017966272
30	0x3aaa1920	0.0012977459
31	0x3a8638ae	0.001024028

layer2.1.running_var f4 [32]
0	0x3cbf8748	0.023379937
1	0x3c7533b6	0.014965942
2	0x3cd46c8b	0.025930664
3	0x3caf2097	0.021377845
4	0x3c058630	0.008149669
5	0x39afb5ba	0.00033513998
6	0x3d2706df	0.040778037
7	0x3d2aa33e	0.041659586
8	0x3d08f1fe	0.033433907
9	0x3c2fe72b	0.010736267
10	0x3c95ad2b	0.01827105
11	0x3d64f3e0	0.05589664
12	0x3d8cc344	0.068731815
13	0x3cd54e0f	0.026038198
14	0x3cf212d4	0.029549994
15	0x3d86d182	0.06582929
16	0x3d5f7471	0.054554407
17	0x3c321356	0.010868868
18	0x3bf493b4	0.0074638966
19	0x3c1979b3	0.009367394
20	0x3ca865d2	0.020556364
21	0x3cd8339c	0.026391797
22	0x3da3616f	0.07977568
23	0x3d63e15b	0.055634838
24	0x3c2468c1	0.010034741
25	0x3d48abed	0.048992086
26	0x3d75c9ae	0.06000679
27	0x3e6feb8f	0.23429702
28	0x3d0e7222	0.034776814
29	0x3d57804d	0.05261259
30	0x3bec3fb6	0.0072097434
31	0x3c644a33	0.013933706

layer3.0.weight f4 [32, 32, 1, 15]
0	0xbe4472cd	-0.19184418
1	0xbdf2f121	-0.11862398
2	0xbc922dc0	-0.01784408
3	0xbcfd786d	-0.030941213
4	0xbdba6821	-0.09101892
5	0xbd887c13	-0.0666429
6	0xbd4e7fab	-0.050414722
7	0xbc1f1f20	-0.009712011
8	0x3d62b170	0.055345
9	0xbd23654d	-0.03989153
10	0xbd8d6272	-0.069035426
11	0xbcb81e19	-0.02247529
12	0xbd0c3adf	-0.03423583
13	0xbd26763b	-0.040640097
14	0xbdf2638d	-0.11835394
15	0xbe4e1dfa	-0.20128623
16	0xbe155d51	-0.14586379
17	0xbd8c2d8f	-0.06844627
18	0xbdeabf39	-0.11462254
19	0xbd4e0819	-0.05030069
20	0xbd9b1b1f	-0.07573532
21	0xbb2a140a	-0.0025951886
22	0x3ce7c375	0.028291443
23	0x3d03aaed	0.03214543
24	0xbd3181f4	-0.043336824
25	0xbd8e4ca7	-0.06948214
26	0xbc4079b7	-0.011747769
27	0xbcfb10db	-0.030647686
28	0xbdad9178	-0.084750116
29	0xbdbe8d5f	-0.09304308
30	0x3ca35639	0.019938575
31	0x3d07e43f	0.033176657
32	0xbc0a5d4f	-0.008445098
33	0x3c5b8425	0.013398205
34	0x3d851ed2	0.06500019
35	0x3d46a2db	0.048495155
36	0x3d68f5d2	0.056875058
37	0x3ca0a1ec	0.01960846
38	0x3d64d55b	0.055867534
39	0xbbb8a60a	-0.005635028
40	0xbcc1cb78	-0.023656592
41	0x3c4cdeb3	0.0125042675
42	0x3d2ce957	0.042214718
43	0x3c9a36a3	0.018824881
44	0x3c078949	0.008272477
45	0x3c9968ec	0.018726788
46	0x3cad1638	0.021128759
47	0x3d04c26b	0.032411974
48	0x3b827dc7	0.003982279
49	0xbb54c4f8	-0.0032466035
50	0xbd10c6bc	-0.035345778
51	0xbbd61296	-0.0065329773
52	0x3d732d34	0.05936928
53	0x3d8651b8	0.06558555
54	0x3ceaa5d9	0.028643535
55	0x3d674221	0.05645955
56	0x3d0da154	0.034577683
57	0x3cc5dd5e	0.024153408
58	0x3d87941c	0.066200465
59	0x3d2c8cd1	0.04212648
60	0xbde14ca1	-0.11000944
61	0xbda75555	-0.08170573
62	0x3b8e65ed	0.0043456466
63	0xbd1b5bb4	-0.03792925
64	0xbd2c69db	-0.04209314
65	0x3d917dc6	0.071040675
66	0x3d9416c7	0.07230907
67	0x3e0f2b23	0.13981299
68	0x3dfb1147	0.12259155
69	0x3e2a155b	0.16609709
70	0x3c779f75	0.015113701
71	0x3c008984	0.007845286
72	0xbc0104d8	-0.00787469
73	0xbc1c3741	-0.009534658
74	0xbcd82cf4	-0.026388623
75	0xbd183d01	-0.037167553
76	0x3b7d39a4	0.0038639093
77	0xbd1b3e76	-0.037901364
78	0xbd852f67	-0.06503182
79	0xbd3fcc45	-0.046825666
80	0xbdaa3060	-0.08310008
81	0xbda35b2f	-0.07976376
82	0xbd7ad54d	-0.061238576
83	0xbcb27979	-0.021786438
84	0xbb9ceaa4	-0.0047887135
85	0xbcc0e21d	-0.02354532
86	0xbd1a47b5	-0.03766604
87	0x3be2257e	0.006901442
88	0x3d441b7f	0.047877785
89	0x3d993c61	0.074822195
90	0x3c3be4cf	0.011468126
91	0x3cb5097b	0.022099247
92	0xbd048a2a	-0.032358326
93	0xbd9b2d56	-0.075770065
94	0xbd9a927f	-0.07547473
95	0xbd43bcd5	-0.047787506
96	0xbddae7f9	-0.106887765
97	0xbd9f843d	-0.07788894
98	0xbdda37aa	-0.10655148
99	0xbe472f8b	-0.1945173
100	0xbe0a6d71	-0.13518311
101	0xbe18d17c	-0.14923662
102	0xbe34bd19	-0.1765026
103	0xbe2993ee	-0.16560337
104	0xbd537b67	-0.051631358
105	0x3d50dd6d	0.050992418
106	0xbcc74a06	-0.02432729
107	0xbd2ebedc	-0.042662486
108	0xbd065182	-0.032792576
109	0xbd6b2282	-0.057405956
110	0x3d0b4b30	0.03400725
111	0xbc0d0323	-0.008606705
112	0xbdc03f7c	-0.09387109
113	0xbdd60f9a	-0.104521945
114	0xbe239f5d	-0.15978761
115	0xbe1d08c3	-0.15335374
116	0xbdb2fd11	-0.08739675
117	0xbd4be05c	-0.049774513
118	0xbd7e72d4	-0.062121227
119	0xbb583740	-0.0032991916
120	0xbdb8f5aa	-0.09031232
121	0x3c92dedd	0.017928535
122	0x3d08f943	0.03344084
123	0xbd04072f	-0.032233413
124	0x3d09fcdf	0.033688422
125	0x3dc95f67	0.0983265
126	0x3c2a93c0	0.010411203
127	0x3a9dfed8	0.0012054099
128	0x3d25b2cb	0.040453713
129	0x3b7540f1	0.0037422741
130	0x3c9ac51e	0.01889282
131	0x3c205e5b	0.009788121
132	0xbd965367	-0.073401265
133	0xbd838994	-0.06422725
134	0x3ad5730c	0.0016284897
135	0xbddddd42	-0.10833217
136	0xbc3e6308	-0.011620291
137	0xbd87f22d	-0.06637988
138	0x3d4f2ac8	0.05057791
139	0x3d9cf44f	0.07663786
140	0xbc8d06c4	-0.01721514
141	0x3ca69daa	0.020338852
142	0xbd1c4771	-0.03815407
143	0xbdb5fd45	-0.08886198
144	0x3a951a2c	0.0011375598
145	0xbcd0346a	-0.025415618
146	0xbd3f0fd3	-0.04664595
147	0x3b625f06	0.0034541502
148	0xbd0b50c8	-0.034012586
149	0xbd8253af	-0.06363618
150	0xbd5f3c67	-0.054500964
151	0xbd958de6	-0.073024556
152	0xbcadb5dd	-0.021204883
153	0x3cd064e9	0.025438743
154	0xba0ab516	-0.0005291266
155	0x3e155545	0.14583309
156	0x3dbe6484	0.092965156
157	0x3cb33da5	0.02187998
158	0x3d5b0433	0.0534708
159	0xbc93a8ac	-0.018024765
160	0xbd0fbee0	-0.035094142
161	0xbda2e8d1	-0.079545625
162	0xbdfc8d1b	-0.12331601
163	0xbe071d76	-0.13194832
164	0xbe0a0701	-0.13479234
165	0xbd8de447	-0.06928306
166	0xbcc503e2	-0.024049703
167	0x3d36c15f	0.044618007
168	0x3d123a18	0.035699934
169	0x3d503845	0.050834913
170	0x3d485725	0.048911233
171	0x3c092501	0.008370639
172	0x3c94475b	0.018100431
173	0xbcdafeb3	-0.026732778
174	0x3c069ea8	0.008216538
175	0xbd00e7ff	-0.03147125
176	0xbd29d7d7	-0.041465607
177	0xbb979bd6	-0.0046267314
178	0xbb751485	-0.0037396264
179	0xbc8cfce7	-0.017210437
180	0x3da673c3	0.081275485
181	0x3d0076b9	0.031363223
182	0x3d14a52f	0.036290344
183	0xbc016787	-0.007898218
184	0xbd24286b	-0.040077608
185	0xbca9ca9b	-0.020726493
186	0xbb4f085c	-0.0031590676
187	0xbc3e390b	-0.01161028
188	0xbcd89b81	-0.026441338
189	0xbcbfd6d2	-0.023417864
190	0xbd90502e	-0.07046543
191	0xbc26463b	-0.01014858
192	0xbaa6d620	-0.0012728609
193	0xbd04602b	-0.032318275
194	0xbd7515c0	-0.059835196
195	0x3d9eebc0	0.077598095
196	0x3dbaa02d	0.09112582
197	0xbd970ff7	-0.07376092
198	0xbddb7f90	-0.1071769
199	0xbd432190	-0.04763943
200	0xbccbbb86	-0.024869692
201	0xbd8164d4	-0.063180596
202	0xbd6f0c80	-0.05836153
203	0xbd171c4a	-0.036892213
204	0xbc5f34a1	-0.013623388
205	0x3c0c6026	0.008567845
206	0xbb632a91	-0.0034662823
207	0x3d0ed610	0.034872115
208	0xbdc03d5a	-0.09386702
209	0xbdc60838	-0.09669536
210	0xbb8aa381	-0.004230917
211	0xbcccaf27	-0.024985863
212	0xbd643719	-0.055716608
213	0xbd2dd28b	-0.042437118
214	0xbd424e0b	-0.04743771
215	0x3cc48977	0.02399133
216	0x3cb4ab77	0.022054417
217	0x3dcce122	0.10003878
218	0x3daa54dc	0.08316967
219	0xbc8e07c7	-0.017337693
220	0xba4f44a8	-0.0007906654
221	0x3c4b7007	0.012416846
222	0xbd88c64d	-0.06678448
223	0xbc2b5b7a	-0.010458821
224	0xbc90df1a	-0.017684508
225	0xbbad2212	-0.0052836025
226	0x3d41b5f1	0.047292653
227	0x3caaf6fa	0.02086972
228	0xbd9465cc	-0.07245979
229	0xbce5ecfd	-0.028067106
230	0x3d778a6f	0.060434755
231	0x3d5c7ef4	0.05383201
232	0xbc01021f	-0.007874041
233	0x3ccafa2b	0.024777493
234	0xbd50738a	-0.050891437
235	0x3c22ff46	0.009948557
236	0x3c7744cf	0.015092089
237	0xbd982121	-0.07428194
238	0xbc6a1ddd	-0.0142893465
239	0xbd9d16ef	-0.0767039
240	0x3ce3cdad	0.027808035
241	0x3e111d76	0.14171395
242	0x3ccb4e86	0.024817716
243	0x3cb57d5c	0.022154503
244	0x3c9d8b1c	0.019231372
245	0xbbe26162	-0.0069085816
246	0xbd73bd6b	-0.059506815
247	0x39d0ee9f	0.00039850638
248	0x3b822caf	0.003972612
249	0x3dbf0007	0.09326177
250	0x3dc99c55	0.09844271
251	0x3da29d33	0.079401396
252	0x3ce1a669	0.02754517
253	0x3d9bbbb5	0.07604162
254	0x3d7e986a	0.062157072
255	0xbe0a884a	-0.13528553

layer3.1.weight f4 [32]
0	0x3f79dba0	0.97600746
1	0x3f7a1d4c	0.97700953
2	0x3f82f06a	1.0229619
3	0x3f7bfa67	0.9842896
4	0x3f82f707	1.0231637
5	0x3f8550a1	1.0415231
6	0x3f7b89b2	0.9825698
7	0x3f8502a9	1.0391437
8	0x3f7b560b	0.98178166
9	0x3f815218	1.0103178
10	0x3f807310	1.0035114
11	0x3f874c8c	1.0570235
12	0x3f7c422d	0.98538476
13	0x3f7fc64f	0.9991197
14	0x3f7fdf42	0.9995004
15	0x3f7c802b	0.9863307
16	0x3f7be072	0.9838935
17	0x3f76f48c	0.964669
18	0x3f8b0b43	1.0862812
19	0x3f78801e	0.9707049
20	0x3f890266	1.0703857
21	0x3f81a13d	1.0127331
22	0x3f824142	1.0176165
23	0x3f7b0310	0.9805155
24	0x3f87919e	1.0591314
25	0x3f81ce23	1.0141033
26	0x3f82162d	1.0163018
27	0x3f85ec0a	1.0462658
28	0x3f8107e5	1.0080534
29	0x3f82bd3d	1.0214001
30	0x3f8a056e	1.0782907
31	0x3f772f2e	0.96556365

layer3.1.bias f4 [32]
0	0xbee9c1ec	-0.45655763
1	0xbe9ba0a4	-0.30395997
2	0xbee40f49	-0.44542912
3	0xbed7d3a0	-0.42153645
4	0xbf095a6c	-0.536536
5	0xbef7c398	-0.48391414
6	0xbea1f5d7	-0.31632873
7	0xbebb03e7	-0.36526415
8	0xbee0c647	-0.43901274
9	0xbea6b9ba	-0.32563573
10	0xbe87a851	-0.26495603
11	0xbe9b302b	-0.30310187
12	0xbeca0dd4	-0.39463675
13	0xbea27078	-0.31726432
14	0xbed3192d	-0.41230145
15	0xbeeecb2b	-0.4663938
16	0xbebc108d	-0.36731377
17	0xbeeacc32	-0.45858914
18	0xbe692c04	-0.22770697
19	0xbeeb915e	-0.46009344
20	0xbedc84dd	-0.43070117
21	0xbeda2906	-0.42609423
22	0xbee56f21	-0.44811347
23	0xbec8cb9d	-0.39217845
24	0xbee16be7	-0.44027635
25	0xbee597f9	-0.44842508
26	0xbee89659	-0.45427206
27	0xbe910a07	-0.28327963
28	0xbe9c43ce	-0.3052048
29	0xbf0637df	-0.52429
30	0xbf01b50a	-0.5066687
31	0xbea830a4	-0.3284961

layer3.1.running_mean f4 [32]
0	0xbf53362d	-0.8250454
1	0xbefe0a5a	-0.49617273
2	0xbf275e9f	-0.65378755
3	0xbf1db008	-0.6159673
4	0xbee6f9cd	-0.45112458
5	0xbfa066e0	-1.2531395
6	0xbe92aff2	-0.2864986
7	0xbf283e3d	-0.6571997
8	0xbeb2d4e3	-0.34928045
9	0xbe56870f	-0.20949958
10	0xbee78f1c	-0.4522637
11	0xbe8bb894	-0.2728926
12	0xbeccaace	-0.39974064
13	0xbf01cc81	-0.50702673
14	0xbecbea36	-0.39827126
15	0xbf5c56a6	-0.86069715
16	0xbe1e5482	-0.15461925
17	0xbe7bfaa1	-0.24607326
18	0xbee753af	-0.45181033
19	0xbefa8442	-0.4892903
20	0xbf08e691	-0.53476816
21	0x3aa0b461	0.0012260788
22	0xbf1da2a7	-0.6157631
23	0xbf1c42c0	-0.6103935
24	0xbf49c77a	-0.7882
25	0xbf4b0681	-0.793068
26	0xbf41b280	-0.75662994
27	0xbeb2aeb0	-0.348989
28	0xbeaaec45	-0.33383384
29	0xbf46c777	-0.7764811
30	0xbf3329fa	-0.69985926
31	0xbf2a0b86	-0.66423833

layer3.1.running_var f4 [32]
0	0x3f35a77c	0.70958686
1	0x3f64495c	0.8917444
2	0x3f82fb01	1.023285
3	0x3f764d1b	0.96211404
4	0x3f257fa7	0.64647907
5	0x3f8c8296	1.0977352
6	0x3f48801d	0.78320485
7	0x3f8ac93a	1.084266
8	0x3f1e7f66	0.61913145
9	0x3f33c759	0.70226055
10	0x3f55eb50	0.83562183
11	0x3f074076	0.52832735
12	0x3f306f78	0.6892009
13	0x3f0e7607	0.55648845
14	0x3f661378	0.89873457
15	0x3f549cdd	0.83051854
16	0x3f163bd6	0.5868505
17	0x3f04f99b	0.5194337
18	0x3f7a954b	0.97884053
19	0x3f332529	0.69978577
20	0x3f96f1f9	1.1792594
21	0x3f0d9cc5	0.55317336
22	0x3f47e23e	0.78079593
23	0x3f5038b2	0.8133651
24	0x3fa6d894	1.3034844
25	0x3f4cdd8c	0.80025554
26	0x3f53d5bf	0.82748026
27	0x3f20d81e	0.6282977
28	0x3f6539ac	0.89541125
29	0x3f4ecc82	0.80780804
30	0x3f587bf3	0.8456413
31	0x3f5e9bcc	0.8695648

fc.weight f4 [2, 736]
0	0x3df37428	0.118873894
1	0x3e1b6f58	0.15179193
2	0x3d99c5ee	0.07508455
3	0xbb9c71d0	-0.0047743097
4	0xbceabda4	-0.02865488
5	0xbdd5a501	-0.104318626
6	0xbd24b65d	-0.040212978
7	0xbd039f39	-0.03213427
8	0xbdcf2a6c	-0.10115513
9	0xbd4ecc6d	-0.050487924
10	0xbd878749	-0.066176005
11	0x3bb07f91	0.005386301
12	0xbd38db96	-0.04513129
13	0xbe142c93	-0.14470129
14	0x3dc1d9e2	0.09465386
15	0xbd041ba4	-0.032252923
16	0xbe2450f8	-0.16046512
17	0x3d9a0d72	0.07522096
18	0xbd616785	-0.055030365
19	0x3be01be6	0.0068392633
20	0xbd93e959	-0.07222242
21	0xbdc4f8d1	-0.096177705
22	0xbbef814a	-0.0073091136
23	0x3e1179cf	0.14206623
24	0x3d85f97e	0.065417275
25	0x3ca24149	0.019806521
26	0x3e1df835	0.15426715
27	0x3e000ba0	0.12504435
28	0x3dfda37c	0.12384698
29	0x3daabbca	0.08336599
30	0x3d896397	0.067084484
31	0x3dd22bc6	0.10262255
32	0x3d227042	0.03965784
33	0x3c973eec	0.01846262
34	0x3cbd86c2	0.023135547
35	0xbcce6b40	-0.025197625
36	0x3dfacacc	0.12245712
37	0xbd88a03d	-0.06671188
38	0x3d4ea043	0.050445806
39	0x3b13cbe1	0.0022551941
40	0x3c7306db	0.014833177
41	0x3d2cc940	0.042184114
42	0xbc6d6c5f	-0.01449117
43	0x3d834d4d	0.06411228
44	0x3d7fdc58	0.062465996
45	0xbd91f692	-0.07127108
46	0xbe55fc53	-0.20897035
47	0xbe3eb992	-0.18625477
48	0xbe635855	-0.22201665
49	0xbe108d11	-0.14116313
50	0xbe2f9652	-0.17147186
51	0xbdde7feb	-0.10864242
52	0xbdaec51a	-0.08533688
53	0xbd1b522e	-0.03792017
54	0xbcb3f634	-0.021967985
55	0x3cc57f8c	0.02410867
56	0x3d02921c	0.031877622
57	0xbc543967	-0.012953139
58	0x3d348ba5	0.044078488
59	0xbd1ccc12	-0.038280554
60	0xbcfbc41b	-0.030733159
61	0xbc7a12c2	-0.015263261
62	0xbd6d3192	-0.057908602
63	0x3dd49350	0.1037966
64	0x3cfd2753	0.03090254
65	0xbdf7c185	-0.12097458
66	0x3bd1721a	0.006391776
67	0x3d07bed3	0.03314097
68	0xbdfe2eac	-0.12411246
69	0x3e4d908e	0.20074674
70	0x3e763f18	0.24047506
71	0x3dcc8116	0.09985559
72	0x3dfdb264	0.12387541
73	0x3baae88a	0.005215709
74	0x3c866164	0.016403861
75	0x3d35dfbf	0.044402834
76	0xbb94b570	-0.0045382306
77	0x3a13c6f7	0.0005637253
78	0xbc3b11e6	-0.011417842
79	0xbccb8262	-0.024842445
80	0xbd2d1a59	-0.042261455
81	0x3c930882	0.017948393
82	0x3dc8880c	0.09791574
83	0xbb939deb	-0.0045049093
84	0xbd73a65c	-0.059484825
85	0xbc5c3814	-0.013441104
86	0x3d27f3c8	0.041003972
87	0x3ce8ba11	0.028409036
88	0x3bc97bbf	0.006148785
89	0x3d0b3bb3	0.03399248
90	0x3d8ac37c	0.06775567
91	0xbd1c15fe	-0.03810691
92	0xbccf4eb2	-0.02530608
93	0xbda2b2db	-0.0794427
94	0xbe66913d	-0.22516342
95	0x3db8c61c	0.09022161
96	0x3d32bc0c	0.043636367
97	0x3e48ca5f	0.19608448
98	0x3dd05bc6	0.101737544
99	0x3dd5af6f	0.10433852
100	0x3e0bae3d	0.13640685
101	0x3e266fdf	0.16253613
102	0xbb4c247b	-0.0031149674
103	0x3d1fc466	0.03900566
104	0x3d676e79	0.05650184
105	0x3dcaa1df	0.09894156
106	0xbbebb663	-0.007193373
107	0xbd9ee29e	-0.077580675
108	0x3d01ba76	0.031671964
109	0xbdc2fe2c	-0.09521136
110	0xbdc7fe7f	-0.09765338
111	0x3d2e4f83	0.042556297
112	0xbaf2b85e	-0.001851808
113	0xbd7b59dc	-0.061364993
114	0x3c9c3658	0.019068882
115	0xbd5f3643	-0.054495107
116	0x3d7f1d68	0.062283903
117	0xbc037faa	-0.008026043
118	0xbcf01060	-0.029304683
119	0xbce7c672	-0.028292868
120	0xbcfd5e88	-0.030928865
121	0xbcbce78e	-0.023059633
122	0xbbd11b97	-0.006381463
123	0x3dade791	0.084914334
124	0x3d4541cb	0.04815845
125	0x3dfed8d8	0.124437034
126	0x3cc92047	0.024551524
127	0xbd4838ec	-0.04888241
128	0xbd8d5740	-0.06901407
129	0x3db2f8d7	0.08738869
130	0xbcffca51	-0.031224402
131	0xbd54ee48	-0.051985055
132	0xbe676429	-0.22596802
133	0xbe3c8c36	-0.18412861
134	0xbd1f3ce0	-0.038876414
135	0xbe1fbae1	-0.15598632
136	0xbe17dc28	-0.14830077
137	0xbdb6b2c4	-0.089208156
138	0x3d9e9911	0.07744039
139	0x3dced97f	0.10100078
140	0x3debfd57	0.1152293
141	0x3e83a759	0.25713614
142	0x3e8827e8	0.26592946
143	0x3d767d50	0.0601781
144	0xbcd53abb	-0.026028981
145	0x3c4ec4fd	0.012620208
146	0x3d6e5b15	0.05819233
147	0x3d558e66	0.052137755
148	0xbaf191fe	-0.001843035
149	0x3dc2cc4e	0.09511624
150	0x3cf7699c	0.030201726
151	0x3d27433c	0.040835604
152	0x3ca65916	0.020306151
153	0xbc45cb4b	-0.012072395
154	0xbdb3d5fb	-0.08781048
155	0xbd4357fd	-0.047691334
156	0x3c2b4aca	0.010454843
157	0xbd069552	-0.032857247
158	0xba12b58a	-0.00055965094
159	0xbd5f7b86	-0.05456116
160	0xbd5c1e8f	-0.05374008
161	0x3e775e78	0.2415713
162	0x3e473747	0.1945468
163	0x3dc3a8ae	0.095536575
164	0x3e51cffc	0.20489496
165	0x3e011d9d	0.12608953
166	0x3ce20b28	0.02759321
167	0xbce3b71e	-0.027797278
168	0xbc9b82fb	-0.018983355
169	0x3bf3a514	0.0074354503
170	0xbba7014b	-0.0050965897
171	0xbda44fc4	-0.080230266
172	0xbcd8e2e6	-0.026475381
173	0x39c0f16a	0.0003680096
174	0x3db68d63	0.08913686
175	0xbd762ce9	-0.060101423
176	0xbd906368	-0.0705021
177	0xbd762366	-0.060092352
178	0xbc8d98b5	-0.01728473
179	0x3c4e9435	0.0126085775
180	0xba2af66c	-0.0006521705
181	0xbd06040a	-0.032718696
182	0xbcbdb6d7	-0.023158474
183	0x3a69e438	0.0008922252
184	0x3cbc10d8	0.02295725
185	0xbdba67fc	-0.09101865
186	0xbdfdaeb0	-0.123868346
187	0xbd9dc1f9	-0.07703013
188	0xbe07f966	-0.13278732
189	0x3dcedf83	0.10101225
190	0x3c748b3e	0.014925776
191	0xbe1d1a51	-0.1534207
192	0x3e830008	0.2558596
193	0x3d7812f0	0.060564935
194	0x3e1279a1	0.1430421
195	0xbdabf499	-0.08396263
196	0xbdc14fb2	-0.09439029
197	0x3c62d4a7	0.013844646
198	0x3b8b6f88	0.004255239
199	0xbc4371f7	-0.011929027
200	0x3d4a4761	0.04938448
201	0xbc97bbb1	-0.018522115
202	0x3c01ceab	0.007922809
203	0xbcad1018	-0.021125838
204	0xbcd9e963	-0.026600545
205	0xbd872b62	-0.066000715
206	0xbd0f3482	-0.034962185
207	0x3e0c5d2f	0.13707422
208	0x3de6ae8b	0.1126376
209	0x3d46170b	0.04836182
210	0x3e01894e	0.12650034
211	0x3d8913b0	0.06693208
212	0x3d8fc51e	0.07020019
213	0x3d919d7d	0.07110117
214	0x3ca5809f	0.020202933
215	0x3d9b3a06	0.075794265
216	0xbc6d7439	-0.014493042
217	0x3d552c39	0.052044127
218	0x3d083844	0.033256784
219	0x3df198fe	0.11796759
220	0xbe7a7d96	-0.2446197
221	0xbc9f915b	-0.01947849
222	0xbc25ccd1	-0.010119633
223	0x3bc7d313	0.00609816
224	0x3cce20c7	0.025162114
225	0xbca7f5d1	-0.020502957
226	0xbbbd40aa	-0.005775531
227	0x3ccf207e	0.025284048
228	0xbc8e1389	-0.0173433
229	0xbd80fe46	-0.06298499
230	0x3e3c2a0d	0.18375416
231	0x3e55c2eb	0.20875137
232	0x3dab7ccb	0.08373412
233	0x3dc5de5f	0.096615545
234	0x3d94a09f	0.072571985
235	0xbcea2927	-0.028584076
236	0x3d6bc1e7	0.057557967
237	0x3d954462	0.072884336
238	0x3d3ba65f	0.04581296
239	0x3dcd0f4f	0.100126855
240	0x3d34328e	0.043993525
241	0x3bdf6ee2	0.006818638
242	0x3c1c7246	0.009548729
243	0xbce9cf70	-0.028541297
244	0x3d975c22	0.0739062
245	0xbb451276	-0.0030070818
246	0x3bef86a8	0.0073097534
247	0xbba17020	-0.0049266964
248	0xbaaa670c	-0.0013000681
249	0xbcc69a2a	-0.024243433
250	0xbd015294	-0.031572893
251	0xbb3dc3d0	-0.0028955825
252	0xbcb723a3	-0.02235586
253	0x3d06a8fd	0.032876004
254	0xbe319237	-0.17340933
255	0xbdf08cd8	-0.11745614

fc.bias f4 [2]
0	0x3d0dcc36	0.03461858
1	0xbcb6132e	-0.022225942
