Lab2/egg_net_best_leakyrelu.pth (torch_old, 75064 bytes, 17 tensors)

layer1.0.weight f4 [16, 1, 1, 51]
000000 d2 d6 30 bd 16 b2 f3 bd 13 fd bd 3d e2 27 f8 3d
       -0.04317362 -0.118992016 0.09276786 0.12116982
000010 ae 5d 40 ba b8 c1 0e be 46 8b c8 bd 43 7c 21 3e
       -0.0007338178 -0.13941085 -0.09792189 0.15770058
000020 5e b9 75 3c 2f 8a 89 3d a7 c0 ab bd 84 68 db bb
       0.014997808 0.067158096 -0.08386355 -0.006695809
000030 74 77 34 3d b9 a3 eb bb 94 6c ca 3c b9 1c 65 3b
       0.044059232 -0.007191148 0.024709977 0.0034959747
000040 16 64 34 3d 23 7d 5f bd 1d c7 55 be 6a be 4f 3d
       0.044040762 -0.0545627 -0.20876737 0.050718702
000050 9c 05 63 3e 42 da 90 3c 48 90 22 be 86 23 93 bd
       0.22170109 0.017682198 -0.15875351 -0.0718451
000060 eb 19 e8 3c e5 e7 83 3e 5d 35 8a 3d f5 cd 66 be
       0.028332671 0.2576286 0.067484595 -0.22539504
000070 3f 53 37 be 25 fd 16 3e 07 3a 43 3e 09 e3 a0 bd
       -0.1790285 0.14745004 0.19065104 -0.078558035
000080 8a 92 a0 bd de 12 1f be bb d3 c2 3d 10 5e 20 3e
       -0.0784045 -0.15534541 0.09513041 0.15660882
000090 ad b6 dd bc 93 83 5d be 09 f2 a1 3d 1a e2 fd 3d
       -0.027064646 -0.21632223 0.07907493 0.12396641
0000a0 4e e2 1a bb ce c8 57 3d 21 24 d8 bd 2d 64 82 3c
       -0.0023633423 0.052681737 -0.10553766 0.015916908
0000b0 a2 1c 5b 3d bc 05 5c 3c df 4d 06 be 88 6c 4a bd
       0.053494103 0.013429102 -0.13115643 -0.04941991
0000c0 c4 ff ef bb a1 5b fa 38 17 8c b1 3d f5 55 47 3e
       -0.007324191 0.00011937996 0.08669298 0.19466384
0000d0 58 4e 17 3e a4 74 dc 3d 29 64 2a bc 1c 4f 04 bd
       0.1477598 0.10764435 -0.010399857 -0.032302007
0000e0 41 92 ca 3a ba 8a 8f bb 7f 6f 43 3c a9 42 4a 3c
       0.0015454964 -0.004380551 0.011928438 0.012344995
0000f0 4a 24 eb 3b 7d 34 95 bd 3f 77 19 be 30 bd d6 3d
       0.007175957 -0.07285402 -0.14986895 0.104853034
000100 f2 e3 ef bd a6 7b a6 3d 33 15 aa 3c dd 4a 55 3c
       -0.11713399 0.08129053 0.020762062 0.013018337
000110 a1 c4 13 3d b6 69 04 3e b7 ed 09 3e e4 77 8a 3e
       0.03607619 0.1293095 0.13469587 0.27044594
000120 ad e3 60 3e 4e 4a 74 3e 3e b7 c4 3d 09 5f 82 3e
       0.21961851 0.2385647 0.09605263 0.2546313
000130 e9 f2 29 3e de da 2d 3e 87 d8 d1 3d a0 3d 87 3d
       0.16596569 0.16978022 0.102463774 0.06603551
000140 f4 db 18 bd 20 66 de bd 61 15 18 bd 76 ed 82 bc
       -0.03731914 -0.108593225 -0.037129764 -0.01598237
000150 32 67 95 3d d0 de 2b bd 04 1b 80 3d d1 ec 27 3c
       0.072950736 -0.041960537 0.06255153 0.0102493325
000160 ec 25 cf 3d 73 72 91 3c 22 5b f3 3d cd a6 2e 3e
       0.10114655 0.017754769 0.118826166 0.17055817
000170 d3 63 87 3d 8c c9 2e bb 78 b8 60 3d ef 87 88 bb
       0.06610837 -0.0026670424 0.054863423 -0.004166595
000180 00 70 b4 3d d9 e9 34 bd f1 7e a1 bd db eb b6 bd
       0.08810425 -0.044168327 -0.0788554 -0.089317046
000190 92 c1 bd bd 93 fb 47 3c 1c 1e 4e be b4 57 52 3d
       -0.09265436 0.012205976 -0.20128673 0.05135317
0001a0 4a f8 16 bd cd cd 28 be 78 48 01 be c4 30 94 bb
       -0.03685788 -0.16484757 -0.12625301 -0.004522415
0001b0 be 7d f2 bd 3d 0e ee bd ab 47 26 3d 93 53 c9 3d
       -0.1184039 -0.116238095 0.04059569 0.09830394
0001c0 48 41 dd bd 8f d1 8d 3d fa b4 94 3d 46 7b ff 3d
       -0.10803467 0.06924736 0.07261081 0.124746844
0001d0 f6 87 5a 3d 0b 42 bd bd cb de e5 3c b0 b8 f8 3d
       0.05335232 -0.09241112 0.028060338 0.12144601
0001e0 46 85 ef 3d 73 a1 a2 3c 61 bd 20 bc 49 36 57 be
       0.11695342 0.019852376 -0.009810776 -0.21016802
0001f0 41 e1 ca bc 7d 82 b6 bd 91 aa ac bd ff 46 80 be
       -0.024765613 -0.089116074 -0.084309705 -0.25054166
000200 26 cf e8 3c fe e7 9b bd 3e 37 eb bd 25 b7 f5 bd
       0.028419089 -0.076126084 -0.11485146 -0.11997823
000210 88 bf 25 be 30 21 90 bb 21 23 c4 bd 47 a6 bb bc
       -0.16186345 -0.0043984875 -0.09577013 -0.022906436
000220 9f 0f 36 bd ba 15 34 3d b3 57 3e 3d 88 77 05 3e
       -0.04444849 0.043966033 0.046470355 0.13033879
000230 a8 30 e2 bd f9 8e 2c 3e d5 5c fa 3a 61 70 62 3e
       -0.11044437 0.16851415 0.0019101152 0.22113182
000240 8e a1 4a 3d ca 49 44 3d 80 0b e4 3d cb a5 be 3d
       0.049470477 0.047921933 0.11135006 0.09308966
000250 9b 64 4f 3c 60 45 62 3e f8 2d b3 bd ef 33 f8 3d
       0.012658264 0.22096777 -0.08749002 0.121192805
000260 ba af 55 bd 07 95 96 3e c7 50 63 3e 48 55 f6 bc
       -0.05216954 0.29410574 0.22198783 -0.030069962
000270 7b 12 0f 3e eb 29 a0 3c b7 5d 11 3e 2e f9 a1 3d
       0.13971893 0.019551238 0.14195906 0.079088554
000280 8a 0f 4d 3b f5 e3 6f bd 3b 05 fc bb 15 2f 7b 3d
       0.003128978 -0.058567006 -0.007691053 0.061324198
000290 23 61 b9 3d 28 07 5d bd d7 c5 0a be 08 b8 bb bc
       0.090517305 -0.053961903 -0.13552032 -0.022914901
0002a0 6a 3f 38 be a6 ba e4 ba 06 56 84 bc 0c b4 0b be
       -0.1799294 -0.0017450645 -0.0161543 -0.13642901
0002b0 9c 87 b0 bd 61 32 09 bb ce 2d e6 3d 07 c3 84 3d
       -0.086196154 -0.002093457 0.11239205 0.06482511
0002c0 04 cd d7 3b 4d c9 20 3e 51 56 99 3d ae 3a 28 3e
       0.006585719 0.1570179 0.07487167 0.16428635
0002d0 ee f5 bd 3b 79 ae dd bc 38 f2 28 bd 9b d3 3d bd
       0.0057971394 -0.027060734 -0.041246623 -0.04634438
0002e0 a6 7d 95 ba 13 e3 1b bd da d2 41 3d 12 11 94 bd
       -0.0011405244 -0.03805835 0.047320224 -0.072298184
0002f0 30 b9 ab 3d 26 77 43 bd 1c c2 25 be 1a a4 0c be
       0.08384931 -0.04772105 -0.16187328 -0.13734475
000300 19 15 9b bc b0 16 9e 3c 64 02 66 3d e2 42 b8 3d
       -0.018930959 0.019297928 0.056154624 0.08997132
000310 1e ee 86 bd 54 3a 70 bc f7 fb 09 3e f2 a6 69 3e
       -0.06588386 -0.014662344 0.13475023 0.22817591
000320 9d b2 de bc 68 ff e6 3d ad 5e 0e 3e 17 82 05 3e
       -0.027184779 0.112791836 0.13903303 0.13037907
000330 91 3f 91 bc 62 fa ba 3b 63 88 24 3e 1b 36 e5 3c
       -0.017730506 0.0057061175 0.16067652 0.027979901
000340 35 36 98 3c 0b 8a 95 bd e8 c1 e0 ba e3 e3 f8 bd
       0.018580535 -0.0730172 -0.0017147632 -0.12152841
000350 39 d9 50 bd 8e 90 4a be 91 22 03 be 15 51 24 be
       -0.05098841 -0.19781706 -0.12806155 -0.16046555
000360 2e 31 af 3d 52 2f 44 3d 33 7f f0 3c e1 58 22 3d
       0.08554302 0.04789669 0.029357528 0.039635543
000370 84 1e 91 3d 14 e5 83 bd 6c 6b 2e 3d 3b 9e fb bd
       0.070858985 -0.064401776 0.042582914 -0.122860394
000380 b9 b1 4e be 17 88 4e be 55 5e 07 be 24 c2 fc 3d
       -0.20184983 -0.20169102 -0.13219579 0.12341717
000390 a9 8a ad 3d e8 0b a7 3c 32 f7 5a 3d 92 4c de bc
       0.08473713 0.02039142 0.0534584 -0.027136121
0003a0 5e 59 70 3c ee bc d7 3c 4f 7e 9c bd 69 a5 06 bd
       0.014669744 0.026335206 -0.07641279 -0.03287259
0003b0 73 8e 33 be c0 af 06 be f4 0c ee bc 8f 7c 91 bc
       -0.17534809 -0.13152981 -0.02905891 -0.01775959
0003c0 b0 35 4b 3d ca a4 1d 3e fc c1 07 3e b0 4b 20 3e
       0.049611747 0.15394893 0.13257593 0.15653872
0003d0 9b a7 10 3e 90 22 3a bd 61 31 a6 bb 2c 1f 1b be
       0.14126436 -0.045443118 -0.0050718044 -0.1514861
0003e0 e6 84 a3 bd 12 bc f9 bd 19 3a 3b bd e7 08 82 bd
       -0.07984333 -0.12194075 -0.045709703 -0.06349354
0003f0 e0 ca 09 3e 25 84 15 3e 2f bf 83 3e 5a dd 31 bc
       0.13456297 0.1460119 0.257318 -0.010855997

layer1.1.weight f4 [16]
000000 90 fb 9e 3e a6 93 2d 3f e8 cb ad 3d bc 9c a1 3e
       0.31051302 0.6780342 0.08486158 0.3156489
000010 a6 b7 a3 3e 1a d1 a3 3e a6 c1 f6 3e 8a 94 82 3e
       0.3197605 0.3199547 0.48194617 0.2550395
000020 aa 86 d5 3e 35 f3 59 3e 69 36 d0 3e e2 5b f2 3e
       0.41704303 0.21284182 0.40666512 0.47335726
000030 ed 13 2e 3f 61 c5 f8 3e a2 d1 0c 3f ef e1 60 3e
       0.67999154 0.48588088 0.55007374 0.21961187

layer1.1.bias f4 [16]
000000 b2 1c 13 bc 94 e9 b2 b9 b0 43 8d 3b 24 aa 33 3b
       -0.008979009 -0.00034124835 0.0043110475 0.0027414644
000010 fc 12 7e bb f2 bb 16 bb a9 8b 92 3a 4d 15 1d 3a
       -0.003876864 -0.0023000208 0.0011180538 0.0005992249
000020 09 3a 63 bb 93 5e a1 ba 50 92 f9 ba f2 5e 6f bb
       -0.0034672043 -0.001231151 -0.0019040797 -0.0036525098
000030 b4 f7 a5 3a 13 12 79 bb 70 b4 71 3b 4f fd 17 3a
       0.0012662322 -0.0038005158 0.003688123 0.0005797939

layer1.1.running_mean f4 [16]
000000 75 84 4a 3b d6 a1 8a bd 87 82 67 bc 00 98 75 bd
       0.0030901704 -0.06769149 -0.014130241 -0.05995941
000010 e0 82 b0 bb aa e1 a4 3d b7 64 8b 3b 9d 74 2c bc
       -0.0053866953 0.080508545 0.0042539495 -0.01052585
000020 f4 fa 93 3c ec ad 51 bc cd 62 8f bc 0d b6 84 bc
       0.018064 -0.012797814 -0.017503167 -0.01620009
000030 35 b0 fe 3c 2f 01 86 39 72 85 41 3d 87 3a 2e bc
       0.031089881 0.00025559354 0.047246404 -0.010634071

layer1.1.running_var f4 [16]
000000 bc fb 8f 40 79 7f bb 42 cf 5c f2 41 f4 aa dd 41
       4.4994793 93.74897 30.295317 27.708473
000010 6e 02 53 42 ae e0 71 42 8f 53 27 41 01 68 41 41
       52.752373 60.469414 10.4579 12.087892
000020 52 80 e5 41 9d 1c e8 41 65 3f ab 40 5e 22 07 41
       28.687656 29.013971 5.3514886 8.44589
000030 87 23 c4 41 19 f0 f8 40 be 17 6e 41 3b 8f 98 40
       24.517347 7.779309 14.880796 4.767484

layer2.0.weight f4 [32, 1, 2, 1]
000000 8c 20 8e 3d fc aa 03 bf 2f 0e d0 bd 13 90 dc 3e
       0.069398016 -0.51432776 -0.10158955 0.4307867
000010 14 f0 8b be ad 06 58 3d d1 b5 ae bd ee af 80 3e
       -0.27331603 0.05274074 -0.085307725 0.25134224
000020 10 76 cb be a5 f1 4b bf 5a f7 a4 be 2c 76 95 3e
       -0.39738512 -0.79665595 -0.32219964 0.2919172
000030 47 63 c2 3e 65 da ad 3e f7 88 9d be 21 ed d3 be
       0.37966368 0.33955684 -0.30768558 -0.41391852
000040 6d 54 0e bf 85 3b 5d bd 2c c7 66 bd da b8 ac 3e
       -0.55597574 -0.05401184 -0.05634229 0.3373478
000050 fd 2d 8a be cb c4 04 3f f7 07 0b bf 1b f2 91 be
       -0.2698821 0.5186278 -0.5430903 -0.28505024
000060 38 06 1e 3f 30 a3 df bd fd ab d3 be 01 9a 06 3e
       0.6172824 -0.109197974 -0.41342154 0.13144685
000070 25 90 39 bf 7e 79 80 3e 51 46 e0 3c e4 1d 66 3f
       -0.7248557 0.2509269 0.02737728 0.8988936
000080 ef dc 4b be e6 66 34 3f 8e 18 ba be 7c 73 99 3e
       -0.19908498 0.7046951 -0.3634686 0.2997092
000090 88 8d f1 3e 6a 9e 14 be fd 77 05 3f 3a fe 18 bf
       0.47178292 -0.14513555 0.5213621 -0.5976292
0000a0 aa 69 c4 be b1 0c e2 3d a4 ed bf 3e 4e 30 83 3d
       -0.38361865 0.11037577 0.37485993 0.06405698
0000b0 78 52 09 bf a5 ec 27 3f 5e fd 76 be 61 56 0e 3f
       -0.5364146 0.65595466 -0.2412009 0.55600554
0000c0 7f e3 12 3e 90 b5 59 be 44 33 f2 3e bb 70 9e be
       0.14344595 -0.21260667 0.47304738 -0.30945382
0000d0 27 fc 9d bd 4d e2 09 3f fc 21 a2 3c 23 33 71 3f
       -0.0771411 0.5386093 0.019791596 0.94218653
0000e0 a3 6a cf be 48 a2 20 3e e2 a4 3b 3e bb 1b f5 be
       -0.40511045 0.15686905 0.18324617 -0.4787272
0000f0 c6 74 ca 3e 8f 2e e6 bb 21 92 c2 be c7 a9 24 3f
       0.39542216 -0.007024593 -0.38002113 0.6432156

layer2.1.weight f4 [32]
000000 6b f8 88 3f 90 19 8d 3f 75 91 3c 3f 1c bf 47 3f
       1.0700811 1.1023426 0.7365945 0.78025985
000010 3f b3 42 3f 91 fd 30 3f f9 fa 66 3f 5d b4 49 3f
       0.7605476 0.6913691 0.90226704 0.7879084
000020 12 f3 35 3f c5 c8 50 3f f5 46 2a 3f 7f 64 53 3f
       0.7107402 0.8155635 0.6651452 0.8257522
000030 a0 46 83 3f 30 3c 88 3f 8c 12 5f 3f 6c 27 66 3f
       1.0255928 1.0643368 0.87137675 0.89903903
000040 9c 54 5d 3f 23 78 73 3f a8 d5 4b 3f 06 07 5d 3f
       0.8645723 0.9510519 0.7962289 0.8633884
000050 89 03 79 3f ca 48 58 3f e8 5f 74 3f 24 1c 82 3f
       0.9727102 0.8448607 0.9545884 1.0164838
000060 7e 4b 52 3f d5 a6 71 3f 95 c9 85 3f b4 26 6e 3f
       0.8214644 0.9439519 1.0452143 0.93027806
000070 5d 9d 72 3f 58 cd 51 3f 26 da 4e 3f 43 50 7f 3f
       0.9477137 0.81953955 0.8080162 0.99731845

layer2.1.bias f4 [32]
000000 d2 ad 22 bf 5b 72 2c bf 80 b7 d1 be e9 1c e6 bd
       -0.6354648 -0.6736199 -0.40960312 -0.11235983
000010 68 51 0b bf 46 b4 3b be ce 5c 2d bf 9b 8c cf bd
       -0.5442109 -0.18330488 -0.67719734 -0.1013424
000020 b7 f0 f1 be 75 b4 33 be 97 31 d4 bd 27 3a 89 be
       -0.47253963 -0.17549308 -0.10361021 -0.2680218
000030 2c aa d4 be cf 76 17 bf 7f 28 b8 be df 9e eb be
       -0.4153608 -0.5916566 -0.35968396 -0.46019647
000040 65 0c 01 bf 05 9f 3a bf 19 8c de be a4 26 0a bf
       -0.5040954 -0.72898895 -0.4346626 -0.5396521
000050 5f 1b e2 be 11 0c d3 be 78 ad 9a be d0 45 2b bf
       -0.44161507 -0.41220143 -0.3021047 -0.669034
000060 67 f6 86 be 95 cd 0f bf f5 35 39 bf 0f a4 1c bf
       -0.26359865 -0.5617307 -0.72347957 -0.61187834
000070 ac 82 03 bf 32 9a 89 be d7 5d 9f be 51 9c dd be
       -0.51371264 -0.26875454 -0.31126282 -0.43283322

layer2.1.running_mean f4 [32]
000000 99 54 2d 3b 71 9f 00 bb a1 21 75 ba be d1 88 ba
       0.002644813 -0.0019626284 -0.00093510194 -0.0010438485
000010 84 d9 76 bb 0a cc 30 37 1c 7e af 3a e7 6d 9b ba
       -0.003766627 1.0537924e-05 0.0013389024 -0.0011858315
000020 77 e1 e9 3a 43 08 1c ba 97 52 58 3a ca d7 15 3b
       0.0017843683 -0.0005952159 0.0008252053 0.0022864216
000030 82 29 aa 39 be 9b 1a b9 db 2d e4 39 d6 15 82 ba
       0.00032455852 -0.00014744603 0.00043521714 -0.000992472
000040 4e c8 c3 ba 37 03 33 39 7e d4 49 ba 1c 70 f5 37
       -0.0014937015 0.00017071968 -0.00076992053 2.9258481e-05
000050 85 20 6b b9 1f 5b a0 b8 05 90 ed ba 7b 01 f4 ba
       -0.00022423461 -7.646367e-05 -0.0018124586 -0.0018616164
000060 9f 9a 3b ba 96 19 b2 ba 07 94 0c bb d8 86 92 bb
       -0.0007156524 -0.0013587947 -0.0021450536 -0.004471641
000070 d0 a7 f0 39 08 88 04 bb b7 a0 01 39 b2 9b 11 38
       0.00045901397 -0.0020222683 0.0001236227 3.4715697e-05

layer2.1.running_var f4 [32]
000000 5c 50 c1 3c b7 ce 80 3c 0c 02 c6 3c 9b b1 a3 3c
       0.023597889 0.01572357 0.024170898 0.01998215
000010 d2 21 20 3c 9b 02 d0 39 c6 70 31 3d e2 60 35 3d
       0.009773688 0.00039674793 0.04332044 0.044281848
000020 84 71 08 3d 3e 1c 24 3c 0c 7b 90 3c e5 7b 6b 3d
       0.033311382 0.010016499 0.017636798 0.057491202
000030 f4 a7 83 3d bb c1 cb 3c 8c c4 c4 3c ae c9 5f 3d
       0.06428519 0.024872651 0.024019502 0.054635696
000040 ac 33 66 3d c9 1a 38 3c 89 a2 cf 3b 29 ab 10 3c
       0.056201622 0.011236855 0.0063365144 0.00882987
000050 49 cb 9b 3c ef f9 da 3c 19 42 a4 3d a4 ac 5a 3d
       0.019017832 0.026730506 0.080204196 0.0533873
000060 ed 54 2c 3c 4d e8 53 3d 54 a6 83 3d 74 ce 70 3e
       0.010518295 0.05173521 0.06428209 0.23516256
000070 9f 53 06 3d 9f 7d 4f 3d 84 ae e5 3b 06 01 5a 3c
       0.03279459 0.05065691 0.0070093293 0.013305908

layer3.0.weight f4 [32, 32, 1, 15]
000000 7c e6 39 be 1e f6 eb bd 92 1c e0 bc 42 61 e3 bc
       -0.18154329 -0.115215525 -0.027357373 -0.027756337
000010 ad 95 c2 bd aa 12 a8 bd c0 d2 5a bd c8 7b f6 bb
       -0.09501205 -0.08206685 -0.053423643 -0.00752208
000020 e3 34 71 3d b5 16 07 bd d7 38 8d bd da 57 47 bc
       0.058888327 -0.03298064 -0.06895607 -0.012166942
000030 f1 84 04 bd b8 85 1f bd 98 a7 e1 bd f8 e4 49 be
       -0.032353345 -0.038945884 -0.11018294 -0.19716251
000040 4d 6f 10 be 8b fc 88 bd 61 24 d7 bd f8 d8 4e bd
       -0.14104958 -0.06688794 -0.105049856 -0.050499886
000050 1b 7b 95 bd 37 67 c0 3b aa f4 e2 3c dc 53 08 3d
       -0.07298871 0.005871679 0.027704556 0.0332831
000060 94 df 1f bd 1b 32 93 bd 65 87 4a bc b9 61 f7 bc
       -0.03903158 -0.07187291 -0.012361382 -0.030197965
000070 ff 5d 9f bd c4 71 b0 bd e6 31 00 3d 45 76 1b 3d
       -0.077816 -0.08615449 0.031297587 0.037954587
000080 3a 9c 0e bc 92 b5 89 3c 3e 27 7d 3d 56 62 36 3d
       -0.0087042395 0.016810212 0.061805002 0.044527374
000090 7b b9 5c 3d 30 a7 11 3c 8d 73 48 3d 54 c0 e9 bb
       0.053887825 0.008889958 0.048938323 -0.007133523
0000a0 74 26 c3 bc 0d 9f 82 3c b7 37 46 3d 0d ac e3 3c
       -0.023822047 0.015944982 0.048392978 0.027792001
0000b0 77 7a 2f 3c 99 18 e8 3c be d3 0a 3d 8d 9d 29 3d
       0.01071035 0.028332042 0.03389334 0.041410018
0000c0 70 7b 6d 3c a0 5b f9 3b 58 f6 bd bc d0 82 2d 3b
       0.014494762 0.0076097995 -0.023188755 0.0026475675
0000d0 68 51 82 3d 8d 89 98 3d 00 f4 29 3d a7 24 8e 3d
       0.06363183 0.07448111 0.041492462 0.06940585
0000e0 aa 8a 3d 3d 48 5a 11 3d 49 07 9d 3d cc 79 40 3d
       0.04627482 0.03548649 0.07667405 0.046991155
0000f0 11 7b c8 bd 40 3e a4 bd 71 86 b8 3b f8 8a ef bc
       -0.09789098 -0.08019686 0.005631261 -0.02924107
000100 ea bb 04 bd 64 7f 97 3d 9e 1e 9a 3d 67 d3 12 3e
       -0.03240577 0.07397345 0.07525371 0.14338456
000110 88 8a f9 3d 21 d8 26 3e a1 88 a7 3c 7d ce 34 3c
       0.12184626 0.16293384 0.020450892 0.011035559
000120 df 76 8f 3b 76 62 0b 3c ba 1a ba bc 0c 12 2f bd
       0.004378184 0.008507362 -0.022717822 -0.04274182
000130 a4 60 c4 39 1d 88 21 bd 1d 71 94 bd 91 f1 69 bd
       0.00037456036 -0.03943645 -0.07248137 -0.05711514
000140 cf d4 c2 bd ce 54 a8 bd e6 87 84 bd d8 68 19 bd
       -0.09513246 -0.082193 -0.06471233 -0.037453502
000150 36 b0 c3 bc 30 4f 2f bd 56 df 5f bd 5e 52 ad bb
       -0.023887735 -0.04280013 -0.05465635 -0.00528936
000160 33 c0 01 3d 08 93 4a 3d 6b 88 4f 3b 4a 49 ad 3c
       0.031677436 0.049456626 0.0031667005 0.021153111
000170 80 01 0e bd 91 e2 ac bd 8b 8d aa bd 81 9e 25 bd
       -0.0346694 -0.084416516 -0.083277784 -0.040434364
000180 42 85 c3 bd 7d 22 9f bd 81 27 d1 bd e3 87 46 be
       -0.09546901 -0.0777025 -0.10212613 -0.19387774
000190 9c ab 0c be e7 85 0a be de 9d 24 be 07 d6 25 be
       -0.13737339 -0.13527642 -0.16075847 -0.16194926
0001a0 9e 84 67 bd 8d f5 3f 3d 6c a6 4e bc 90 a9 0c bd
       -0.056522958 0.046865035 -0.01261292 -0.034341395
0001b0 00 b3 09 bd ee 9d 52 bd 46 58 05 3d 94 88 9f bc
       -0.033617973 -0.051420145 0.032554887 -0.019474305
0001c0 c9 56 c0 bd 09 50 d9 bd fe 20 26 be 1b d7 23 be
       -0.09391553 -0.106109686 -0.16223523 -0.16000025
0001d0 ba 00 d0 bd e2 29 86 bd 06 b2 94 bd 86 64 8e bc
       -0.101563886 -0.06550957 -0.07260518 -0.017381918
0001e0 4d d0 c1 bd 71 2d 2e 3c 3e 20 0e 3d 88 92 ac bc
       -0.09463558 0.010630951 0.034698717 -0.021065965
0001f0 a0 a9 23 3d 13 8e c9 3d e0 71 aa 3c 46 17 20 ba
       0.03995669 0.09841552 0.020806253 -0.00061069836
000200 5a 29 0f 3d 7a 81 a1 3b 75 8a b0 3c b9 cc 92 ba
       0.034951545 0.004928765 0.021550396 -0.0011199928
000210 f7 58 9d bd ef 26 92 bd e5 f2 46 bc 42 0f df bd
       -0.07682984 -0.07136332 -0.0121428715 -0.10891582
000220 95 9e 07 bc 5e 4f 80 bd 6f e5 45 3d 81 b8 9b 3d
       -0.008277555 -0.06265138 0.048314508 0.07603551
000230 18 20 69 bc e0 50 09 3c 1a 74 23 bd 35 94 bd bd
       -0.014228843 0.0083810985 -0.039905645 -0.09256784
000240 6a 6d 12 bc 0e 0d cc bc a1 9d 51 bd 7a c3 0b bc
       -0.008937219 -0.024908569 -0.051175717 -0.008530492
000250 4c 9d 28 bd fb 31 92 bd 6e c7 6c bd 05 b3 a4 bd
       -0.041165635 -0.07138439 -0.05780738 -0.08041958
000260 e5 80 03 bd 2e 97 54 3c 0a b7 15 bc ad e6 01 3e
       -0.032105345 0.012975497 -0.009137878 0.12685652
000270 d5 54 9f 3d fe 24 51 3c 12 75 1f 3d e1 42 dd bc
       0.07779852 0.012765167 0.038930006 -0.02700943
000280 18 b4 34 bd db ab bc bd 9d a1 0b be 6b 08 12 be
       -0.044117063 -0.09212466 -0.1363587 -0.14261024
000290 45 10 11 be 93 5f 92 bd 1d 5c 9e bc 24 33 52 3d
       -0.14166363 -0.071471356 -0.019331032 0.051318303
0002a0 b5 9f 48 3d 82 fb 83 3d 67 64 84 3d 85 9b bc 3c
       0.048980433 0.06444456 0.06464463 0.023023376
0002b0 81 94 09 3d a3 4b f5 bb ed e9 cc 3c 24 0e 45 bc
       0.03358889 -0.0074858232 0.025013888 -0.012027297
0002c0 6c a2 bb bc 09 88 1c 3c c5 f6 1c 3c db 34 c8 bb
       -0.022904597 0.009553918 0.009580319 -0.0061098165
0002d0 9b c3 a6 3d 42 6e 04 3d 21 2d 0a 3d 7e e8 2e 3b
       0.081427775 0.032331713 0.033734445 0.002668887
0002e0 1a 8c ed bc 4a 0d 54 bc d7 97 ce 3a 0c c1 09 bc
       -0.02899747 -0.0129426215 0.0015761805 -0.008407842
0002f0 bd 9d e5 bc 5d d9 09 bd d1 b6 8e bd a6 4f 6b bc
       -0.028029317 -0.03365456 -0.06968463 -0.014362251
000300 c3 23 a5 bc 2f de 5a bd 66 45 a3 bd 36 f3 b1 3d
       -0.020158654 -0.053434547 -0.07972221 0.08688967
000310 de c6 c2 3d a0 b1 7b bd 83 75 b9 bd 86 bc 10 bd
       0.09510587 -0.061448693 -0.09055617 -0.03533604
000320 b0 f7 a2 bc ac b5 50 bd a2 67 71 bd fd 38 04 bd
       -0.019893497 -0.050954506 -0.058936723 -0.03228091
000330 77 a4 94 bc e9 72 5e 3b 05 c3 21 bc ec 44 8c 3c
       -0.01814483 0.0033943004 -0.009873156 0.017122708
000340 1e aa d7 bd 51 b5 de bd 7a 47 0c 3b 2d 53 9e bc
       -0.10530494 -0.10874427 0.0021404908 -0.01932677
000350 25 39 66 bd f6 16 10 bd cd 5d 46 bd aa f7 32 3c
       -0.05620684 -0.035178147 -0.0484293 0.0109233055
000360 46 fd 00 3c c4 8a c1 3d f3 a9 a9 3d 8b 7f c4 bc
       0.007872885 0.094502956 0.08284368 -0.023986598
000370 2d 72 86 3b ef b7 47 3b c0 35 96 bd 4c 68 72 bc
       0.0041029663 0.0030474623 -0.07334471 -0.014795374
000380 5e 58 8e bc 76 c7 11 bc 35 bc 45 3d 55 99 e5 3c
       -0.017376121 -0.008897653 0.04827519 0.028027216
000390 1c bc 86 bd 74 ef c3 bc 45 70 83 3d e4 01 6a 3d
       -0.06578848 -0.023917891 0.06417898 0.05713071
0003a0 32 b9 68 bc 80 fc c4 3c 10 16 2c bd f3 28 9b 3c
       -0.01420431 0.024046183 -0.042013228 0.018940425
0003b0 a0 a2 f0 3c e2 10 7b bd 09 b3 11 ba cb 2d 96 bd
       0.02937442 -0.061295398 -0.00055579894 -0.07332953
0003c0 e8 5e d3 3c 3a a1 14 3e 08 54 de 3c 24 3e e0 3c
       0.02580209 0.14514628 0.027139679 0.027373381
0003d0 7b be 82 3c 0b 4a aa bb 74 b5 6d bd 13 45 c2 bb
       0.015959969 -0.005196815 -0.058034375 -0.0059286444
0003e0 e8 15 a3 ba 5c bd b8 3d 93 7a cb 3d 21 d9 b1 3d
       -0.0012442442 0.090204924 0.099354886 0.08683992
0003f0 a6 ff f1 3c 33 d9 91 3d 0f c2 63 3d 49 2a ed bd
       0.029540848 0.071215056 0.05560499 -0.11580331

layer3.1.weight f4 [32]
000000 23 16 7d 3f f4 b3 7a 3f 6f 2f 81 3f f5 70 7a 3f
       0.988619 0.97930837 1.00926 0.9782861
000010 a7 34 83 3f 5a c5 83 3f 84 d8 7a 3f 24 df 83 3f
       1.0250443 1.0294602 0.97986627 1.0302472
000020 47 06 7a 3f f4 3b 81 3f fa 50 80 3f d2 15 86 3f
       0.9766583 1.0096421 1.0024712 1.0475409
000030 fe 31 7c 3f 09 dc 7d 3f 2d da 7f 3f a0 5b 7d 3f
       0.9851378 0.9916387 0.99942285 0.98967934
000040 b3 33 7b 3f f6 1b 77 3f c1 33 8b 3f 61 f5 79 3f
       0.9812576 0.9652704 1.0875169 0.97640043
000050 71 7b 88 3f 26 4d 81 3f 69 71 80 3f 33 07 7b 3f
       1.0662671 1.0101669 1.003461 0.9805786
000060 10 03 88 3f f6 60 81 3f 60 c0 81 3f 92 0f 85 3f
       1.0625935 1.0107715 1.0136833 1.0395377
000070 8b b3 80 3f 53 fd 82 3f aa 6d 87 3f 47 6b 78 3f
       1.0054792 1.0233558 1.0580342 0.9703869

layer3.1.bias f4 [32]
000000 75 2f e1 be ac 89 98 be aa 9b e8 be 6d 90 d7 be
       -0.4398152 -0.29792535 -0.45431262 -0.42102376
000010 68 fd 05 bf b0 c9 f8 be 43 04 a2 be a0 b9 be be
       -0.5233979 -0.48591375 -0.31643876 -0.37250996
000020 07 71 dd be ca d9 a3 be da 17 86 be ad d2 9b be
       -0.43250296 -0.32002097 -0.26190072 -0.3043417
000030 56 76 c7 be 0d 1e a3 be de 6c d2 be a7 7c ea be
       -0.3895747 -0.31858864 -0.41098684 -0.45798227
000040 ab a1 b8 be 07 6d e6 be f5 6d 62 be dd ec e4 be
       -0.36060843 -0.45005056 -0.22112258 -0.44711962
000050 fa e8 d9 be 81 b0 d8 be 4c 81 e7 be 57 17 c6 be
       -0.4256056 -0.42322162 -0.45215833 -0.38689682
000060 d2 c2 da be 4c 38 e4 be 92 d6 e5 be da f2 8f be
       -0.4272676 -0.445742 -0.44890267 -0.2811497
000070 3e 95 99 be e1 b0 03 bf 7c a1 04 bf 9c 9f a4 be
       -0.29996675 -0.5144177 -0.51808906 -0.32153022

layer3.1.running_mean f4 [32]
000000 14 a2 4f bf 4f 48 5f be bc 78 27 bf 0a 58 10 bf
       -0.81106687 -0.21804927 -0.654186 -0.56384337
000010 db c9 07 bf c9 da 89 bf ef ae 42 be 81 d2 dc be
       -0.5304238 -1.0769893 -0.19012044 -0.43129352
000020 d2 c0 94 be f2 d1 f4 be bf 08 b0 be 6f 41 ca bd
       -0.2905336 -0.47816426 -0.34381673 -0.09875762
000030 35 69 e6 be f3 e9 bb be 5b 1a 1a bf b6 51 4e bf
       -0.45002142 -0.36701927 -0.60196465 -0.8059343
000040 07 5e 9c be af 4b d8 be 9b bd d1 be 82 02 a9 be
       -0.30540487 -0.42245242 -0.4096497 -0.33009726
000050 91 e2 3b bf ef 94 d4 bd 0d e7 f9 be 93 f2 0a bf
       -0.7339259 -0.10379969 -0.4880909 -0.5427639
000060 84 34 4d bf 0f d2 85 bf 37 0d 84 bf d0 18 dc be
       -0.8015826 -1.045473 -1.0316533 -0.4298768
000070 22 55 da be 71 ac 3e bf 50 e0 86 bf b0 ae d5 be
       -0.42643076 -0.74481875 -1.0537205 -0.41734838

layer3.1.running_var f4 [32]
000000 6c c0 39 3f 45 54 3a 3f ff 1d 85 3f 9b 35 6c 3f
       0.7255924 0.72784835 1.0399779 0.92269295
000010 72 5a 38 3f 28 aa 7e 3f 0f 2f 4a 3f 7d f3 74 3f
       0.7201301 0.9947839 0.78978056 0.95684034
000020 d6 47 15 3f 1d fd 57 3f 78 57 4a 3f 1c 23 0c 3f
       0.5831274 0.84370595 0.79039717 0.5474107
000030 36 4f 3e 3f d3 39 07 3f ff 7d 88 3f e9 98 4c 3f
       0.74339616 0.5282261 1.0663451 0.7992082
000040 a7 50 29 3f a0 11 0a 3f bc 3f 82 3f ca 13 36 3f
       0.6613869 0.53933144 1.01757 0.71123946
000050 09 bc a3 3f cd 2a 1b 3f 8d 99 30 3f 21 0d 48 3f
       1.2791759 0.60612184 0.689843 0.78145033
000060 cf 67 ab 3f cf 31 61 3f f9 76 75 3f ce 08 2b 3f
       1.3391055 0.87966627 0.9588466 0.6681031
000070 ec 8a 64 3f c2 55 4e 3f 46 e6 98 3f f4 f7 48 3f
       0.8927448 0.80599606 1.1945274 0.78503346

fc.weight f4 [2, 736]
000000 36 42 f5 3d 61 84 24 3e 65 00 a1 3d ef 1f a5 bb
       0.11975519 0.16066124 0.078614034 -0.005039207
000010 64 26 05 bd 9e 06 cc bd 6f 46 fe bc b6 81 d6 bc
       -0.032507315 -0.099622 -0.031039445 -0.026184898
000020 33 7a e1 bd 5a 86 53 bd 25 a3 71 bd e3 1e e0 bb
       -0.11009636 -0.0516418 -0.058993477 -0.0068396195
000030 f3 b0 1d bd 8b a1 19 be 5f fc d4 3d 11 ec 93 bc
       -0.03849883 -0.1500303 0.103996985 -0.018056901
000040 66 31 1b be c8 db a5 3d 84 00 58 bd da 5b 38 3c
       -0.15155563 0.080985606 -0.052734867 0.011252368
000050 06 1f 82 bd 11 07 cc bd 1f ec 91 bc b5 80 11 3e
       -0.063535735 -0.09962285 -0.017812787 0.14209254
000060 c4 0f 71 3d 62 b5 84 3c 31 7f 1e 3e b8 fa 06 3e
       0.058852926 0.016199771 0.15478207 0.13181579
000070 4d 9f f9 3d 16 2e 94 3d 88 8b 51 3d 0e 6e bb 3d
       0.12188587 0.07235353 0.051158458 0.09151851
000080 a7 41 3f 3d 2b a9 48 3c 12 06 dd 3c f3 e2 00 bd
       0.04669347 0.012247364 0.026980434 -0.031466436
000090 c3 3c ff 3d fd 41 93 bd 2a e9 1d 3d cf d7 ff ba
       0.12462761 -0.07190321 0.03855244 -0.0019519272
0000a0 d4 0a 92 3c 00 7c 1a 3d 71 b7 c8 bc 2f 16 90 3d
       0.017827429 0.037715912 -0.024501534 0.07035481
0000b0 cb f8 7f 3d 7c 26 94 bd 39 3b 4c be 0e 04 38 be
       0.062493127 -0.07233903 -0.19944467 -0.17970297
0000c0 07 a8 5c be 08 95 03 be 95 e4 2a be ec 06 cf bd
       -0.21548472 -0.1284982 -0.1668876 -0.10108742
0000d0 83 3e a4 bd fd 5a 25 bd 5b a4 95 bc 16 c6 90 3c
       -0.08019736 -0.040369976 -0.018266847 0.01767258
0000e0 cc b3 ba 3c 4c 58 14 bc eb 3b 27 3d 2e 45 4b bd
       0.022790812 -0.009054255 0.040828627 -0.04962652
0000f0 d7 2e a9 bc de 89 a9 bc f4 f4 62 bd b7 ee d5 3d
       -0.020652218 -0.020695623 -0.055409387 0.10445922
000100 6d ba 09 3d d8 40 05 be 6b dc 4c 3c 42 a7 e1 3c
       0.033625055 -0.13013017 0.012503724 0.027545575
000110 0d 93 d6 bd bf e0 4d 3e f2 30 65 3e a6 17 da 3d
       -0.104772665 0.20105265 0.22381952 0.10649042
000120 a4 f9 ef 3d 47 18 b4 bb 02 cf a4 3c 10 6d 2e 3d
       0.11717537 -0.005496058 0.02011824 0.04258448
000130 a2 2f 2a 3b 3c 58 79 bc 14 d6 93 ba c9 7c 53 bc
       0.0025968333 -0.015218791 -0.001127901 -0.012908169
000140 26 22 02 bd 97 19 ba 3c 47 6b c8 3d e3 4f ad bb
       -0.031770848 0.02271728 0.097860865 -0.0052890643
000150 13 5f 6d bd 6b 3a 43 bc 84 4f 92 3c c2 93 b9 3c
       -0.057951998 -0.011915783 0.017860182 0.022653464
000160 cb d5 8b 3c 5a 9d 41 3d 8f 49 7b 3d 24 57 35 bd
       0.017069718 0.047269203 0.061349448 -0.044272557
000170 a1 e1 9c bc 2b 3a 82 bd f1 f4 68 be 67 1d 9b 3d
       -0.019150557 -0.06358751 -0.22749688 0.075739674
000180 34 ef fe 3c 76 43 47 3e 50 6c e8 3d 05 14 cb 3d
       0.03111992 0.19459328 0.11348784 0.09915928
000190 51 64 00 3e c0 9f 27 3e 9e 43 da 3b 89 3b 54 3d
       0.12538268 0.16369534 0.0066608926 0.05181459
0001a0 9a 49 58 3d eb 91 c2 3d 71 1b 26 bc e8 94 a3 bd
       0.052804567 0.09500488 -0.0101383785 -0.07987386
0001b0 a0 7d 34 3d f3 81 b2 bd fc de ba bd a4 4b 2a 3d
       0.044065118 -0.08716192 -0.09124562 0.041576043
0001c0 d3 fd 80 3b 41 18 69 bd 93 ce 47 3c 8b 3e 73 bd
       0.003936508 -0.056907896 0.012195247 -0.059385817
0001d0 eb b8 a3 3d 4d 21 25 bc 67 33 ba bc 46 ab 85 bc
       0.07994255 -0.01007874 -0.022729589 -0.016317021
0001e0 b0 91 e8 bc e4 c4 8e bc 05 89 a7 3b 60 9c a6 3d
       -0.028389782 -0.01742787 0.0051127695 0.08135295
0001f0 3d 47 2e 3d 24 bb e0 3d 98 88 b4 3c 3e 75 31 bd
       0.042548407 0.10973194 0.02203779 -0.0433247
000200 9a 20 9b bd ee 96 c8 3d eb b3 b8 bc a1 b8 39 bd
       -0.07574578 0.097944126 -0.02254673 -0.04534209
000210 e7 20 4e be 77 dd 39 be 12 ff 1f bd 75 5e 23 be
       -0.20129739 -0.18150888 -0.039061613 -0.15954001
000220 e7 6d 10 be 33 19 b1 bd f7 68 9c 3d 25 ef b6 3d
       -0.14104424 -0.086473845 0.07637208 0.08932332
000230 66 92 f9 3d d3 47 76 3e 27 ee 89 3e 46 b1 71 3d
       0.121861264 0.24050836 0.26939508 0.05900695
000240 26 d5 d7 bc c9 d5 8a 3c 13 3c 81 3d 02 15 6b 3d
       -0.026346754 0.016947644 0.063102864 0.05739308
000250 12 5d 29 3c ee b4 c5 3d cc f4 0b 3d 30 17 49 3d
       0.010337131 0.0965365 0.034169003 0.04909438
000260 84 ba fd 3c 04 89 ac bc f3 59 9f bd 9e 76 42 bd
       0.030972727 -0.021061428 -0.07780828 -0.047476403
000270 1b 2d 07 3c 72 f1 fc bc 1e 1d a9 bb cb 2f 21 bd
       0.0082505 -0.030876849 -0.0051609417 -0.03935222
000280 d5 ca 41 bd 28 04 7e 3e 3f a1 3b 3e 8b ce be 3d
       -0.047312576 0.24806273 0.18323229 0.09316739
000290 8c 2b 45 3e 00 f3 f6 3d bb da 9b 3c 01 19 04 bd
       0.19254893 0.12058067 0.019025197 -0.032250408
0002a0 46 9a a9 bc 83 4a 40 3b 1e 94 1c b9 27 41 80 bd
       -0.020703446 0.0029341287 -0.00014932497 -0.06262427
0002b0 d3 13 f7 bc a6 fd 59 3c ae 98 be 3d b7 ca 4f bd
       -0.03016082 0.013305103 0.09306465 -0.050730433
0002c0 8e c8 a8 bd c8 a5 86 bd 05 fa 65 b8 0e cf 87 bb
       -0.08241378 -0.06574589 -5.4830703e-05 -0.004144556
0002d0 04 1a 84 3b 53 53 bd bc 62 39 a6 bc 20 2e e5 bb
       0.0040314216 -0.023111021 -0.020291034 -0.006994024
0002e0 3d 31 a5 3c 0f af a2 bd f4 64 ec bd d9 c3 9b bd
       0.02016508 -0.07943546 -0.11542693 -0.07605714
0002f0 d5 f9 03 be db 8e cd 3d ee 4c 8b 3c 15 a7 20 be
       -0.12888272 0.10037013 0.017004456 -0.15688737
000300 2b 7d 80 3e ca c0 3b 3d 35 27 13 3e f3 bc 9d bd
       0.25095496 0.045838155 0.14370425 -0.07702055
000310 01 a6 b8 bd b6 12 95 3c 15 cc b9 ba d6 5f 0e bc
       -0.09016038 0.018197399 -0.0014175201 -0.008689841
000320 a0 dd 40 3d c7 10 b2 bc ba 4e c3 3b d5 c2 b5 bc
       0.047086358 -0.021736516 0.0059603127 -0.02218763
000330 70 9b 94 bc 1a 8b 79 bd f0 92 49 bd 75 bb 0e 3e
       -0.018140525 -0.060923673 -0.049212396 0.13938697
000340 e8 c7 eb 3d 0c c5 56 3d 3f 62 ef 3d 2f 5e 91 3d
       0.115127385 0.052434012 0.11688661 0.07098042
000350 a8 70 80 3d 5d 2d 9a 3d 01 c9 cf 3c 12 0a b6 3d
       0.062714875 0.075281836 0.0253644 0.088886395
000360 ff 0d 4c bc 2c fb 4f 3d 67 30 00 3d 84 2a f2 3d
       -0.012454509 0.050776646 0.03129616 0.118245155
000370 c6 a2 69 be 5c d3 dd bc 59 39 a0 bc a3 44 8f bb
       -0.22816 -0.027078323 -0.019558595 -0.004372196
000380 3a 6e b4 3c f5 ed 75 bc b7 f9 be bb f7 21 e6 3c
       0.022025216 -0.015010347 -0.005828108 0.028092368
000390 f5 61 5b bc a2 5f 89 bd 62 d3 42 3e 51 55 58 3e
       -0.013390054 -0.06707694 0.19025949 0.21126296
0003a0 8b f7 95 3d d4 6c b4 3d a6 d2 87 3d 13 ba e7 bc
       0.07322606 0.0880982 0.06631975 -0.02828697
0003b0 72 47 30 3d f0 1f 92 3d 85 1a 03 3d 41 4e d0 3d
       0.043036886 0.07134998 0.032007713 0.10171176
0003c0 10 b2 0a 3d 4c 4b b9 bb 57 b8 70 3c 0d 3b ac bc
       0.03386122 -0.005654728 0.014692388 -0.021024251
0003d0 a2 d7 9b 3d 01 7d 03 bc dc 5e 1d bb a6 c0 99 ba
       0.07609488 -0.008025409 -0.002401284 -0.0011730387
0003e0 23 25 9c bb 63 ca ed bc 6b 6c 04 bd da ab e4 bb
       -0.004765169 -0.02902717 -0.032329958 -0.006978494
0003f0 6c 6d ac bc 8a d4 05 3d d5 37 2c be be d3 f0 bd
       -0.02104827 0.032673396 -0.16818173 -0.117591366

fc.bias f4 [2]
000000 3f d8 13 3d 2a 2b c2 bc
       0.0360949 -0.023702223
