Lab2/egg_net_best_elu.pth (torch_old, 75016 bytes, 17 tensors)

layer1.0.weight f4 [16, 1, 1, 51]
0.12642635 -0.0051311776 0.0059409216 -0.047618553 0.08479816 0.10822723 0.1200152 0.11866441
0.021537893 0.11344561 -0.051840264 -0.02531526 0.031010887 -0.11603658 -0.14375801 0.034455486
-0.13283789 0.05628612 -0.0051383786 0.12032245 0.053862073 0.10513047 -0.0027797911 0.1890124
-0.023986949 -0.12826793 0.04728611 -0.07535223 -0.1336221 -0.04353276 -0.11923455 -0.12826245
0.07215491 0.060664557 -0.05242722 0.052953452 0.102870435 -0.01911328 -0.037109174 0.060647685
0.06794935 -0.06267304 -0.05579898 -0.13291068 -0.10263088 0.14975573 0.14481461 0.10083123
0.1986377 0.046119228 0.2959091 0.22693531 0.29504642 0.18185362 0.02069473 0.10851189
-0.07881437 -0.10876476 0.10437515 0.010402822 0.12462938 0.00347626 0.08206978 0.06021288
0.052565113 -0.040886562 0.035787057 0.05121441 -0.04248203 -0.020531436 -0.08038048 0.014957993
-0.042734914 0.0030618464 0.16397646 0.15168953 0.07605874 0.05912687 0.076196134 -0.08846152
-0.110117756 0.05830325 -0.016346782 -0.023526266 0.023296244 -0.051709853 -0.013145217 -5.2881795e-05
0.06896828 0.007013923 0.113615915 -0.02130585 -0.061881423 -0.15853496 -0.003813225 -0.12108032
0.038463064 0.06475135 0.089588255 0.081626676 -0.01996296 0.1905026 0.03681795 0.026713645
-0.1436368 0.013633678 -0.12325401 -0.13488412 0.039163265 -0.060777865 0.040616352 0.13111143
0.032367125 0.24253017 0.022300715 0.19965391 0.083173186 -0.013809852 0.10785209 -0.083010145
-0.13277088 -0.10072405 -0.13072735 -0.12963177 -0.19731037 -0.097658895 -0.040229253 -0.108955055
-0.02675307 0.13827927 0.16053122 -0.0040686056 0.11334971 0.12829153 0.004929371 -0.027942045
0.030895695 0.05802199 -0.053748943 0.02292118 -0.08207363 0.045615353 -0.039207805 0.06576236
-0.074669525 0.1762784 0.059104428 0.011438724 0.11195345 0.04316928 0.10300105 -0.031934716
-0.08059981 0.04405994 0.08397591 0.039283082 0.00743102 -0.058741137 -0.029891852 0.10824392
0.06322569 -0.013682828 -0.054373376 -0.031664293 -0.070190385 0.17690916 0.07720194 -0.015642535
-0.1411349 -0.018855218 0.08930444 0.10903151 0.14603914 -0.09770898 -0.1107988 -0.06645997
0.1363554 0.17806746 0.07781825 -0.063615866 -0.09150365 -0.13484076 0.13756365 0.18721533
0.030465884 -0.07405942 -0.037065912 -0.19267821 0.11067367 0.17412688 0.13448863 -0.085043944
-0.07061948 -0.14511015 0.030355506 0.13755737 0.04064242 0.040282827 -0.11195148 -0.04058482
-0.055546787 0.15033475 0.08379336 -0.056237657 0.080660574 0.16073647 0.09880908 -0.17893897
0.055816993 -0.14367749 0.060811937 -0.098251104 -0.08062641 -0.09573923 0.007823893 0.10900927
0.0019907316 -0.092505276 0.10602684 -0.13812882 0.047498174 0.12559992 0.10851657 -0.034831483
-0.055430833 0.037881985 0.087869994 0.14482899 -0.010039118 -0.13966817 -0.13132055 -0.01680041
0.20695184 0.033024922 -0.10899069 -0.09320292 -0.09165058 -0.04698253 0.16102 -0.027916463
-0.060124323 -0.15614878 0.0028097394 0.17309085 0.17630044 0.08106586 0.08530984 -0.08337246
-0.036000844 0.108198196 0.05698768 -0.103985965 -0.16968152 -0.073411755 0.12012478 0.24024096
00000000: e975 013e 7023 a8bb 10ac c23b ac0b 43bd
00000010: a8aa ad3d 3da6 dd3d 87ca f53d 5406 f33d
00000020: 3c70 b03c 2c56 e83d 7556 54bd f361 cfbc
00000030: 8b0a fe3c 96a4 edbd 4d35 13be 3221 0d3d
00000040: a806 08be 468c 663d d85f a8bb 9e6b f63d
00000050: 7a9e 5c3d a54e d73d 282d 36bb 778c 413e
00000060: 4780 c4bc ab58 03be 15af 413d 4552 9abd
00000070: 3bd4 08be 684f 32bd 3e31 f4bd 3b57 03be
00000080: f4c5 933d 667b 783d edbd 56bd b8e5 583d
00000090: bcad d23d 7493 9cbc caff 17bd b569 783d
000000a0: 0729 8b3d b95a 80bd 798d 64bd bd19 08be
000000b0: 2430 d2bd 9159 193e 484a 143e 9b80 ce3d
000000c0: ae67 4b3e 84e7 3c3d 6681 973e bb61 683e
000000d0: 5310 973e d637 3a3e ff87 a93c 7b3b de3d
000000e0: 6e69 a1bd 0fc0 debd a3c2 d53d 9970 2a3c
000000f0: b03d ff3d f7d1 633b 3314 a83d c8a1 763d
00000100: 844e 573d ab78 27bd 7395 123d 34c6 513d
00000110: a301 2ebd 8b31 a8bc 859e a4bd 5f12 753c
00000120: ce0a 2fbd 42a9 483b 72e9 273e 8054 1b3e
00000130: afc4 9b3d 042f 723d b80c 9c3d 502b b5bd
00000140: 6b85 e1bd 64cf 6e3d b0e9 85bc 28ba c0bc
00000150: c4d7 be3c b6cd 53bd 095f 57bc 65cd 5db8
00000160: 3e3f 8d3d 0dd5 e53b 76af e83d 9b89 aebc
00000170: 6077 7dbd fd56 22be 4de7 79bb f5f8 f7bd
00000180: 728b 1d3d 5b9c 843d 0c7a b73d e32b a73d
00000190: 5d89 a3bc 1d13 433e 6bce 163d 93d6 da3c
000001a0: 8615 13be ca5f 5f3c 996c fcbd 101f 0abe
000001b0: a969 203d 36f2 78bd 555d 263d 1342 063e
000001c0: 6493 043d d459 783e fdaf b63c 1372 4c3e
000001d0: b456 aa3d b842 62bc 8ee1 dc3d 3901 aabd
000001e0: 17f5 07be 6948 cebd 64dd 05be 31be 04be
000001f0: bb0b 4abe 6301 c8bd 6ec7 24bd d423 dfbd
00000200: 4129 dbbc 1599 0d3e 4c62 243e f051 85bb
00000210: e523 e83d db5e 033e 9086 a13b b7e6 e4bc
00000220: f818 fd3c 77a8 6d3d da27 5cbd 33c5 bb3c
00000230: 3816 a8bd 2ad7 3a3d 5d98 20bd 6bae 863d
00000240: 56ec 98bd 5382 343e 7c17 723d 7c69 3b3c
00000250: da47 e53d 45d2 303d 37f2 d23d facd 02bd
00000260: 8311 a5bd 3278 343d 90fb ab3d 4ce7 203d
00000270: ea7f f33b 8c9a 70bd c2df f4bc fdae dd3d
00000280: 787c 813d f12d 60bc 9eb6 5ebd 6bb2 01bd
00000290: fabf 8fbd ad27 353e 0d1c 9e3d c624 80bc
000002a0: ab85 10be 4276 9abc 3fe5 b63d ea4b df3d
000002b0: 498b 153e a51b c8bd 7bea e2bd 2a1c 88bd
000002c0: c0a0 0b3e 5157 363e 2d5f 9f3d 0949 82bd
000002d0: 4466 bbbd b213 0abe 7cdd 0c3e 60b5 3f3e
000002e0: 9793 f93c 77ac 97bd 6dd2 17bd 704d 45be
000002f0: e1a8 e23d 514e 323e 63b7 093e 852b aebd
00000300: f2a0 90bd c197 14be 1cac f83c d7db 0c3e
00000310: ab78 263d 9bff 243d d146 e5bd 453c 26bd
00000320: 0785 63bd 5af1 193e da9b ab3d 7559 66bd
00000330: 5f31 a53d 1a98 243e 6a5c ca3d c73b 37be
00000340: 5ca0 643d 3120 13be f015 793d e037 c9bd
00000350: 761f a5bd ee12 c4bd c92f 003c 4140 df3d
00000360: ef76 023b 6873 bdbd 9a24 d93d a471 0dbe
00000370: 728d 423d 449d 003e ef3d de3d 75ab 0ebd
00000380: 710b 63bd 242a 1b3d 2ff5 b33d 0d4e 143e
00000390: 1d7b 24bc 2c05 0fbe e578 06be 03a1 89bc
000003a0: 2feb 533e 2445 073d 8336 dfbd 2ce1 bebd
000003b0: 4db3 bbbd c170 40bd 6de2 243e 11b1 e4bc
000003c0: ec44 76bd 77e5 1fbe 9b23 383b ba3e 313e
000003d0: 1a88 343e dc05 a63d edb6 ae3d 2ebf aabd
000003e0: 9f75 13bd 0497 dd3d ea6b 693d 98f6 d4bd
000003f0: fec0 2dbe e758 96bd fb03 f63d ba01 763e

layer1.1.weight f4 [16]
0.5738253 0.67738 0.6519792 0.9223899 0.3894672 0.59653884 0.4464438 0.58222055
0.51013744 0.6469693 0.66112906 0.43116987 0.93425107 0.6542835 0.6103527 0.5366963
00000000: 37e6 123f c768 2d3f 1ce8 263f bf21 6c3f
00000010: 3f68 c73e c5b6 183f 4894 e43e 680c 153f
00000020: 5e98 023f c89f 253f c13f 293f 4cc2 dc3e
00000030: 142b 6f3f 207f 273f 1340 1c3f ee64 093f

layer1.1.bias f4 [16]
0.00033236132 -0.00069729396 -0.00031947 0.0009624975 -0.0050998316 -0.0010285632 -0.0007297714 -0.000507219
-0.0026055644 -0.0029224565 -0.0021719804 -0.00045751082 0.010884576 0.0013316266 -0.0015098442 -0.00019411217
00000000: c840 ae39 9bca 36ba 8a7e a7b9 1d50 7c3a
00000010: 7d1c a7bb dbd0 86ba 214e 3fba e4f6 04ba
00000020: 1ec2 2abb af86 3fbb c957 0ebb 10de efb9
00000030: 3855 323c f989 ae3a f7e5 c5ba 978a 4bb9

layer1.1.running_mean f4 [16]
-0.063592 -0.0585978 -0.026000688 -0.023568992 -0.005240536 0.0004547893 -0.03426592 0.003363432
-0.0024176498 -0.11197969 0.021234332 -0.0015338622 -0.0034415643 2.8898192e-05 0.009132858 0.014754629
00000000: 863c 82bd 3f04 70bd 65ff d4bc c213 c1bc
00000010: cdb8 abbb c970 ee39 6c5a 0cbd 066d 5c3b
00000020: 6f71 1ebb 9c55 e5bd 9ff3 ad3c e00b c9ba
00000030: de8b 61bb 656a f237 fca1 153c 66bd 713c

layer1.1.running_var f4 [16]
34.63319 43.85292 25.637674 9.104914 9.783937 14.882295 16.324463 7.9949174
17.220785 122.031334 18.248941 21.957521 13.708633 3.120899 21.220348 11.156383
00000000: 6388 0a42 6469 2f42 f519 cd41 baad 1141
00000010: 028b 1c41 e11d 6e41 8098 8241 5dd6 ff40
00000020: 2bc4 8941 0b10 f442 d5fd 9141 01a9 af41
00000030: 9056 5b41 cfbc 4740 46c3 a941 8b80 3241

layer2.0.weight f4 [32, 1, 2, 1]
-0.5018678 0.28851742 -0.27683127 -0.7391748 0.3158043 0.30168533 -0.5365698 0.7161841
-0.35588193 0.21906415 0.3081561 -0.4060931 -0.42148623 0.5686309 -0.2651203 0.3726393
0.041784674 0.6404785 0.2587448 0.6877858 0.053787526 0.84394836 0.44043624 -0.4100135
0.01255321 -0.43734074 0.54458106 -0.1461631 -0.16155922 0.5314431 -0.5997297 0.08912003
-0.30682647 0.11960126 0.42237142 -0.6225277 0.2793156 -0.38028166 -0.30844817 0.12227048
-0.19878727 0.2237577 -0.4301168 0.14196217 -0.2409268 0.47991312 0.6100796 0.25299585
-0.49410155 0.16146164 -0.07594196 0.27220488 0.1004705 -0.5650946 -0.052131638 0.3293939
-0.15832093 -0.08703716 0.11182741 0.32886112 0.0037155948 -0.7995894 0.07868453 -0.43811026
00000000: 687a 00bf 8eb8 933e d4bc 8dbe 8f3a 3dbf
00000010: 1ab1 a13e 8076 9a3e a35c 09bf d757 373f
00000020: 2836 b6be 5a52 603e a3c6 9d3e 6feb cfbe
00000030: 0bcd d7be cb91 113f d9bd 87be 94ca be3e
00000040: 6826 2b3d 66f6 233f 337a 843e bb12 303f
00000050: 4f50 5c3d 000d 583f dc80 e13e 4aed d1be
00000060: fbab 4d3c 20eb dfbe aa69 0b3f c8ab 15be
00000070: c86f 25be a80c 083f e387 19bf 9084 b63d
00000080: 5c18 9dbe 81f1 f43d 1141 d83e fa5d 1fbf
00000090: 7402 8f3e 47b4 c2be ebec 9dbe f268 fa3d
000000a0: e48e 4bbe bd20 653e 4538 dcbe 885e 113e
000000b0: 84b5 76be 2cb7 f53e 2d2e 1c3f ac88 813e
000000c0: e1fa fcbe 3356 253e 7587 9bbd 705e 8b3e
000000d0: 7ac3 cd3d 0aaa 10bf fc87 55bd 51a6 a83e
000000e0: e21e 22be 8a40 b2bd c505 e53d 7c60 a83e
000000f0: 5681 733b e4b1 4cbf 5b25 a13d fd4f e0be

layer2.1.weight f4 [32]
1.1419616 0.9413555 1.0124965 1.1105751 1.1436273 1.1687104 1.1584855 1.194565
1.2141985 1.1640537 1.0888911 1.3954563 0.98862535 1.0068146 1.354445 1.323269
1.0552658 1.0004045 0.8958332 0.8087631 1.1802213 0.9772514 1.1872476 1.1698347
1.5894421 1.20596 1.447634 1.3543595 1.1396952 1.1914583 1.1138654 1.1541129
00000000: cc2b 923f adfc 703f 7c99 813f 5327 8e3f
00000010: 6162 923f 4d98 953f 4149 943f 82e7 983f
00000020: db6a 9b3f b6ff 943f c960 8b3f 509e b23f
00000030: 8d16 7d3f 4ddf 803f 745e ad3f e160 a93f
00000040: f312 873f 410d 803f 5355 653f 190b 4f3f
00000050: 7e11 973f 262d 7a3f bbf7 973f 25bd 953f
00000060: d772 cb3f e65c 9a3f 124c b93f a75b ad3f
00000070: 88e1 913f b581 983f 2493 8e3f f9b9 933f

layer2.1.bias f4 [32]
-0.32088503 -0.24655545 -0.3790776 -0.15981627 -0.33562025 -0.22533515 -0.3015021 -0.3289303
-0.37001532 -0.3244285 -0.19346926 -0.22510432 -0.2780294 -0.3366074 -0.45892665 -0.3566846
-0.29933256 -0.22952574 0.021830937 -0.37636697 -0.27328506 -0.2954918 -0.08960716 -0.14554417
-0.5421498 -0.21462157 -0.39469564 -0.36018667 -0.1761941 -0.21256752 -0.25674716 -0.31575236
00000000: 0b4b a4be 0879 7cbe 7616 c2be e0a6 23be
00000010: 6bd6 abbe 42be 66be 7c5e 9abe 8d69 a8be
00000020: a672 bdbe 7e1b a6be ce1c 46be bf81 66be
00000030: df59 8ebe ce57 acbe 6ff8 eabe 5d9f b6be
00000040: 1e42 99be cc08 6bbe cbd6 b23c 2cb3 c0be
00000050: 05ec 8bbe b44a 97be f583 b7bd 8809 15be
00000060: 54ca 0abf c2c5 5bbe 8c15 cabe 636a b8be
00000070: 3a6c 34be 4dab 59be 5d74 83be 4baa a1be

layer2.1.running_mean f4 [32]
-0.0015493014 8.1712e-05 -0.0005567749 -0.003627479 -0.00026509108 0.0004864401 -0.003255695 -0.002102518
-0.003507876 -0.0047797253 -0.0005452959 0.00015345585 0.0008479686 0.00071753626 -0.00024566034 0.00037226174
0.00021502285 0.00013113904 0.0026345323 -0.0010947132 0.00012869184 0.0008315063 -0.0005492091 -0.0020061582
-0.0040449416 0.0021693648 -0.00026720966 0.00016045143 0.00028937016 -0.00039679557 -0.00074467127 -0.0004069697
00000000: ee11 cbba cc5c ab38 88f4 11ba 00bb 6dbb
00000010: ecfb 8ab9 e308 ff39 805d 55bb 66ca 09bb
00000020: 65e4 65bb 3e9f 9cbb 30f2 0eba fee8 2039
00000030: 364a 5e3a 0b19 3c3a f9cb 80b9 202c c339
00000040: c277 6139 5e82 0939 1ea8 2c3b 7b7c 8fba
00000050: 74f1 0639 71f9 593a ccf8 0fba c079 03bb
00000060: 6e8b 84bb e72b 0e3b 4618 8cb9 da3e 2839
00000070: 9bb6 9739 0009 d0b9 0b36 43ba 8c5e d5b9

layer2.1.running_var f4 [32]
0.042741794 0.30282766 0.14714517 0.1367004 0.026347153 0.034621503 0.23051088 0.09740776
0.067736596 0.11389313 0.2720249 0.038724612 0.03906554 0.041374907 0.07631546 0.104849346
0.014517526 0.05128366 0.035435606 0.021882718 0.010840257 0.051362645 0.025653174 0.11795249
0.12703201 0.053033542 0.124834545 0.04259891 0.019294709 0.065233745 0.1989131 0.04999195
00000000: 0512 2f3d 3a0c 9b3e 39ad 163e 31fb 0b3e
00000010: fcd5 d73c 47cf 0d3d 0b0b 6c3e b87d c73d
00000020: 7cb9 8a3d cd40 e93d d946 8b3e b39d 1e3d
00000030: 3003 203d bc78 293d 484b 9c3d 41bb d63d
00000040: ebda 6d3c d10e 523d ed24 113d 6343 b33c
00000050: 559b 313c a361 523d 9b26 d23c 1391 f13d
00000060: ae14 023e b339 593d 41a9 ff3d 327c 2e3d
00000070: f00f 9e3c 4599 853d e0af 4b3e 5cc4 4c3d

layer3.0.weight f4 [32, 32, 1, 15]
-0.06089375 0.014278929 0.050128747 -0.068500735 0.04592039 0.009493163 -0.014454312 -0.027112111
0.048606645 -0.059349235 -0.048416536 0.043181535 -0.05569067 -0.11628889 -0.006691898 -0.030284533
0.08334496 0.08121019 -0.012071086 0.010920247 0.061354388 -0.06488239 -0.009578142 0.09194542
-0.036698367 -0.022808684 0.056853596 0.07310343 0.04501237 0.1174219 0.05509383 -0.0033071535
0.00925881 0.1348835 0.04334291 0.09446808 0.00885623 -0.061274778 -0.07880631 0.024672098
-0.049592875 -0.09322307 0.017702684 -0.009296084 -0.07862809 -0.11053882 -0.025919026 -0.03647794
-0.11261973 0.00081587804 -0.031004064 -0.10829707 -0.0006976966 -0.04126418 -0.08439945 0.012992735
0.019003978 -0.06570051 -0.018605085 -0.0076609896 -0.024923531 -0.106983766 -0.061307482 0.008644484
0.029148618 -0.006282241 0.042051602 0.010724085 -0.022392474 -0.06047425 -0.004442415 -0.09983187
-0.10980883 -0.07272347 -0.09902073 0.037995256 0.03055605 -0.047357816 0.010872917 -0.004252565
-0.07689618 -0.03314827 0.029659143 0.014764531 -0.015784185 0.015113155 0.027609445 0.09130512
0.073547065 -0.010337815 0.016188787 0.024195377 0.009256402 -0.005288864 -0.019688543 -0.02118276
-0.020532385 0.00023909305 0.035303775 -0.016005302 0.04406229 0.049851038 -0.037780933 0.01562757
0.004108195 0.080078185 0.003955864 0.034373093 -0.047143754 0.005528354 -0.02029323 -0.02863838
0.032702435 0.0307664 0.02045854 0.023988133 -0.028911756 -0.0060358006 0.023810847 -0.047202796
0.0018000454 0.02236894 0.09098037 0.014783883 0.039378002 0.012637669 -0.012727232 0.01627032
0.04195988 -0.065314844 -0.079303786 0.0067089777 0.108215444 0.04704706 -0.046328194 -0.034791436
0.009208092 0.020125577 -0.08528456 -0.037281305 0.014935573 -0.054855764 -0.03185948 0.059340686
-0.10688634 -0.039849084 0.05246128 0.08924241 0.025405698 0.012187659 -0.110745214 -0.014777849
-0.0042888536 -0.07403924 -0.03108484 -0.0001667512 0.0044585764 0.037729945 0.0805658 -0.052954763
-0.015523307 -0.024634916 0.12184306 0.045055144 -0.017535528 -0.034720294 -0.017265452 0.05318093
-0.07240566 8.028555e-05 0.034444902 -0.12359539 -0.14329341 0.037720107 -0.038694933 -0.05703422
0.12391397 0.012042214 -0.20263126 0.023191197 -0.003421594 0.013398768 0.0008620563 0.00802182
0.013397807 0.017656693 -0.00069869333 -0.07980313 0.006819003 0.029722136 -0.038729683 -0.10104092
-0.02458136 0.0059552984 0.00058604364 -0.007551154 -0.014559708 -0.006902993 -0.04800519 -0.04062902
0.03565381 -0.018070646 -0.06475497 0.024823764 0.017668163 0.0011541928 0.034998022 0.0009928948
0.012136466 -0.079266146 0.16397698 0.22951268 0.09811093 0.07470855 0.10849701 -0.0037400213
0.039358485 -0.031882785 0.0008473678 -0.08847517 -0.009024706 0.011998781 0.003707601 -0.08497884
-0.08008945 -0.17231095 -0.1415154 -0.05295186 0.012517023 -0.10650474 -0.08591599 -0.007118457
0.057898246 -0.010354534 -0.033846583 -0.0029475978 0.0029107558 -0.13735434 -0.024900446 -0.075803146
0.028464649 -0.02754256 -0.060068082 -0.040354397 -0.014367534 -0.045983747 -0.039727725 -0.023180166
-0.04348978 0.028978681 0.0064347065 -0.016855681 -0.0025924905 0.022483699 0.04438779 0.049270935
00000000: ba6b 79bd 2bf2 693c cd53 4d3d 1d4a 8cbd
00000010: 0517 3c3d 3689 1b3c c7d1 6cbc 381a debc
00000020: c317 473d 2f18 73bd 6b50 46bd 1fdf 303d
00000030: e61b 64bd df28 eebd b647 dbbb 4517 f8bc
00000040: c3b0 aa3d 8751 a63d cec5 45bc d6ea 323c
00000050: bd4e 7b3d 0fe1 84bd a4ed 1cbc e14d bc3d
00000060: 0751 16bd 47d9 babc 51df 683d 40b7 953d
00000070: e45e 383d e57a f03d 11aa 613d d4bc 58bb
00000080: 44b2 173c e61e 0a3e 5688 313d 7b78 c13d
00000090: b919 113c 43fb 7abd 3465 a1bd 241d ca3c
000000a0: e621 4bbd bdeb bebd 3805 913c 9a4e 18bc
000000b0: c407 a1bd 2d62 e2bd 2354 d4bc e469 15bd
000000c0: 2ca5 e6bd a6e0 553a 3cfc fdbc dbca ddbd
000000d0: a0e5 36ba a104 29bd 9ed9 acbd 7bdf 543c
000000e0: 3bae 9b3c fd8d 86bd b169 98bc 0a09 fbbb
000000f0: 6f2c ccbc 4e1a dbbd 8e1d 7bbd 98a1 0d3c
00000100: 15c9 ee3c 42db cdbb 4d3e 2c3d 13b4 2f3c
00000110: 6c70 b7bc d9b3 77bd ae91 91bb a774 ccbd
00000120: 74e3 e0bd 0bf0 94bd 61cb cabd eaa0 1b3d
00000130: ae50 fa3c 45fa 41bd 5224 323c 1a59 8bbb
00000140: bf7b 9dbd 7bc6 07bd bbf7 f23c eee6 713c
00000150: d64d 81bc 2b9d 773c 342d e23c 2efe ba3d
00000160: d89f 963d f05f 29bc 599e 843c 6235 c63c
00000170: 2aa8 173c 354e adbb de49 a1bc 7887 adbc
00000180: 8833 a8bc 0db5 7a39 b19a 103d 8d1d 83bc
00000190: a97a 343d 9a30 4c3d 2ec0 1abd 6405 803c
000001a0: 0a9e 863b 0800 a43d 31a0 813b cdca 0c3d
000001b0: cf19 41bd 3227 b53b fd3d a6bc 099b eabc
000001c0: fdf2 053d d109 fc3c ab98 a73c c382 c43c
000001d0: 59d8 ecbc f7c7 c5bb f70e c33c b857 41bd
000001e0: 80ef eb3a 113f b73c eb53 ba3d 1938 723c
000001f0: d44a 213d 3a0e 4f3c e185 50bc 5649 853c
00000200: 20de 2b3d cac3 85bd 066a a2bd fcd6 db3b
00000210: 0fa0 dd3d 6bb4 403d a2c2 3dbd 7781 0ebd
00000220: 89dd 163c 65de a43c aca9 aebd 48b4 18bd
00000230: 55b4 743c 70b0 60bd 167f 02bd 380f 733d
00000240: 3ae7 dabd cb38 23bd a4e1 563d bac4 b63d
00000250: 9c1f d03c bfae 473c 63ce e2bd cb1e 72bc
00000260: 8389 8cbb e3a1 97bd a2a5 febc efd9 2eb9
00000270: 4019 923b b78a 1a3d afff a43d 18e7 58bd
00000280: 7855 7ebc 2acf c9bc db88 f93d be8b 383d
00000290: aba6 8fbc de36 0ebd 4770 8dbc 3fd4 593d
000002a0: 6b49 94bd fa5e a838 1916 0d3d 941f fdbd
000002b0: 82bb 12be 6680 1a3d 947e 1ebd b79c 69bd
000002c0: 9cc6 fd3d b54c 453c 927e 4fbe 77fb bd3c
000002d0: d23c 60bb 8286 5b3c 9efb 613a f46d 033c
000002e0: 7a82 5b3c c5a4 903c 8428 37ba d36f a3bd
000002f0: f171 df3b d67b f33c 04a3 1ebd 8bee cebd
00000300: d95e c9bc aa24 c33b b9a0 193a ac6f f7bb
00000310: d78b 6ebc 8132 e2bb 17a1 44bd 9e6a 26bd
00000320: bb09 123d e408 94bc 419e 84bd 355b cb3c
00000330: d3bc 903c 4948 973a 165a 0f3d 0524 823a
00000340: 07d8 463c 4a56 a2bd 95e9 273e 5f05 6b3e
00000350: 62ee c83d cc00 993d ae33 de3d 251b 75bb
00000360: 5d36 213d 8697 02bd e421 5e3a 7832 b5bd
00000370: 5cdc 13bc 8996 443c 39fb 723b 6309 aebd
00000380: f005 a4bd 4872 30be 6ae9 10be 0de4 58bd
00000390: 3314 4d3c 281f dabd b9f4 afbd f241 e9bb
000003a0: b626 6d3d 10a6 29bc b7a2 0abd 7c2c 41bb
000003b0: 61c2 3e3b 9ea6 0cbe 05fc cbbc ae3e 9bbd
000003c0: b22e e93c efa0 e1bc f309 76bd a74a 25bd
000003d0: ce65 6bbc 7459 3cbd 8ab9 22bd 55e4 bdbc
000003e0: 5722 32bd b364 ed3c 3bda d23b ed14 8abc
000003f0: c6e6 29bb bc2f b83c f9cf 353d 52d0 493d

layer3.1.weight f4 [32]
1.1036036 1.0310855 1.0210885 0.9601586 1.0688305 1.0121642 1.1178977 1.091671
1.057687 1.1134629 1.063644 1.0700157 1.0882169 0.98710316 1.1147158 1.0804422
1.040992 1.0608238 1.1138438 1.0482452 1.0517337 1.15634 1.1973511 1.163577
1.0946997 1.1584644 1.0662097 1.0125417 1.0254244 1.0709419 1.1207534 1.0404092
00000000: e242 8d3f 9cfa 833f 07b3 823f f4cc 753f
00000010: 70cf 883f 998e 813f 4617 8f3f e0bb 8b3f
00000020: 4a62 873f f485 8e3f 7d25 883f 46f6 883f
00000030: b14a 8b3f cbb2 7c3f 02af 8e3f ee4b 8a3f
00000040: 3a3f 853f 13c9 873f 6f92 8e3f e62c 863f
00000050: 369f 863f f302 943f cd42 993f 17f0 943f
00000060: 1f1f 8c3f 9048 943f 8f79 883f f79a 813f
00000070: 1b41 833f a014 893f d974 8f3f 212c 853f

layer3.1.bias f4 [32]
-0.21132156 -0.20735164 -0.25245458 -0.18763521 -0.2248496 -0.17807628 -0.17786714 -0.21923783
-0.19676176 -0.21734479 -0.17185332 -0.27008846 -0.18389589 -0.26063266 -0.16233875 -0.20600326
-0.19656661 -0.20857596 -0.14077784 -0.19189893 -0.2155041 -0.24034713 -0.10704518 -0.19500333
-0.24013714 -0.27587572 -0.17493287 -0.18081158 -0.19080013 -0.16726544 -0.13397747 -0.18753128
00000000: ae64 58be fd53 54be ba41 81be 7223 40be
00000010: f93e 66be a159 36be ce22 36be e27f 60be
00000020: ea7b 49be a28f 5ebe 51fa 2fbe 0949 8abe
00000030: 344f 3cbe a571 85be 213c 26be 85f2 52be
00000040: c248 49be f094 55be 1128 10be 2781 44be
00000050: 1bad 5cbe 8f1d 76be 813a dbbd f4ae 47be
00000060: 83e6 75be 953f 8dbe 9a21 33be ac26 39be
00000070: 1c61 43be a247 2bbe 6431 09be 3308 40be

layer3.1.running_mean f4 [32]
-0.17238645 0.09145676 0.1395309 0.2116045 0.09952175 -0.05656598 -0.026550239 0.027722776
-0.043673225 0.086470276 -0.16173021 0.015155208 -0.24334246 0.16587466 -0.0226862 -0.0393097
0.018638639 0.22473098 0.02722626 0.127052 0.026029525 0.07894793 -0.035570018 0.018150905
0.018462785 0.104300335 -0.022558467 0.015371876 -0.13390341 0.199149 -0.11701268 -0.1352213
00000000: 1386 30be af4d bb3d 30e1 0e3e daae 583e
00000010: 0fd2 cb3d bbb1 67bd e37f d9bc e01a e33c
00000020: b2e2 32bd 5417 b13d 9b9c 25be 8d4d 783c
00000030: c42e 79be 0cdb 293e 69d8 b9bc 3503 21bd
00000040: 0fb0 983c e11f 663e 9b09 df3c eb19 023e
00000050: df3b d53c 74af a13d deb1 11bd 35b1 943c
00000060: 443f 973c 6a9b d53d 89cc b8bc 52da 7b3c
00000070: fa1d 09be b7ed 4b3e 58a4 efbd 7477 0abe

layer3.1.running_var f4 [32]
3.1975303 2.3947554 2.2179623 2.318977 3.4160488 2.1669188 3.6260707 2.750672
4.099084 3.2652843 1.7691631 2.4986348 2.991446 2.7187269 3.2499151 3.011079
2.4374945 3.8734477 2.3405778 2.3344197 2.999526 2.952291 4.7354355 3.3387413
3.882742 4.198689 2.1505387 2.7597103 1.5633488 2.00622 2.4999359 2.7742596
00000000: 56a4 4c40 ac43 1940 18f3 0d40 1f6a 1440
00000010: 8ba0 5a40 ccae 0a40 8b11 6840 030b 3040
00000020: b22b 8340 6bfa 5040 f073 e23f a2e9 1f40
00000030: da73 3f40 9fff 2d40 9cfe 4f40 85b5 4040
00000040: e9ff 1b40 91e6 7740 07cc 1540 2267 1540
00000050: 3cf8 3f40 56f2 3c40 b088 9740 f0ad 5540
00000060: d87e 7840 a95b 8640 6da2 0940 189f 3040
00000070: d01b c83f e965 0040 f3fe 1f40 788d 3140

fc.weight f4 [2, 736]
0.1268055 -0.18508716 -0.095876925 -0.05893258 0.022767618 0.02230774 0.04511802 0.10078777
-0.00371767 0.09320822 0.042466424 0.07552423 0.073046625 0.12508132 0.0328066 -0.028537113
0.043212228 0.028392624 0.025556287 0.045334324 0.08204459 0.0032276185 -0.009047526 -0.07404169
-0.052592006 -0.06413409 -0.077083014 -0.065328985 -0.04577371 -0.0070711873 -0.04037664 -0.0058270763
0.02036845 0.0907087 0.035998534 0.07563942 0.015787767 0.008093052 0.04523337 0.019025262
0.04011112 -0.010860593 -0.027872054 -0.017572625 -0.0054832557 -0.05458626 0.107058235 0.11056172
0.053945843 -0.029363086 0.026295867 0.016445432 0.076044075 -0.035200063 -0.04102789 7.736393e-05
-0.0016740971 0.014425723 -0.0003778491 -0.07165249 -0.02261317 -0.02155111 0.004126949 0.022728395
-0.08091933 -0.0132658845 0.008119251 -0.026786812 -0.052414965 0.17860897 0.073631 0.028689837
0.015101436 0.0075607253 -0.0011842164 -0.01938925 -0.04264183 -0.016689291 -0.06899753 -0.035681866
-0.03765332 -0.0013393855 -0.036704674 0.01316224 -0.041686267 0.012483729 0.007295895 0.0061661582
0.017071486 0.001890433 0.04542057 0.005989495 0.059875567 0.049123835 0.03456145 0.053678017
0.08382796 -0.06547103 -0.049021713 -0.026344772 0.007508276 -0.13542953 -0.022377871 -0.008076921
0.0490402 -0.02787618 -0.04189696 -0.027424239 -0.05395647 0.021911504 0.05053605 0.06732776
0.09212433 -0.030240675 0.060198896 -0.006397193 0.0662584 0.008415016 0.09591753 0.13747945
0.08553146 0.12877491 0.01516756 0.01209173 0.031108849 0.02353772 0.004376289 0.019102104
-0.057714704 0.0981857 0.06872732 0.057770364 -0.002419785 -0.017370198 0.067268796 0.07159416
0.03082039 0.044034623 -0.03447375 -0.051451698 -0.035298686 -0.032805428 -0.14083311 -0.08399646
-0.13437487 -0.050662056 -0.03576768 -0.08496179 -0.15263411 -0.031231232 -0.12247725 0.09449681
-0.004678539 0.03217921 -0.02576909 -0.0076403082 -0.06154936 -0.0470836 -0.029873142 -0.06780631
0.022939397 0.086251676 -0.08664935 0.078222655 -0.059987865 -0.06230786 -0.05788397 -0.048943575
-0.031040477 -0.04003847 -0.12422689 -0.005413789 -0.0344971 0.0036357339 0.000117136056 -0.1432551
-0.035574485 -0.09304575 -0.0045340518 -0.019713972 -0.16310705 0.030960694 -0.0038424279 0.0072708647
0.07815879 0.08167834 0.036168955 0.16962478 0.07916777 -0.017543197 -0.05658214 0.03175895
-0.016615197 0.010007814 -0.038365144 -0.015760764 -0.025663404 0.04378835 0.022065528 -0.04145199
0.005997904 -0.03385131 0.018610207 -0.024755534 -0.020228721 -0.03935823 -0.08278471 -0.0044430867
0.0017791324 -0.014212379 -0.12525694 -0.087104835 -0.067995995 0.024225725 -0.0989116 -0.08956062
0.0030696434 -0.055453867 0.09348884 -0.13546634 0.05255043 0.07092073 0.05676417 0.052049708
-0.045259044 -0.06349876 0.003696804 -0.05838815 -0.038780406 -0.032436118 -0.14754434 -0.11325148
-0.09560359 -0.016289387 -0.007045651 0.018228821 -0.00809 0.031430945 0.04779292 0.0050200685
0.052870143 0.045474622 0.008850241 0.0011525075 -0.026439745 -0.00415817 0.017282037 0.028023796
-0.008565394 0.003954052 0.02066895 0.028408257 0.029512826 0.14210261 0.055816863 0.06532505
00000000: 4dd9 013e 7d87 3dbe 1f5b c4bd 4a63 71bd
00000010: 2883 ba3c b9be b63c accd 383d d169 ce3d
00000020: 27a4 73bb f4e3 be3d 46f1 2d3d 73ac 9a3d
00000030: 7899 953d 5115 003e 3760 063d aac6 e9bc
00000040: 4eff 303d a697 e83c 6b5b d13c 7cb0 393d
00000050: fe06 a83d 7486 533b 133c 14bc 2ba3 97bd
00000060: b76a 57bd bc58 83bd b3dd 9dbd 34cb 85bd
00000070: 377d 3bbd 6bb5 e7bb fa61 25bd 0ff1 bebb
00000080: bcdb a63c 7cc5 b93d 3373 133d d7e8 9a3d
00000090: 5955 813c b898 043c a046 393d deda 9b3c
000000a0: 8f4b 243d a1f0 31bc ef53 e4bc 77f4 8fbc
000000b0: e2ac b3bb d895 5fbd 5941 db3d 2f6e e23d
000000c0: 51f6 5c3d db8a f0bc 6e6a d73c 92b8 863c
000000d0: ffbc 9b3d f12d 10bd dc0c 28bd 723e a238
000000e0: 616d dbba de59 6c3c 0c1a c6b9 8abe 92bd
000000f0: 413f b9bc f48b b0bc 5b3b 873b e630 ba3c
00000100: 09b9 a5bd 2759 59bc 9b06 053c 0470 dbbc
00000110: 13b1 56bd 45e5 363e dacb 963d f306 eb3c
00000120: 036c 773c f6bf f73b b537 9bba 34d6 9ebc
00000130: 33a9 2ebd fbb7 88bc 944e 8dbd 2627 12bd
00000140: 5e3a 1abd 528e afba a457 16bd 70a6 573c
00000150: 38bf 2abd 8e88 4c3c 6712 ef3b 7c0d ca3b
00000160: 80d9 8b3c 68c8 f73a eb0a 3a3d 8743 c43b
00000170: 1540 753d 1336 493d 4f90 0d3d 7bdd 5b3d
00000180: fead ab3d ad15 86bd feca 48bd fed0 d7bc
00000190: fc07 f63b 0aae 0abe cc51 b7bc 1055 04bc
000001a0: 60de 483d 965c e4bc 269c 2bbd cca8 e0bc
000001b0: 7601 5dbd c17f b33c e4fe 4e3d 23e3 893d
000001c0: aeab bc3d 4bbb f7bc 1e93 763d 8b9f d1bb
000001d0: 7cb2 873d 23df 093c 6970 c43d 6ac7 0c3e
000001e0: 1e2b af3d 92dd 033e 5c81 783c 641c 463c
000001f0: fcd7 fe3c 2dd2 c03c f966 8f3b 047c 9c3c
00000200: 4166 6cbd 9615 c93d e9c0 8c3d 9ea0 6c3d
00000210: 4195 1ebb f24b 8ebc 39c4 893d f59f 923d
00000220: 0b7b fc3c a65d 343d 5934 0dbd 04bf 52bd
00000230: 5b95 10bd fc5e 06bd 8e36 10be 5606 acbd
00000240: 9199 09be 0483 4fbd 2181 12bd 7200 aebd
00000250: 1e4c 1cbe a4d8 ffbc 5ad5 fabd 8b87 c13d
00000260: 6e4e 99bb 59ce 033d b319 d3bc 8d5b fabb
00000270: 2f1b 7cbd bcda 40bd 85b8 f4bc 09de 8abd
00000280: 67eb bb3c b8a4 b03d 3775 b1bd 3333 a03d
00000290: d6b5 75bd 8736 7fbd be17 6dbd 0f79 48bd
000002a0: 9948 febc 61ff 23bd ab6a febd 2766 b1bb
000002b0: d54c 0dbd 7e45 6e3b f1a6 f538 77b1 12be
000002c0: 8db6 11bd c58e bebd 6292 94bb 327f a1bc
000002d0: 8905 27be 48a1 fd3c 3ed1 7bbb 6f40 ee3b
000002e0: b711 a03d f946 a73d e625 143d 1eb2 2d3e
000002f0: b622 a23d c0b6 8fbc adc2 67bd ac15 023d
00000300: 981c 88bc d0f7 233c c524 1dbd b81c 81bc
00000310: 0f3c d2bc 6a5b 333d c4c2 b43c 90c9 29bd
00000320: 118a c43b aca7 0abd 6f74 983c 1ecc cabc
00000330: b4b6 a5bc 1836 21bd 088b a9bd 5097 91bb
00000340: c731 e93a 0adb 68bc 5b43 00be 0564 b2bd
00000350: 7c41 8bbd 0775 c63c 2a92 cabd 8f6b b7bd
00000360: 122c 493b 9823 63bd 1477 bf3d b0b7 0abe
00000370: 1f3f 573d e33e 913d 8c81 683d 1332 553d
00000380: 8c61 39bd a30b 82bd 1446 723b 6a28 6fbd
00000390: 34d8 1ebd bcdb 04bd dd15 17be 64f0 e7bd
000003a0: d1cb c3bd 5271 85bc 34df e6bb 9c54 953c
000003b0: eb8b 04bc bcbd 003d 82c2 433d 637f a43b
000003c0: 5d8e 583d 9943 3a3d 9a00 113c bc0f 973a
000003d0: 2a98 d8bc 4241 88bb 0f93 8d3c 2992 e53c
000003e0: de55 0cbc fe90 813b ee51 a93c 6fb8 e83c
000003f0: e2c4 f13c 5983 113e 39a0 643d 24c9 853d

fc.bias f4 [2]
-0.0011683649 -0.0037887054
00000000: d223 99ba ee4b 78bb
