Lab2/egg_net_best_relu.pth (torch_old, 75076 bytes, 17 tensors)

layer1.0.weight f4 [16, 1, 1, 51]
00000000: bdd8 353d 5487 f9bc 07de 1b3e a2aa 293d
00000010: ece4 023c 3b36 10be efcf e539 beb1 d8bd
00000020: deef 4a3c 9194 92bc d952 e03c 9472 563c
00000030: 5594 413d 5033 4c3e ef95 cc3c 6af5 2bbe
00000040: efbf 74be 7559 a53d a1f1 283d f5fd 84bd
00000050: 82cf cabd 4212 b93d 5616 383e 874d a23d
00000060: bae8 79bc cab7 633d 0337 31be 14ff 30bd
00000070: bbc3 8fbd fae1 ccbd 86ee 3f3c 3cd4 d63d
00000080: 4dfc 2f3e ac0f edbd a839 3a3d 4d73 a33d
00000090: 2f82 88bd 23f9 273c f352 babd b2d8 4bbe
000000a0: 9c22 933d ad4b 103e 55c4 61bc 9a31 a03d
000000b0: 189a df3b 9118 ce3c 1b49 a1bd fd8c 083e
000000c0: 9d9f 9ebc 994d 72be d71b a33d c498 e5bc
000000d0: e354 e8bc c6f3 153d 95df f9bd 61e3 42bd
000000e0: 91f5 2fbe b6a0 25bd fb8d 0fbe d653 313c
000000f0: 357f e03d b834 16be 9939 9fbd 4f3e a7bd
00000100: cd33 1ebe ae5f 1cbd 8215 afbd 6885 80bd
00000110: b741 1d3e 2b20 423e 928c c53c 7228 2c3e
00000120: 8af9 fb3c 79b0 c3bd 6ed6 d6ba d1a4 0ebe
00000130: 261f 74bd 7995 00bd edd1 633d c83c 1fbd
00000140: 3014 8a3d 89f3 f0bd f8b7 b73d 4279 f6bc
00000150: ffac ec3d 5350 8f3d e1a8 033e ca0e 6e3d
00000160: bb16 003e 966d 203d 4b56 96bd 5c5a 1fbe
00000170: 6295 26be b0c3 acbd 96ca b9bd 90a9 123e
00000180: 1055 853d 1774 083d 41ed f63d 09e0 0ebe
00000190: e9c6 d13c 654d 03be 162c 99bd c7d7 7abc
000001a0: 3e68 cfbd e03f 933d c1e1 31bd 8b8a e0bc
000001b0: e276 04be 4593 80bd 6049 c43d cf04 1c3e
000001c0: dff9 07bd ef85 75bd 5528 f2bb 64c0 13be
000001d0: 9b85 c63d f2db a3bd 5c5b d63b a48b ff3c
000001e0: 5a10 f9bd 0977 d43b 4737 5f3d 85cb c1bc
000001f0: 0430 533d 6373 34be d96f bd3d 59e4 bb3d
00000200: 46eb ebbc e72f a9bd 3fc0 23be 2fed ffbd
00000210: 4a27 09bd 3b63 ed3d f739 dd3d a998 433c
00000220: 523e 65be f57d afbd aded 80bd f3b0 e23d
00000230: 552c dd3d 5bb5 bbbd 1abf 1dbe f595 4ebe
00000240: b5d6 c4bc ba01 0c3d a229 f13d 9d12 72bd
00000250: 3196 4dbe e3ff 3ebe 767e 943d ec52 8c3d
00000260: a455 993d 662e 74be 2ad2 093c 89ff 0bbe
00000270: d657 a7bb b83a 80bd 250e 223e 651e 843d
00000280: d4c9 b23c 7de1 a93c 6e15 1d3e c236 b93d
00000290: 4eb9 58be e9fd 97bc 8cd8 1f3e beae 1bbe
000002a0: 8d8a 5cbd d1af ae3d 149f 0abe 45ea f43c
000002b0: 4cc1 39bd 4562 38bc 2083 593e 9de4 c2bd
000002c0: 8741 083e 89ec f23d 9039 d53d ac3e 01be
000002d0: d937 603d 324c 0dbe d43c 27be db32 893d
000002e0: 2a9c 19be 427b 97bd 6646 d83d 1d3a 3ebd
000002f0: 44cf fc3c 11ed 933d 76e0 b1bd 547f 153e
00000300: 9b9c b3bc ecbb e3bd 051d 913d 71df 073c
00000310: 1a20 0f3d 061c ffbd bc10 1c3b f8fd 08be
00000320: 012f e33d 6b30 08be 01f2 61bc 2c50 ec3d
00000330: c73e 82be ac6e 72bd cc61 78be 2711 67bd
00000340: a965 98bc 7119 43bd 3c3b 66bd cf6e aeb8
00000350: f694 1ebe ffa7 1a3d a738 123e 0883 82bd
00000360: a59c ea3c a81b a33d 1fce 4dbc 7e86 663d
00000370: 8b75 4a3d 033e 653d 1c75 3e3d 6190 19be
00000380: e2ee 3e3d c9d6 44bd 7154 12bd ccc5 a9bd
00000390: 8868 053c 03f5 f4bd 2ef4 a4bc 1add 353e
000003a0: c2fa ac3b 6f65 d2bc 1236 96bd 4eb6 b03c
000003b0: 3c6e f63d 2cfa 333e 836a 23bc 821e 483d
000003c0: 86a4 033e 62c8 d83d 90d6 063d e92c 68bc
000003d0: 9b2a 2cbe 0dcd c9bd feca f3bd 21ed 6ebd
000003e0: c0f7 8fbd 109c 89bc 20e2 37bd 6ec0 6dbd
000003f0: b32b 3dbd 9f37 3fbe 5312 88be 6130 b5bd
0.04439615 -0.030460037 0.15221415 0.041422494 0.00798915 -0.14083187 0.00043833206 -0.10580777
0.01238629 -0.017893108 0.027383255 0.013088841 0.0472606 0.19941449 0.024973838 -0.16792837
-0.23901342 0.08073703 0.04124606 -0.06493751 -0.0990286 0.090366855 0.1797727 0.079249434
-0.01525324 0.055595197 -0.17306142 -0.04321201 -0.070197545 -0.10004039 0.011714583 0.10489699
0.17186089 -0.11575255 0.04546514 0.07980976 -0.066654555 0.01025227 -0.090978526 -0.19906881
0.071843356 0.14091368 -0.013779719 0.07821961 0.0068237893 0.025158199 -0.07875272 0.13335033
-0.019363219 -0.23662414 0.079642944 -0.028026946 -0.02836079 0.036609434 -0.12200848 -0.047580127
-0.1718352 -0.04043647 -0.14019005 0.010823211 0.10961763 -0.14668548 -0.07774658 -0.08166181
-0.15449448 -0.038177185 -0.08549024 -0.06275445 0.153571 0.18957584 0.02411488 0.16812304
0.030758638 -0.09555144 -0.0016390809 -0.1393006 -0.059600018 -0.03139255 0.055620123 -0.038876325
0.06742132 -0.11765201 0.08970636 -0.030087117 0.11556434 0.069977425 0.12857391 0.058119573
0.12508671 0.03916701 -0.07340678 -0.15561813 -0.16267923 -0.08435762 -0.09071843 0.14322495
0.06510365 0.033313837 0.12056971 -0.1395265 0.025607543 -0.12822492 -0.07479112 -0.015310234
-0.101273045 0.071899176 -0.043428186 -0.027409812 -0.12935975 -0.062780894 0.09584308 0.1523621
-0.03319728 -0.059942182 -0.007390062 -0.1442886 0.09693452 -0.080009356 0.0065416526 0.031194516
-0.12161322 0.0064839167 0.054496076 -0.023656616 0.051559463 -0.17622142 0.09249849 0.09174413
-0.02879871 -0.0826109 -0.15991305 -0.12496411 -0.033484735 0.11591192 0.108020715 0.0119382525
-0.22387055 -0.08568946 -0.06295333 0.11068907 0.10799471 -0.0916545 -0.1540493 -0.20174392
-0.024028162 0.034181334 0.11775519 -0.059099782 -0.20076825 -0.186523 0.07250683 0.068517536
0.07487038 -0.23845825 0.008411923 -0.13671698 -0.0051069064 -0.062612 0.15825708 0.0645111
0.021824755 0.020737404 0.15340206 0.09043647 -0.21164438 -0.018553691 0.1560995 -0.15203378
-0.05384307 0.08529628 -0.13537246 0.029896865 -0.045350358 -0.011253898 0.21241426 -0.09516261
0.13306247 0.11861522 0.1041137 -0.12621564 0.05474076 -0.13798597 -0.16331798 0.06699153
-0.15000978 -0.073965564 0.105603024 -0.04644214 0.03086055 0.07222951 -0.08685391 0.14599353
-0.021925261 -0.11119828 0.07085613 0.008293019 0.034942724 -0.12456517 0.0023813685 -0.13378131
0.1109295 -0.1329972 -0.013790608 0.11538729 -0.2543852 -0.059187576 -0.24256057 -0.056412842
-0.018603163 -0.047631685 -0.056208834 -8.317606e-05 -0.15486512 0.03775787 0.14279424 -0.063726485
0.028639147 0.079642594 -0.01256135 0.056280605 0.049428504 0.055967342 0.046498403 -0.14996482
0.046614535 -0.048056398 -0.03572506 -0.0828968 0.008142598 -0.11960795 -0.020135965 0.17760125
0.005278916 -0.025683133 -0.07334532 0.021571305 0.12032744 0.17575902 -0.009974125 0.04885722
0.1285573 0.10585095 0.032919466 -0.014170864 -0.16813128 -0.098535635 -0.11903952 -0.058331612
-0.070296764 -0.01679805 -0.044893384 -0.058044843 -0.046184253 -0.18673562 -0.2657648 -0.08847118

layer1.1.weight f4 [16]
00000000: e46f d53e aa28 fc3d 96bb 453f bfdf 9f3e
00000010: 0e81 fe3e a754 983e d2b5 d53e 89e7 e23e
00000020: abd2 d23e 0e07 a03e 71d5 613e 80b1 fc3e
00000030: ee56 873e cadc 293f d213 043e b0cc 963e
0.41686928 0.123124436 0.7723936 0.31225392 0.49707836 0.29752085 0.4174028 0.44317272
0.41176352 0.31255382 0.22054078 0.49354172 0.2643351 0.6635252 0.12898186 0.2945304

layer1.1.bias f4 [16]
00000000: 5e2e 24bb 6cde c73a 2d0a 173b 9bc9 4bba
00000010: e420 41bb 54ff 6bbb 7dab e63a 34f7 ca3a
00000020: 2951 85bb 8b68 35bb 6337 80ba 571c 943a
00000030: 0ad8 a63b 9908 1639 e566 cdba 3214 23bb
-0.002505205 0.0015248782 0.0023046837 -0.0007773877 -0.0029469067 -0.0036010342 0.0017598715 0.0015485049
-0.004068513 -0.002768072 -0.0009782132 0.001129995 0.005091672 0.00014308318 -0.0015670924 -0.0024883864

layer1.1.running_mean f4 [16]
00000000: e0b0 ce3a 355b db3c 9ee3 4c3d 2725 833c
00000010: 9784 983d 4a8a 82bc 5bc9 9f3c 4d56 963b
00000020: 530f ea3c 6bf5 fabd 3d8c 0c3c a842 e8bc
00000030: 76e1 163b 12bb 373c d675 c63c 9926 8239
0.0015769266 0.02677689 0.05002176 0.016008927 0.074471645 -0.015935082 0.019505193 0.0045879246
0.02857176 -0.12253841 0.008578357 -0.028352097 0.0023022569 0.011214035 0.02422611 0.0002482429

layer1.1.running_var f4 [16]
00000000: be7c 2f41 6f8a d341 ada2 aa41 dc12 5941
00000010: 4296 e641 f14f 5e41 5735 c341 4ad4 8540
00000020: 657f 8e41 5478 0643 c638 0942 5ce1 1f41
00000030: 23c2 1b40 b19a 5941 1ba6 3342 1ade 6740
10.967955 26.442595 21.329432 13.567104 28.823368 13.894517 24.401045 4.182164
17.812204 134.47003 34.305443 9.992519 2.4337242 13.600266 44.912212 3.622931

layer2.0.weight f4 [32, 1, 2, 1]
00000000: d557 0ebf 1acf 023e 19ad c13d 714e 6dbf
00000010: 63a1 aabe 4c51 cbbe bf8e 62be 3a27 17bf
00000020: 761b 633e 74bb 06bf 1f1e 3a3e 290f 2bbd
00000030: 1d58 b73e c5fa c7be 7f6e b8be abb1 e83e
00000040: 6987 78be 25d0 17be ed06 24bf f632 8f3e
00000050: 753f debe a17b d63e dd98 f7be 60e7 eb3e
00000060: f520 e33e 7dd9 1cbf afb5 483f 1116 ab3e
00000070: e0e3 913e fe69 acbd 8eb5 27bf bbfd de3d
00000080: a1c7 ecbe dcb1 d03e 4a75 8e3e 0599 643e
00000090: bf16 f73e a31c 513f a0ca c73e 1e74 fdbe
000000a0: c2ad 9abe c9e1 6e3e 78d8 c13e 3b59 433f
000000b0: 14ca 0f3e 8192 c0be ec43 14bf 0a67 023f
000000c0: ebcf 32bf edd8 383d bfd6 18be d1fa f93e
000000d0: 45a6 fcbc 225d d53e fe24 883e 5a79 bfbc
000000e0: a5db 26bf 5d30 973e 52fa 73be 7daa 233f
000000f0: 6578 f03d 1865 1abf ecfe 6dbd 1259 f83e
-0.5560277 0.12774315 0.09456844 -0.9269782 -0.33326253 -0.39710462 -0.22124766 -0.5904423
0.22178444 -0.5262978 0.18175553 -0.041762505 0.35809413 -0.3905851 -0.36021802 0.4544805
-0.24270405 -0.14825495 -0.6407307 0.27968568 -0.4340779 0.41891196 -0.48358813 0.46074963
0.44361082 -0.6126936 0.7840223 0.33415273 0.28494167 -0.08418654 -0.65511405 0.10888239
-0.46246055 0.40760696 0.2782386 0.22323997 0.4825954 0.8168432 0.39021778 -0.49502653
-0.30210692 0.23328318 0.37860465 0.7630803 0.1404193 -0.37611774 -0.5791614 0.50938475
-0.6984851 0.04512875 -0.14925669 0.4882417 -0.030841002 0.41672617 0.26590723 -0.023373295
-0.651789 0.29529086 -0.23825958 0.6393202 0.117417134 -0.60310507 -0.05810444 0.48505455

layer2.1.weight f4 [32]
00000000: 9a63 843f b34d 8d3f 9cdf 353f 20ba 3f3f
00000010: f1c5 673f 644f 553f 8252 723f 4be9 5c3f
00000020: ecc7 643f ef13 563f 5ec8 4b3f c0ce 493f
00000030: f904 603f c39b 4c3f 1767 793f c587 753f
00000040: f4a5 6f3f d487 653f 1b4f 573f b373 3c3f
00000050: 9fcf 693f 6452 633f 25c2 6b3f 6df9 673f
00000060: e15b 693f 7f38 853f 5a84 8b3f 7812 733f
00000070: ddbc 3e3f ddbf 5f3f 2d18 873f 0018 893f
1.0342896 1.1039337 0.71044326 0.7489338 0.9053641 0.83324265 0.94657147 0.86293477
0.89367557 0.83624166 0.7960261 0.788311 0.8750759 0.79925174 0.9742293 0.9591029
0.936126 0.8966038 0.8410508 0.73614043 0.9133243 0.88797593 0.92093116 0.9061497
0.9115582 1.0407866 1.0899765 0.94950056 0.7450693 0.87402135 1.0554253 1.0710449

layer2.1.bias f4 [32]
00000000: 1717 fabe 3e31 46bf 490f adbe 5277 ccbe
00000010: a741 13be b16a fbbe 5924 09bf 6f12 f1be
00000020: 352b bbbe 4acb cabe 8cf7 cabe 6f4d c6be
00000030: 93c7 12be 3c85 f1bd 9615 d2be f9e5 bbbe
00000040: 56e2 e8be f51b d5be 97ad 19bf 72a3 f5bd
00000050: ae7c 04bf 24d1 8cbe af2e adbe 90dd 21be
00000060: c0d8 c8be 0727 09bf e7c7 0cbf 6dc5 23bf
00000070: 1f16 1bbe 235c aebe 0bb3 ffbe 6956 31bf
-0.4884574 -0.7741889 -0.33800724 -0.39934784 -0.14380513 -0.49104837 -0.5357109 -0.47084376
-0.36556402 -0.39608222 -0.39641988 -0.38730952 -0.14333944 -0.117929906 -0.41032094 -0.36698893
-0.4548518 -0.41622892 -0.600305 -0.11994065 -0.51752746 -0.27503312 -0.3382468 -0.15807176
-0.39227867 -0.53575176 -0.54992527 -0.6397312 -0.15145157 -0.3405467 -0.49941286 -0.69272476

layer2.1.running_mean f4 [32]
00000000: b80b c43a 74b3 403b 6186 4839 e2a6 f338
00000010: e2ff 4dbb 6832 dcb9 39b5 d8b9 2447 d139
00000020: 7491 d63a ea1f 483b 2cd1 7039 2b6e 8839
00000030: c39a a6ba 5904 433a c6f7 3938 b6bf cfb8
00000040: 63c3 e539 db9b 06bb f236 91bb 03d0 f63a
00000050: 42a7 0a39 c40c 92ba fe10 813a d613 fdba
00000060: f6a0 5fbb daa7 003b 5203 0db9 cceb cab9
00000070: 06f3 853a 8ea4 11ba 9286 cfb8 1143 ad38
0.0014957106 0.0029403837 0.00019123546 0.00011618227 -0.0031433036 -0.00041999226 -0.00041333752 0.0003991659
0.0016370253 0.00305366 0.00022966106 0.00026022023 -0.0012710918 0.00074393075 4.4338194e-05 -9.906238e-05
0.00043823858 -0.0020539674 -0.004431599 0.0018830303 0.00013223014 -0.001114272 0.0009846983 -0.001930828
-0.003412304 0.0019631297 -0.00013448045 -0.00038704125 0.0010219521 -0.00055558316 -9.895595e-05 8.261775e-05

layer2.1.running_var f4 [32]
00000000: 209f 0f3d e177 143e b954 e63b f0e3 143c
00000010: 786e f43d 14dc 653c d264 103c 43d8 343c
00000020: e015 013d 4b1f 6e3d 9bb7 183c 0a27 3b3c
00000030: c56b 113d 0e89 423e 6070 4a3c d638 903d
00000040: 17f7 903c f2c1 1a3d 64fd 0e3e b943 683c
00000050: faef 013b 9ef9 6d3d f8ec e03c 3538 8e3d
00000060: e2d6 013d 85ee 633c 553c 933d ac7c e53c
00000070: a699 613b d99d 903b 1199 e53c 3534 9a3c
0.035063863 0.14498855 0.0070291427 0.009087548 0.11935133 0.0140295215 0.0088131 0.011037889
0.031515002 0.058135312 0.009321119 0.011422882 0.035503168 0.18997595 0.012355894 0.070420906
0.017695947 0.037782617 0.13963848 0.014176303 0.0019826875 0.05809938 0.027456746 0.069443144
0.03169907 0.013911848 0.07189242 0.02801355 0.0034423857 0.004413348 0.02802709 0.018823722

layer3.0.weight f4 [32, 32, 1, 15]
00000000: 3152 9c3d 6257 813c 939d bc3d e71f b13d
00000010: 007e 6c3d 14ca 053e 8783 bc3d ccdd f03c
00000020: 6198 c93d a583 c93d 5712 263e 5ce0 893d
00000030: 47a8 b23d 68ea b83d ae2a 413d f057 4abd
00000040: 9a98 b5bd 838b 67bd b5ea bdbc 79c2 d4bd
00000050: 5a8e e7bd 97be a8bd 96dd 09be 9273 1abe
00000060: 2a13 13be e2ff fabd 014f 0bbe 9ccb 43be
00000070: a3b1 06be b6ba 5ebe c3f4 a9bb cbb4 0dbd
00000080: fbd6 33bd 349b 263d 1d69 1abd b79e 46bd
00000090: 2c89 2b3c c163 293d 1bda 02be 9692 a3bd
000000a0: 778a ad3c faed 1a3d 7ace d2bd 635a 41bd
000000b0: 01f8 b53c 495a 7f3c 76f8 c4bb 335d 303d
000000c0: 691a 193c 2a07 86bd e16d 87bd c431 273d
000000d0: 94e5 353d d3bc b0bd 6ac9 ddbd 0b80 823b
000000e0: b583 17bd 2a8d 03be ddcc 5abd 92a5 13bc
000000f0: 079b 573d 659b b43c 01e7 a13d 4f3b ab3d
00000100: a03d e83b 7d11 a23d 427a a93d e2e1 753c
00000110: f3f6 8d3c cd14 273d b239 19bc 6636 00bc
00000120: d9d8 b13c 8f2a f23c afdb 17bd 22ff afbd
00000130: b2c9 80bd ec5a 8dbd 685e 59bd 8966 53bd
00000140: ed25 c1bc 933b 8ebd baba 41bc cab7 aebc
00000150: ee72 28bd 80d3 84bd f970 3ebd c3fe 3ebd
00000160: b34e 73bd 00c1 33bc edd6 8abb 83a7 fa3c
00000170: 03bc 643d 111f ef3b dbae 843c 6a71 b53d
00000180: afa5 793c c007 9bbc 6ee2 863d 9c67 5c3d
00000190: 1930 4cbd 0823 10bd afd9 01bb cea9 aabd
000001a0: f3f7 c9bd d688 cc3d c447 813d c593 013e
000001b0: 6c2e ef3d 8dff 5e3c 46cf 6e3d 2c07 993d
000001c0: 8760 143a 40c2 68bc 0b6a 733d ea88 453c
000001d0: a395 a5bd 5ac7 bfbd 8f04 37bd 2b19 123d
000001e0: d99a 00bc d64c 01bb 3127 42bc 82dd 2abd
000001f0: 4b14 bdbd 3ea9 adbd c369 15bd 4b63 78bd
00000200: 65d7 8abd 0444 8c3d 1b6c 3a3d 8793 3f3d
00000210: 8ec4 4f3d f525 b53d cd55 ac3b 8897 b43c
00000220: 84e1 22bd f9c9 023d 0964 d83a 38d0 18bd
00000230: 0880 e1bc aba6 3a3b 6b3b c7bc a8ae f7bc
00000240: 9036 f63c a18e 2d3d 97b7 a43c 4893 243c
00000250: 7528 d33b 7f5d e9bc eaba 22bd cc70 01bc
00000260: 0d4c 8cbc 0b4b a9bb 42b1 593c 1644 0b3c
00000270: 1acb d93a 3255 0f3d 3349 ba3c 3d02 d13c
00000280: 8e6d 8a3d 3645 603d bf6e 393b a9c4 e0bc
00000290: 49e6 c6ba 5020 adbc 43fc 7c3c fcae 85bc
000002a0: beab 34bd eef1 70bc f5e2 403b 4927 87bb
000002b0: 2fb3 7d3c f003 7b3c 6793 3bbc 00a8 f0bb
000002c0: 8553 123d 7f4e 723d 2b4c 293d 357b 0cbd
000002d0: 4568 97bd bf01 7bbc 7626 56bd f33c 54bd
000002e0: 8912 11bd 8fb7 0ebd 9bfc 49bd 03e1 fdbc
000002f0: d40b a8bc 7d9f 65bd f571 50bd 1830 27bd
00000300: 67be 68bd fed4 c0bb 27f7 eebc f881 78bd
00000310: cf60 4cbb e471 32bd 03cc 0cbd 48a0 313c
00000320: bd4a 4e3b 04a0 053d 11f1 d33c 5592 08bd
00000330: 4a7c a7bc 5bc5 da3b afe0 f4bc f680 5d3d
00000340: 118d dd3d 5bad b8bc 1f81 20bb 9320 0bbc
00000350: 2553 acbd 3718 e7bc d806 3dbd 16a2 98bd
00000360: a580 76bc a9ec d03d 3916 813d 62e3 323b
00000370: b711 cabb a2c6 f4bc 7101 a53b e367 e43c
00000380: d568 223c ea4e d83c 6a55 2d3d 82bd af3c
00000390: ee1c a6bc 780e ffbc fec6 b9bc fce5 033a
000003a0: 1672 16bb f882 003d ee5a 0c3d 8248 20bd
000003b0: 3c0a 0abc c00f 553d a8b3 103d 82a5 64bb
000003c0: 446d 0fbe c8ec c2bd cbfa 70bd 0731 5ebd
000003d0: 1fcd b2bc 579f 96bc cd50 a4bc b8ab ab3b
000003e0: 91b0 0fbd 46de e1bd 755e adbd 1c07 a8bd
000003f0: 541c 95bd 9404 06be e486 f2bd 1409 363d
0.07632864 0.015788738 0.092097424 0.08648663 0.05773735 0.13065368 0.09204774 0.029402636
0.09843517 0.09839562 0.16217934 0.06732246 0.087235026 0.090290844 0.047159843 -0.04940027
-0.08866997 -0.056529533 -0.023183206 -0.10388655 -0.11306448 -0.08239477 -0.13463435 -0.15083149
-0.1436278 -0.12255837 -0.13604356 -0.1912064 -0.131537 -0.21750912 -0.0051866486 -0.034596246
-0.043906193 0.040675357 -0.0376979 -0.048491206 0.010469716 0.0413549 -0.12778513 -0.079869434
0.02118419 0.03782461 -0.102932885 -0.04720534 0.022212984 0.0155854905 -0.006011064 0.04305763
0.009344676 -0.06544335 -0.066127546 0.040818945 0.044408396 -0.08629765 -0.10829432 0.003982549
-0.03699084 -0.12846819 -0.05341803 -0.009011643 0.05263808 0.022046754 0.079053886 0.083609216
0.0070874244 0.07913492 0.08275272 0.015007468 0.017329669 0.04079132 -0.009352135 -0.00782547
0.021709846 0.02956131 -0.03707474 -0.085935846 -0.0628847 -0.069021076 -0.05306855 -0.051611457
-0.023577655 -0.06944957 -0.011824304 -0.021327872 -0.04112523 -0.06485653 -0.046494458 -0.04662968
-0.059401225 -0.010971308 -0.004237047 0.030597454 0.055843364 0.0072974046 0.016196659 0.08859523
0.015237256 -0.018924594 0.06586157 0.053809747 -0.049850557 -0.03518966 -0.0019813587 -0.08333169
-0.09861746 0.09987037 0.06312516 0.12654026 0.11678776 0.013610733 0.05830314 0.07472071
0.00056601356 -0.014206469 0.059427302 0.012056569 -0.080851816 -0.09364195 -0.04468208 0.035668533
-0.007849419 -0.0019729636 -0.011850164 -0.041715153 -0.09232386 -0.08479546 -0.036477815 -0.06064157
-0.067793645 0.068489105 0.045513254 0.046771552 0.05072456 0.0884513 0.0052592517 0.022044912
-0.03976585 0.031930897 0.0016509305 -0.037307948 -0.02752687 0.002848069 -0.024320325 -0.03023465
0.030055314 0.04237235 0.020107074 0.01004488 0.006444032 -0.028486965 -0.039729036 -0.007900428
-0.017126108 -0.0051664165 0.01328689 0.00850012 0.0016616315 0.034993358 0.022739982 0.025513763
0.06759177 0.054753505 0.002829477 -0.027437525 -0.0015174831 -0.021133572 0.015441003 -0.01631879
-0.0441091 -0.014706118 0.0029432152 -0.004124556 0.015484615 0.015320763 -0.011448718 -0.007344246
0.03572418 0.05915689 0.041332405 -0.034297187 -0.07392935 -0.0153202405 -0.052282773 -0.05181594
-0.035418067 -0.034843024 -0.04931317 -0.030991083 -0.020513453 -0.056060303 -0.050889928 -0.04081735
-0.056822207 -0.0058847656 -0.029170586 -0.060670823 -0.0031185632 -0.043565646 -0.03437425 0.010841437
0.0031477653 0.032623306 0.025871785 -0.033342678 -0.020445008 0.0066763586 -0.029892294 0.054078065
0.10817922 -0.0225436 -0.0024491025 -0.008491653 -0.08414296 -0.028209789 -0.046149105 -0.074527904
-0.01504532 0.10201389 0.06303067 0.0027296175 -0.0061666626 -0.029879872 0.005035572 0.027881568
0.009912689 0.026404817 0.042317785 0.021452669 -0.020277467 -0.031134829 -0.022677895 0.0005031524
-0.0022956184 0.0313749 0.034266405 -0.03913165 -0.008425292 0.052016973 0.035327584 -0.003488869
-0.14006525 -0.09517819 -0.058832925 -0.054245975 -0.021826325 -0.018386526 -0.02005806 0.0052389763
-0.035080496 -0.110287234 -0.08465282 -0.08204481 -0.07280794 -0.13087684 -0.118421346 0.04444225

layer3.1.weight f4 [32]
00000000: c62e 703f 08ed 883f 4504 773f 4e9e 803f
00000010: 26e8 7f3f 21b6 7f3f 8678 833f 3994 843f
00000020: 3864 7a3f eadf 743f f6f0 7f3f 9708 773f
00000030: 1a77 783f 5ea0 7c3f 6016 7f3f 2f55 813f
00000040: a2d8 7a3f e116 7b3f ea87 773f e3e5 813f
00000050: efe4 823f 3cea 883f efa6 883f 252f 7c3f
00000060: b278 8a3f 5c9b 803f 37f2 7a3f f377 823f
00000070: fda8 773f a8b0 803f 7c30 793f 4fc4 833f
0.9382137 1.0697336 0.9649089 1.0048311 0.99963605 0.9988728 1.0271156 1.0357734
0.9780917 0.95654166 0.9997705 0.9649748 0.97056735 0.986822 0.99643517 1.0104121
0.97986805 0.98081785 0.96691763 1.0148281 1.0226115 1.0696483 1.0675944 0.98509437
1.0818083 1.0047412 0.9802584 1.0192856 0.9674223 1.0053911 0.97339606 1.0294284

layer3.1.bias f4 [32]
00000000: 8352 86be d59f c9be 4968 afbe 5ebf 91be
00000010: 4013 8abe 1ba5 aabe 89d6 c6be c925 cabe
00000020: 0e20 83be 3658 5bbe d45d c4be 438a 96be
00000030: c704 8bbe a186 b2be 6aba c2be 9e7f c0be
00000040: 6f69 adbe f4d5 f2be 23e6 dabe dfa0 cdbe
00000050: bbf0 dabe ad3b d4be 1cf8 20be 324a b9be
00000060: 1f8e cbbd 4453 9ebe 2f61 82be 5b7a 4cbe
00000070: e143 adbe 2c50 ddbe db12 96be 73a9 cbbe
-0.26234826 -0.39379755 -0.3425925 -0.28466314 -0.26967812 -0.3332909 -0.38835552 -0.39481953
-0.25610393 -0.21420369 -0.38352835 -0.2940236 -0.27152082 -0.3486834 -0.38032848 -0.37597364
-0.33869502 -0.47428858 -0.42753705 -0.40161797 -0.42761788 -0.4145178 -0.15719646 -0.3618942
-0.09939217 -0.30922902 -0.2546477 -0.1996855 -0.3384085 -0.4322523 -0.2931126 -0.39777717

layer3.1.running_mean f4 [32]
00000000: 193e 88bd 11a0 1abf 03aa 983d aedd 35bf
00000010: ef46 a7be 0d43 44bf 3ce2 ffbe 291e 59bf
00000020: a956 8abe e60c 9abe 9bd4 1cbf c319 2dbf
00000030: cd1f ca3d 5c12 61bf cc34 5dbf 3de5 80bf
00000040: 2aaa a5be 8352 ffbe 2fb1 74bf 0093 49bf
00000050: fdab c7be 6f43 46bf a4c2 75be 1844 2dbf
00000060: 0813 efbd 4403 25bf 74ae 23be 48eb eebe
00000070: 90f5 24be 36b1 b13e a43f 2d3c d0c0 0abf
-0.06652469 -0.6040049 0.07454302 -0.7104138 -0.32671306 -0.7666481 -0.4997729 -0.84811646
-0.2701924 -0.30087966 -0.6126191 -0.67617434 0.09869347 -0.8791864 -0.86408687 -1.0069958
-0.32356387 -0.4986764 -0.9558286 -0.7873993 -0.38998404 -0.77446645 -0.24000031 -0.6768203
-0.11673552 -0.6445811 -0.15984517 -0.4666388 -0.161093 0.34705514 0.010574255 -0.5420046

layer3.1.running_var f4 [32]
00000000: e277 093f 964a 6f3f dfa9 223f c997 7c3f
00000010: 74a2 103f 62a4 843f 7dc2 5a3f 574f 673f
00000020: 0192 2a3f a7dc 2c3f a0b4 7d3f cc0c e33e
00000030: 45df 0a3f 149a 8d3f 9d68 323f 5d24 643f
00000040: a409 1b3f 7d3a 483f 6ddc b63f ddb9 7e3f
00000050: 93cc 203f 5538 973f 05ad 063f ebff 5a3f
00000060: 591b 233f 430b fa3e ced9 383f 7533 fb3e
00000070: bead 1e3f 4d7c 053f 30bf 0a3f da34 8a3f
0.5369855 0.93473184 0.6354045 0.98669106 0.56497884 1.0362666 0.85453016 0.9035544
0.66629034 0.6752419 0.99103737 0.443457 0.5424693 1.1062646 0.6969088 0.89117986
0.60561585 0.78214246 1.4286019 0.99502355 0.62812155 1.1814066 0.52607757 0.8554675
0.63713604 0.48836717 0.72207344 0.49062696 0.6198386 0.5214279 0.5419798 1.0797379

fc.weight f4 [2, 736]
00000000: 873f dd3c 757e d43c 2734 fd3c 46ee 6c3c
00000010: 8954 853d 2c73 073e 0218 973d d5f8 193a
00000020: 4877 9b3d fac3 63bc 3ec9 273d b188 243d
00000030: f716 723d 4c54 a6bd 4c79 263d a920 f23c
00000040: 0407 eb3c d24e 983c de58 823d 73f6 f93c
00000050: 1cfe 9c3d 53cb 1f3c 68f0 823c f464 fc3d
00000060: 7b7d 183e 8ef1 123e 83e9 173d 0f21 9b3d
00000070: 5119 c63c bc30 88bd ab0f 1bbd 03cb 323c
00000080: f7f5 f4bd a73e bfbd a3f0 a3bd 5c2d 45bd
00000090: 199d 95bc 2752 3abe 83b2 17be a2a0 59bd
000000a0: 2ac8 a73c 7aca e03b e032 5fbd 32e5 0abd
000000b0: 1676 80ba adfe 2abc ff27 1ebe 17bf abbd
000000c0: a672 e5bc 6b5e 953d 82bb bc3d 0c0a ce3d
000000d0: c8ea 9f3d 7762 a33d a5a7 533d e8e4 a63d
000000e0: e971 893b cd7e e23d a1c8 123d 58ef e43c
000000f0: 6d44 9f3d cec0 6a3d 35be 123c 99a4 a1bc
00000100: e88a cb3c 7d89 bc3d 648a febb 2cae e23c
00000110: 88e3 803d bbb7 1c3e 784f 373e d913 cc3d
00000120: 886d fc3d 42b4 8b3d c53e b33d eb0d 873d
00000130: 93eb 153d d773 85bc c393 893c 12ed 883c
00000140: 9b4a a53c 254c 763b b77d 94bd 2e85 3c3d
00000150: c2a5 a6bc f744 06bd 9cf0 89bd 5b50 12bd
00000160: f861 8fbb a2c2 82bc b2ec 8fbc ed54 5cbd
00000170: 4562 afbd a8d9 d6bd 7520 ebbd 967b 23be
00000180: 9ba2 95bd 743b ddbd 24a5 d5bc 2505 ebbc
00000190: 100f 04bd b8b3 7ebd f4e3 e9bc f94e ffbc
000001a0: 4ec7 7cbb 7692 82bc 5893 17bd 9afe b1bb
000001b0: ac83 9fbd f3c8 69bc 5a82 eebc e1e2 e8bd
000001c0: 44e0 203d 9589 bcbc f5ae c8bb 6bb2 fe3d
000001d0: b82c 2e3e 8831 933d 7198 6a3d 85c3 98bc
000001e0: 2abc 203b 227c 1ebc 822b 8f3c 7fe4 5d3d
000001f0: db57 673d 775d 263d ead3 7f3d 91b5 3d3d
00000200: d62c 073e 37c5 ffbd a03e 99bd 8f8f c93b
00000210: d94e f53a a3cc aabd 522e 8abd 0eb7 1bbd
00000220: 3a47 efbc ab48 05bd 43b1 82be 3a7f 24be
00000230: e72e 14bc f1b3 6dbd 3170 38bb a47e 27bc
00000240: f489 02bb 6436 af3b 93d8 013e 7d9c 783d
00000250: 01f7 b13d c4d9 0e3e b889 3dbc 8cb6 dfbd
00000260: ccd0 313a 04cc 193d 1496 5f3d 9ed2 7e3d
00000270: f0a2 823c cf80 ff3c f723 cdbc a199 41bd
00000280: ce95 00bd 590e 293e f883 873d 0da3 143e
00000290: 37bc 843c 2c8a 023c c1f5 bb3c bd99 fd3a
000002a0: bad2 8bbd fc50 dabd f125 c3bd c7e9 01be
000002b0: 1098 a4bc 1d71 9d3c a631 9fbd 5883 18be
000002c0: f20c fb3c 0ab2 ddbc 9c41 ecbc 2ad8 10bd
000002d0: 3e4d 683d a4b0 d63c c07c f5bd 3460 d6bc
000002e0: 45b4 193e e183 c43d d5de f83c e11d 6a3c
000002f0: 3359 aa3d 654a dd3d 7e15 ac3c ed68 d3bc
00000300: 710d 753d 7d93 853d 7742 693c 5af0 423d
00000310: ed0f 82ba d66f 04be 870e b5bc 3786 773d
00000320: b86e ba3d 878d bd3b 0d70 aa3b b656 893d
00000330: 9dfc 033d ef18 0cbd c023 48bd 3535 7a3d
00000340: 1165 b23d 8bd3 843d 87bc af3d c8e6 e13d
00000350: f56f 513d 1b69 053d 9c86 5f3d 52fd 6c3d
00000360: a4ac 8d3d 7f58 873d 5eb2 723d 4b9f 98bc
00000370: b8c4 b53d 681d 043b d923 603c a9f0 c1bc
00000380: 3222 b03c 738a 073d 9050 d9bc 3f8d 25bd
00000390: 9113 dd3c a5fc d43a 4649 f23d da7f 5d3e
000003a0: e07b 8f3d 2944 993d add4 273d 7815 f1bc
000003b0: 58b0 023b f493 f6bc 87c3 98bc fd6d c0bd
000003c0: a3aa 79bd b03e 9bbd ed33 ddbc 1b78 82bd
000003d0: 4f0c 103d 5e9d 07be 5ac9 c8bd 72eb c23c
000003e0: ed2a 1f3d b4d5 ecbc a3e9 fcbb 3cb7 9bbc
000003f0: cdaf 91bc a9e1 27bd ea13 c0bd 57d2 10be
0.027007831 0.025939206 0.030908657 0.014461106 0.065102644 0.13227528 0.07377626 0.00058735657
0.075911105 -0.013901705 0.040963404 0.04016942 0.059103932 -0.08121547 0.04064302 0.02955659
0.028689869 0.018592272 0.06364606 0.030513024 0.07665655 0.009753066 0.015983775 0.12323943
0.14891617 0.14349958 0.03708793 0.07574665 0.024181994 -0.0664992 -0.03785674 0.01091266
-0.119609766 -0.09338122 -0.08004882 -0.04813896 -0.018263387 -0.18195401 -0.1481419 -0.053131707
0.020481188 0.0068600746 -0.054491878 -0.033909984 -0.0009800817 -0.010436696 -0.15444945 -0.08386057
-0.02800877 0.072933994 0.09215452 0.1006051 0.07808453 0.07977765 0.05167355 0.08149129
0.0041944874 0.110593416 0.035835866 0.02794616 0.07776723 0.05731278 0.008956482 -0.019731807
0.02484651 0.09205911 -0.0077679623 0.027670942 0.06293398 0.15304463 0.17901409 0.09964723
0.12325579 0.06821491 0.08752207 0.065944515 0.036601614 -0.016290588 0.016794091 0.016714606
0.020177176 0.0037582007 -0.07250541 0.046025448 -0.020342711 -0.032780614 -0.06735346 -0.035721164
-0.0043756925 -0.015961949 -0.01756892 -0.05379193 -0.08563665 -0.104907334 -0.114808 -0.15965113
-0.07306405 -0.108023554 -0.026079722 -0.028688977 -0.032240927 -0.062183112 -0.02855108 -0.031165587
-0.0038570943 -0.015938979 -0.037005752 -0.005431962 -0.07788786 -0.014269101 -0.02911489 -0.11371399
0.039276376 -0.023014823 -0.006124372 0.12436374 0.17009246 0.07187182 0.057274286 -0.018647918
0.0024526217 -0.00967315 0.0174768 0.05417299 0.05648027 0.04061648 0.062457956 0.046315733
0.13200697 -0.124887876 -0.07482648 0.0061511467 0.0018715515 -0.083398126 -0.06747116 -0.03801637
-0.029208768 -0.032540005 -0.25525865 -0.16064158 -0.0090443855 -0.058032934 -0.0028143043 -0.010223065
-0.0019918652 0.00534706 0.12680273 0.060696114 0.086896904 0.13950258 -0.011568479 -0.1092349
0.00067831273 0.03754808 0.054586485 0.06221258 0.015946835 0.03118935 -0.025041563 -0.047265653
-0.031392865 0.1650938 0.06616968 0.14515324 0.01620303 0.007967513 0.022944333 0.0019348186
-0.06827302 -0.10659978 -0.09528721 -0.12686835 -0.02009204 0.019218976 -0.077731416 -0.14893854
0.030645821 -0.027062435 -0.028839879 -0.0353624 0.05671429 0.026207276 -0.11986685 -0.02616892
0.15010174 0.095954664 0.030379692 0.01428935 0.08317795 0.10805205 0.021006342 -0.025806868
0.05982727 0.06522272 0.014237038 0.0475925 -0.0009922959 -0.12933287 -0.022101654 0.06043073
0.09103149 0.0057846936 0.005201346 0.06705992 0.032223333 -0.034203466 -0.04886222 0.0610859
0.08710683 0.06485661 0.085808806 0.11030346 0.05113216 0.03257094 0.054571733 0.057858773
0.06917694 0.06608676 0.059252135 -0.018630644 0.08875412 0.002015913 0.013680422 -0.023674326
0.02150068 0.03309102 -0.026527673 -0.040417906 0.026986869 0.001624961 0.11830382 0.21630803
0.07006049 0.07483704 0.040974308 -0.029429182 0.0019941535 -0.030099846 -0.018647922 -0.093959786
-0.060953747 -0.07580316 -0.0270023 -0.063705646 0.03516799 -0.13243625 -0.0980403 0.02379391
0.038859297 -0.028910495 -0.0077182814 -0.019008271 -0.017784024 -0.04098669 -0.09378798 -0.14142738

fc.bias f4 [2]
00000000: 532e 043d d7d1 2cbd
0.03227074 -0.042192306
